{
  "nodes": [
    {
      "op": "null", 
      "name": "data", 
      "inputs": []
    }, 
    {
      "op": "null", 
      "name": "pydnet_0_75/conv0/batchnorm0_gamma", 
      "attrs": {
        "__dtype__": "0", 
        "__init__": "ones", 
        "__lr_mult__": "1.0", 
        "__shape__": "(0,)", 
        "__storage_type__": "0", 
        "__wd_mult__": "1.0"
      }, 
      "inputs": []
    }, 
    {
      "op": "null", 
      "name": "pydnet_0_75/conv0/batchnorm0_beta", 
      "attrs": {
        "__dtype__": "0", 
        "__init__": "zeros", 
        "__lr_mult__": "1.0", 
        "__shape__": "(0,)", 
        "__storage_type__": "0", 
        "__wd_mult__": "1.0"
      }, 
      "inputs": []
    }, 
    {
      "op": "null", 
      "name": "pydnet_0_75/conv0/batchnorm0_running_mean", 
      "attrs": {
        "__dtype__": "0", 
        "__init__": "zeros", 
        "__lr_mult__": "1.0", 
        "__shape__": "(0,)", 
        "__storage_type__": "0", 
        "__wd_mult__": "1.0"
      }, 
      "inputs": []
    }, 
    {
      "op": "null", 
      "name": "pydnet_0_75/conv0/batchnorm0_running_var", 
      "attrs": {
        "__dtype__": "0", 
        "__init__": "ones", 
        "__lr_mult__": "1.0", 
        "__shape__": "(0,)", 
        "__storage_type__": "0", 
        "__wd_mult__": "1.0"
      }, 
      "inputs": []
    }, 
    {
      "op": "BatchNorm", 
      "name": "pydnet_0_75/conv0/batchnorm0_fwd", 
      "attrs": {
        "axis": "1", 
        "eps": "1e-05", 
        "fix_gamma": "True", 
        "momentum": "0.9", 
        "use_global_stats": "False"
      }, 
      "inputs": [[0, 0, 0], [1, 0, 0], [2, 0, 0], [3, 0, 1], [4, 0, 1]]
    }, 
    {
      "op": "null", 
      "name": "pydnet_0_75/conv0/conv0_weight", 
      "attrs": {
        "__dtype__": "0", 
        "__lr_mult__": "1.0", 
        "__shape__": "(64, 0, 3, 3)", 
        "__storage_type__": "0", 
        "__wd_mult__": "1.0"
      }, 
      "inputs": []
    }, 
    {
      "op": "Convolution", 
      "name": "pydnet_0_75/conv0/conv0_fwd", 
      "attrs": {
        "dilate": "(1, 1)", 
        "kernel": "(3, 3)", 
        "layout": "NCHW", 
        "no_bias": "True", 
        "num_filter": "64", 
        "num_group": "1", 
        "pad": "(1, 1)", 
        "stride": "(1, 1)"
      }, 
      "inputs": [[5, 0, 0], [6, 0, 0]]
    }, 
    {
      "op": "null", 
      "name": "pydnet_0_75/stg0/blk0/btl_in/batchnorm0_gamma", 
      "attrs": {
        "__dtype__": "0", 
        "__init__": "ones", 
        "__lr_mult__": "1.0", 
        "__shape__": "(0,)", 
        "__storage_type__": "0", 
        "__wd_mult__": "1.0"
      }, 
      "inputs": []
    }, 
    {
      "op": "null", 
      "name": "pydnet_0_75/stg0/blk0/btl_in/batchnorm0_beta", 
      "attrs": {
        "__dtype__": "0", 
        "__init__": "zeros", 
        "__lr_mult__": "1.0", 
        "__shape__": "(0,)", 
        "__storage_type__": "0", 
        "__wd_mult__": "1.0"
      }, 
      "inputs": []
    }, 
    {
      "op": "null", 
      "name": "pydnet_0_75/stg0/blk0/btl_in/batchnorm0_running_mean", 
      "attrs": {
        "__dtype__": "0", 
        "__init__": "zeros", 
        "__lr_mult__": "1.0", 
        "__shape__": "(0,)", 
        "__storage_type__": "0", 
        "__wd_mult__": "1.0"
      }, 
      "inputs": []
    }, 
    {
      "op": "null", 
      "name": "pydnet_0_75/stg0/blk0/btl_in/batchnorm0_running_var", 
      "attrs": {
        "__dtype__": "0", 
        "__init__": "ones", 
        "__lr_mult__": "1.0", 
        "__shape__": "(0,)", 
        "__storage_type__": "0", 
        "__wd_mult__": "1.0"
      }, 
      "inputs": []
    }, 
    {
      "op": "BatchNorm", 
      "name": "pydnet_0_75/stg0/blk0/btl_in/batchnorm0_fwd", 
      "attrs": {
        "axis": "1", 
        "eps": "1e-05", 
        "fix_gamma": "False", 
        "momentum": "0.9", 
        "use_global_stats": "False"
      }, 
      "inputs": [[7, 0, 0], [8, 0, 0], [9, 0, 0], [10, 0, 1], [11, 0, 1]]
    }, 
    {
      "op": "Activation", 
      "name": "pydnet_0_75/stg0/blk0/btl_in/relu0_fwd", 
      "attrs": {"act_type": "relu"}, 
      "inputs": [[12, 0, 0]]
    }, 
    {
      "op": "null", 
      "name": "pydnet_0_75/stg0/blk0/btl_in/conv0_weight", 
      "attrs": {
        "__dtype__": "0", 
        "__lr_mult__": "1.0", 
        "__shape__": "(48, 0, 1, 1)", 
        "__storage_type__": "0", 
        "__wd_mult__": "1.0"
      }, 
      "inputs": []
    }, 
    {
      "op": "Convolution", 
      "name": "pydnet_0_75/stg0/blk0/btl_in/conv0_fwd", 
      "attrs": {
        "dilate": "(1, 1)", 
        "kernel": "(1, 1)", 
        "layout": "NCHW", 
        "no_bias": "True", 
        "num_filter": "48", 
        "num_group": "1", 
        "pad": "(0, 0)", 
        "stride": "(1, 1)"
      }, 
      "inputs": [[13, 0, 0], [14, 0, 0]]
    }, 
    {
      "op": "null", 
      "name": "pydnet_0_75/stg0/blk0/btl_in/batchnorm1_gamma", 
      "attrs": {
        "__dtype__": "0", 
        "__init__": "ones", 
        "__lr_mult__": "1.0", 
        "__shape__": "(0,)", 
        "__storage_type__": "0", 
        "__wd_mult__": "1.0"
      }, 
      "inputs": []
    }, 
    {
      "op": "null", 
      "name": "pydnet_0_75/stg0/blk0/btl_in/batchnorm1_beta", 
      "attrs": {
        "__dtype__": "0", 
        "__init__": "zeros", 
        "__lr_mult__": "1.0", 
        "__shape__": "(0,)", 
        "__storage_type__": "0", 
        "__wd_mult__": "1.0"
      }, 
      "inputs": []
    }, 
    {
      "op": "null", 
      "name": "pydnet_0_75/stg0/blk0/btl_in/batchnorm1_running_mean", 
      "attrs": {
        "__dtype__": "0", 
        "__init__": "zeros", 
        "__lr_mult__": "1.0", 
        "__shape__": "(0,)", 
        "__storage_type__": "0", 
        "__wd_mult__": "1.0"
      }, 
      "inputs": []
    }, 
    {
      "op": "null", 
      "name": "pydnet_0_75/stg0/blk0/btl_in/batchnorm1_running_var", 
      "attrs": {
        "__dtype__": "0", 
        "__init__": "ones", 
        "__lr_mult__": "1.0", 
        "__shape__": "(0,)", 
        "__storage_type__": "0", 
        "__wd_mult__": "1.0"
      }, 
      "inputs": []
    }, 
    {
      "op": "BatchNorm", 
      "name": "pydnet_0_75/stg0/blk0/btl_in/batchnorm1_fwd", 
      "attrs": {
        "axis": "1", 
        "eps": "1e-05", 
        "fix_gamma": "False", 
        "momentum": "0.9", 
        "use_global_stats": "False"
      }, 
      "inputs": [[15, 0, 0], [16, 0, 0], [17, 0, 0], [18, 0, 1], [19, 0, 1]]
    }, 
    {
      "op": "Activation", 
      "name": "pydnet_0_75/stg0/blk0/btl_in/relu1_fwd", 
      "attrs": {"act_type": "relu"}, 
      "inputs": [[20, 0, 0]]
    }, 
    {
      "op": "null", 
      "name": "pydnet_0_75/stg0/blk0/conv3/conv0_weight", 
      "attrs": {
        "__dtype__": "0", 
        "__lr_mult__": "1.0", 
        "__shape__": "(48, 0, 3, 3)", 
        "__storage_type__": "0", 
        "__wd_mult__": "1.0"
      }, 
      "inputs": []
    }, 
    {
      "op": "Convolution", 
      "name": "pydnet_0_75/stg0/blk0/conv3/conv0_fwd", 
      "attrs": {
        "dilate": "(1, 1)", 
        "kernel": "(3, 3)", 
        "layout": "NCHW", 
        "no_bias": "True", 
        "num_filter": "48", 
        "num_group": "48", 
        "pad": "(1, 1)", 
        "stride": "(1, 1)"
      }, 
      "inputs": [[21, 0, 0], [22, 0, 0]]
    }, 
    {
      "op": "null", 
      "name": "pydnet_0_75/stg0/blk0/conv5/conv0_weight", 
      "attrs": {
        "__dtype__": "0", 
        "__lr_mult__": "1.0", 
        "__shape__": "(48, 0, 5, 5)", 
        "__storage_type__": "0", 
        "__wd_mult__": "1.0"
      }, 
      "inputs": []
    }, 
    {
      "op": "Convolution", 
      "name": "pydnet_0_75/stg0/blk0/conv5/conv0_fwd", 
      "attrs": {
        "dilate": "(1, 1)", 
        "kernel": "(5, 5)", 
        "layout": "NCHW", 
        "no_bias": "True", 
        "num_filter": "48", 
        "num_group": "48", 
        "pad": "(2, 2)", 
        "stride": "(1, 1)"
      }, 
      "inputs": [[21, 0, 0], [24, 0, 0]]
    }, 
    {
      "op": "null", 
      "name": "pydnet_0_75/stg0/blk0/conv7/conv0_weight", 
      "attrs": {
        "__dtype__": "0", 
        "__lr_mult__": "1.0", 
        "__shape__": "(48, 0, 7, 7)", 
        "__storage_type__": "0", 
        "__wd_mult__": "1.0"
      }, 
      "inputs": []
    }, 
    {
      "op": "Convolution", 
      "name": "pydnet_0_75/stg0/blk0/conv7/conv0_fwd", 
      "attrs": {
        "dilate": "(1, 1)", 
        "kernel": "(7, 7)", 
        "layout": "NCHW", 
        "no_bias": "True", 
        "num_filter": "48", 
        "num_group": "48", 
        "pad": "(3, 3)", 
        "stride": "(1, 1)"
      }, 
      "inputs": [[21, 0, 0], [26, 0, 0]]
    }, 
    {
      "op": "Concat", 
      "name": "pydnet_0_75/stg0/blk0/concat0", 
      "attrs": {
        "dim": "1", 
        "num_args": "3"
      }, 
      "inputs": [[23, 0, 0], [25, 0, 0], [27, 0, 0]]
    }, 
    {
      "op": "null", 
      "name": "pydnet_0_75/stg0/blk0/btl_out/batchnorm0_gamma", 
      "attrs": {
        "__dtype__": "0", 
        "__init__": "ones", 
        "__lr_mult__": "1.0", 
        "__shape__": "(0,)", 
        "__storage_type__": "0", 
        "__wd_mult__": "1.0"
      }, 
      "inputs": []
    }, 
    {
      "op": "null", 
      "name": "pydnet_0_75/stg0/blk0/btl_out/batchnorm0_beta", 
      "attrs": {
        "__dtype__": "0", 
        "__init__": "zeros", 
        "__lr_mult__": "1.0", 
        "__shape__": "(0,)", 
        "__storage_type__": "0", 
        "__wd_mult__": "1.0"
      }, 
      "inputs": []
    }, 
    {
      "op": "null", 
      "name": "pydnet_0_75/stg0/blk0/btl_out/batchnorm0_running_mean", 
      "attrs": {
        "__dtype__": "0", 
        "__init__": "zeros", 
        "__lr_mult__": "1.0", 
        "__shape__": "(0,)", 
        "__storage_type__": "0", 
        "__wd_mult__": "1.0"
      }, 
      "inputs": []
    }, 
    {
      "op": "null", 
      "name": "pydnet_0_75/stg0/blk0/btl_out/batchnorm0_running_var", 
      "attrs": {
        "__dtype__": "0", 
        "__init__": "ones", 
        "__lr_mult__": "1.0", 
        "__shape__": "(0,)", 
        "__storage_type__": "0", 
        "__wd_mult__": "1.0"
      }, 
      "inputs": []
    }, 
    {
      "op": "BatchNorm", 
      "name": "pydnet_0_75/stg0/blk0/btl_out/batchnorm0_fwd", 
      "attrs": {
        "axis": "1", 
        "eps": "1e-05", 
        "fix_gamma": "False", 
        "momentum": "0.9", 
        "use_global_stats": "False"
      }, 
      "inputs": [[28, 0, 0], [29, 0, 0], [30, 0, 0], [31, 0, 1], [32, 0, 1]]
    }, 
    {
      "op": "Activation", 
      "name": "pydnet_0_75/stg0/blk0/btl_out/relu0_fwd", 
      "attrs": {"act_type": "relu"}, 
      "inputs": [[33, 0, 0]]
    }, 
    {
      "op": "null", 
      "name": "pydnet_0_75/stg0/blk0/btl_out/conv0_weight", 
      "attrs": {
        "__dtype__": "0", 
        "__lr_mult__": "1.0", 
        "__shape__": "(64, 0, 1, 1)", 
        "__storage_type__": "0", 
        "__wd_mult__": "1.0"
      }, 
      "inputs": []
    }, 
    {
      "op": "Convolution", 
      "name": "pydnet_0_75/stg0/blk0/btl_out/conv0_fwd", 
      "attrs": {
        "dilate": "(1, 1)", 
        "kernel": "(1, 1)", 
        "layout": "NCHW", 
        "no_bias": "True", 
        "num_filter": "64", 
        "num_group": "1", 
        "pad": "(0, 0)", 
        "stride": "(1, 1)"
      }, 
      "inputs": [[34, 0, 0], [35, 0, 0]]
    }, 
    {
      "op": "null", 
      "name": "pydnet_0_75/stg0/blk0/btl_out/batchnorm1_gamma", 
      "attrs": {
        "__dtype__": "0", 
        "__init__": "ones", 
        "__lr_mult__": "1.0", 
        "__shape__": "(0,)", 
        "__storage_type__": "0", 
        "__wd_mult__": "1.0"
      }, 
      "inputs": []
    }, 
    {
      "op": "null", 
      "name": "pydnet_0_75/stg0/blk0/btl_out/batchnorm1_beta", 
      "attrs": {
        "__dtype__": "0", 
        "__init__": "zeros", 
        "__lr_mult__": "1.0", 
        "__shape__": "(0,)", 
        "__storage_type__": "0", 
        "__wd_mult__": "1.0"
      }, 
      "inputs": []
    }, 
    {
      "op": "null", 
      "name": "pydnet_0_75/stg0/blk0/btl_out/batchnorm1_running_mean", 
      "attrs": {
        "__dtype__": "0", 
        "__init__": "zeros", 
        "__lr_mult__": "1.0", 
        "__shape__": "(0,)", 
        "__storage_type__": "0", 
        "__wd_mult__": "1.0"
      }, 
      "inputs": []
    }, 
    {
      "op": "null", 
      "name": "pydnet_0_75/stg0/blk0/btl_out/batchnorm1_running_var", 
      "attrs": {
        "__dtype__": "0", 
        "__init__": "ones", 
        "__lr_mult__": "1.0", 
        "__shape__": "(0,)", 
        "__storage_type__": "0", 
        "__wd_mult__": "1.0"
      }, 
      "inputs": []
    }, 
    {
      "op": "BatchNorm", 
      "name": "pydnet_0_75/stg0/blk0/btl_out/batchnorm1_fwd", 
      "attrs": {
        "axis": "1", 
        "eps": "1e-05", 
        "fix_gamma": "False", 
        "momentum": "0.9", 
        "use_global_stats": "False"
      }, 
      "inputs": [[36, 0, 0], [37, 0, 0], [38, 0, 0], [39, 0, 1], [40, 0, 1]]
    }, 
    {
      "op": "elemwise_add", 
      "name": "pydnet_0_75/stg0/blk0/_plus0", 
      "inputs": [[41, 0, 0], [7, 0, 0]]
    }, 
    {
      "op": "null", 
      "name": "pydnet_0_75/stg0/blk1/btl_in/batchnorm0_gamma", 
      "attrs": {
        "__dtype__": "0", 
        "__init__": "ones", 
        "__lr_mult__": "1.0", 
        "__shape__": "(0,)", 
        "__storage_type__": "0", 
        "__wd_mult__": "1.0"
      }, 
      "inputs": []
    }, 
    {
      "op": "null", 
      "name": "pydnet_0_75/stg0/blk1/btl_in/batchnorm0_beta", 
      "attrs": {
        "__dtype__": "0", 
        "__init__": "zeros", 
        "__lr_mult__": "1.0", 
        "__shape__": "(0,)", 
        "__storage_type__": "0", 
        "__wd_mult__": "1.0"
      }, 
      "inputs": []
    }, 
    {
      "op": "null", 
      "name": "pydnet_0_75/stg0/blk1/btl_in/batchnorm0_running_mean", 
      "attrs": {
        "__dtype__": "0", 
        "__init__": "zeros", 
        "__lr_mult__": "1.0", 
        "__shape__": "(0,)", 
        "__storage_type__": "0", 
        "__wd_mult__": "1.0"
      }, 
      "inputs": []
    }, 
    {
      "op": "null", 
      "name": "pydnet_0_75/stg0/blk1/btl_in/batchnorm0_running_var", 
      "attrs": {
        "__dtype__": "0", 
        "__init__": "ones", 
        "__lr_mult__": "1.0", 
        "__shape__": "(0,)", 
        "__storage_type__": "0", 
        "__wd_mult__": "1.0"
      }, 
      "inputs": []
    }, 
    {
      "op": "BatchNorm", 
      "name": "pydnet_0_75/stg0/blk1/btl_in/batchnorm0_fwd", 
      "attrs": {
        "axis": "1", 
        "eps": "1e-05", 
        "fix_gamma": "False", 
        "momentum": "0.9", 
        "use_global_stats": "False"
      }, 
      "inputs": [[42, 0, 0], [43, 0, 0], [44, 0, 0], [45, 0, 1], [46, 0, 1]]
    }, 
    {
      "op": "Activation", 
      "name": "pydnet_0_75/stg0/blk1/btl_in/relu0_fwd", 
      "attrs": {"act_type": "relu"}, 
      "inputs": [[47, 0, 0]]
    }, 
    {
      "op": "null", 
      "name": "pydnet_0_75/stg0/blk1/btl_in/conv0_weight", 
      "attrs": {
        "__dtype__": "0", 
        "__lr_mult__": "1.0", 
        "__shape__": "(48, 0, 1, 1)", 
        "__storage_type__": "0", 
        "__wd_mult__": "1.0"
      }, 
      "inputs": []
    }, 
    {
      "op": "Convolution", 
      "name": "pydnet_0_75/stg0/blk1/btl_in/conv0_fwd", 
      "attrs": {
        "dilate": "(1, 1)", 
        "kernel": "(1, 1)", 
        "layout": "NCHW", 
        "no_bias": "True", 
        "num_filter": "48", 
        "num_group": "1", 
        "pad": "(0, 0)", 
        "stride": "(1, 1)"
      }, 
      "inputs": [[48, 0, 0], [49, 0, 0]]
    }, 
    {
      "op": "null", 
      "name": "pydnet_0_75/stg0/blk1/btl_in/batchnorm1_gamma", 
      "attrs": {
        "__dtype__": "0", 
        "__init__": "ones", 
        "__lr_mult__": "1.0", 
        "__shape__": "(0,)", 
        "__storage_type__": "0", 
        "__wd_mult__": "1.0"
      }, 
      "inputs": []
    }, 
    {
      "op": "null", 
      "name": "pydnet_0_75/stg0/blk1/btl_in/batchnorm1_beta", 
      "attrs": {
        "__dtype__": "0", 
        "__init__": "zeros", 
        "__lr_mult__": "1.0", 
        "__shape__": "(0,)", 
        "__storage_type__": "0", 
        "__wd_mult__": "1.0"
      }, 
      "inputs": []
    }, 
    {
      "op": "null", 
      "name": "pydnet_0_75/stg0/blk1/btl_in/batchnorm1_running_mean", 
      "attrs": {
        "__dtype__": "0", 
        "__init__": "zeros", 
        "__lr_mult__": "1.0", 
        "__shape__": "(0,)", 
        "__storage_type__": "0", 
        "__wd_mult__": "1.0"
      }, 
      "inputs": []
    }, 
    {
      "op": "null", 
      "name": "pydnet_0_75/stg0/blk1/btl_in/batchnorm1_running_var", 
      "attrs": {
        "__dtype__": "0", 
        "__init__": "ones", 
        "__lr_mult__": "1.0", 
        "__shape__": "(0,)", 
        "__storage_type__": "0", 
        "__wd_mult__": "1.0"
      }, 
      "inputs": []
    }, 
    {
      "op": "BatchNorm", 
      "name": "pydnet_0_75/stg0/blk1/btl_in/batchnorm1_fwd", 
      "attrs": {
        "axis": "1", 
        "eps": "1e-05", 
        "fix_gamma": "False", 
        "momentum": "0.9", 
        "use_global_stats": "False"
      }, 
      "inputs": [[50, 0, 0], [51, 0, 0], [52, 0, 0], [53, 0, 1], [54, 0, 1]]
    }, 
    {
      "op": "Activation", 
      "name": "pydnet_0_75/stg0/blk1/btl_in/relu1_fwd", 
      "attrs": {"act_type": "relu"}, 
      "inputs": [[55, 0, 0]]
    }, 
    {
      "op": "null", 
      "name": "pydnet_0_75/stg0/blk1/conv3/conv0_weight", 
      "attrs": {
        "__dtype__": "0", 
        "__lr_mult__": "1.0", 
        "__shape__": "(48, 0, 3, 3)", 
        "__storage_type__": "0", 
        "__wd_mult__": "1.0"
      }, 
      "inputs": []
    }, 
    {
      "op": "Convolution", 
      "name": "pydnet_0_75/stg0/blk1/conv3/conv0_fwd", 
      "attrs": {
        "dilate": "(1, 1)", 
        "kernel": "(3, 3)", 
        "layout": "NCHW", 
        "no_bias": "True", 
        "num_filter": "48", 
        "num_group": "48", 
        "pad": "(1, 1)", 
        "stride": "(1, 1)"
      }, 
      "inputs": [[56, 0, 0], [57, 0, 0]]
    }, 
    {
      "op": "null", 
      "name": "pydnet_0_75/stg0/blk1/conv5/conv0_weight", 
      "attrs": {
        "__dtype__": "0", 
        "__lr_mult__": "1.0", 
        "__shape__": "(48, 0, 5, 5)", 
        "__storage_type__": "0", 
        "__wd_mult__": "1.0"
      }, 
      "inputs": []
    }, 
    {
      "op": "Convolution", 
      "name": "pydnet_0_75/stg0/blk1/conv5/conv0_fwd", 
      "attrs": {
        "dilate": "(1, 1)", 
        "kernel": "(5, 5)", 
        "layout": "NCHW", 
        "no_bias": "True", 
        "num_filter": "48", 
        "num_group": "48", 
        "pad": "(2, 2)", 
        "stride": "(1, 1)"
      }, 
      "inputs": [[56, 0, 0], [59, 0, 0]]
    }, 
    {
      "op": "null", 
      "name": "pydnet_0_75/stg0/blk1/conv7/conv0_weight", 
      "attrs": {
        "__dtype__": "0", 
        "__lr_mult__": "1.0", 
        "__shape__": "(48, 0, 7, 7)", 
        "__storage_type__": "0", 
        "__wd_mult__": "1.0"
      }, 
      "inputs": []
    }, 
    {
      "op": "Convolution", 
      "name": "pydnet_0_75/stg0/blk1/conv7/conv0_fwd", 
      "attrs": {
        "dilate": "(1, 1)", 
        "kernel": "(7, 7)", 
        "layout": "NCHW", 
        "no_bias": "True", 
        "num_filter": "48", 
        "num_group": "48", 
        "pad": "(3, 3)", 
        "stride": "(1, 1)"
      }, 
      "inputs": [[56, 0, 0], [61, 0, 0]]
    }, 
    {
      "op": "Concat", 
      "name": "pydnet_0_75/stg0/blk1/concat0", 
      "attrs": {
        "dim": "1", 
        "num_args": "3"
      }, 
      "inputs": [[58, 0, 0], [60, 0, 0], [62, 0, 0]]
    }, 
    {
      "op": "null", 
      "name": "pydnet_0_75/stg0/blk1/btl_out/batchnorm0_gamma", 
      "attrs": {
        "__dtype__": "0", 
        "__init__": "ones", 
        "__lr_mult__": "1.0", 
        "__shape__": "(0,)", 
        "__storage_type__": "0", 
        "__wd_mult__": "1.0"
      }, 
      "inputs": []
    }, 
    {
      "op": "null", 
      "name": "pydnet_0_75/stg0/blk1/btl_out/batchnorm0_beta", 
      "attrs": {
        "__dtype__": "0", 
        "__init__": "zeros", 
        "__lr_mult__": "1.0", 
        "__shape__": "(0,)", 
        "__storage_type__": "0", 
        "__wd_mult__": "1.0"
      }, 
      "inputs": []
    }, 
    {
      "op": "null", 
      "name": "pydnet_0_75/stg0/blk1/btl_out/batchnorm0_running_mean", 
      "attrs": {
        "__dtype__": "0", 
        "__init__": "zeros", 
        "__lr_mult__": "1.0", 
        "__shape__": "(0,)", 
        "__storage_type__": "0", 
        "__wd_mult__": "1.0"
      }, 
      "inputs": []
    }, 
    {
      "op": "null", 
      "name": "pydnet_0_75/stg0/blk1/btl_out/batchnorm0_running_var", 
      "attrs": {
        "__dtype__": "0", 
        "__init__": "ones", 
        "__lr_mult__": "1.0", 
        "__shape__": "(0,)", 
        "__storage_type__": "0", 
        "__wd_mult__": "1.0"
      }, 
      "inputs": []
    }, 
    {
      "op": "BatchNorm", 
      "name": "pydnet_0_75/stg0/blk1/btl_out/batchnorm0_fwd", 
      "attrs": {
        "axis": "1", 
        "eps": "1e-05", 
        "fix_gamma": "False", 
        "momentum": "0.9", 
        "use_global_stats": "False"
      }, 
      "inputs": [[63, 0, 0], [64, 0, 0], [65, 0, 0], [66, 0, 1], [67, 0, 1]]
    }, 
    {
      "op": "Activation", 
      "name": "pydnet_0_75/stg0/blk1/btl_out/relu0_fwd", 
      "attrs": {"act_type": "relu"}, 
      "inputs": [[68, 0, 0]]
    }, 
    {
      "op": "null", 
      "name": "pydnet_0_75/stg0/blk1/btl_out/conv0_weight", 
      "attrs": {
        "__dtype__": "0", 
        "__lr_mult__": "1.0", 
        "__shape__": "(64, 0, 1, 1)", 
        "__storage_type__": "0", 
        "__wd_mult__": "1.0"
      }, 
      "inputs": []
    }, 
    {
      "op": "Convolution", 
      "name": "pydnet_0_75/stg0/blk1/btl_out/conv0_fwd", 
      "attrs": {
        "dilate": "(1, 1)", 
        "kernel": "(1, 1)", 
        "layout": "NCHW", 
        "no_bias": "True", 
        "num_filter": "64", 
        "num_group": "1", 
        "pad": "(0, 0)", 
        "stride": "(1, 1)"
      }, 
      "inputs": [[69, 0, 0], [70, 0, 0]]
    }, 
    {
      "op": "null", 
      "name": "pydnet_0_75/stg0/blk1/btl_out/batchnorm1_gamma", 
      "attrs": {
        "__dtype__": "0", 
        "__init__": "ones", 
        "__lr_mult__": "1.0", 
        "__shape__": "(0,)", 
        "__storage_type__": "0", 
        "__wd_mult__": "1.0"
      }, 
      "inputs": []
    }, 
    {
      "op": "null", 
      "name": "pydnet_0_75/stg0/blk1/btl_out/batchnorm1_beta", 
      "attrs": {
        "__dtype__": "0", 
        "__init__": "zeros", 
        "__lr_mult__": "1.0", 
        "__shape__": "(0,)", 
        "__storage_type__": "0", 
        "__wd_mult__": "1.0"
      }, 
      "inputs": []
    }, 
    {
      "op": "null", 
      "name": "pydnet_0_75/stg0/blk1/btl_out/batchnorm1_running_mean", 
      "attrs": {
        "__dtype__": "0", 
        "__init__": "zeros", 
        "__lr_mult__": "1.0", 
        "__shape__": "(0,)", 
        "__storage_type__": "0", 
        "__wd_mult__": "1.0"
      }, 
      "inputs": []
    }, 
    {
      "op": "null", 
      "name": "pydnet_0_75/stg0/blk1/btl_out/batchnorm1_running_var", 
      "attrs": {
        "__dtype__": "0", 
        "__init__": "ones", 
        "__lr_mult__": "1.0", 
        "__shape__": "(0,)", 
        "__storage_type__": "0", 
        "__wd_mult__": "1.0"
      }, 
      "inputs": []
    }, 
    {
      "op": "BatchNorm", 
      "name": "pydnet_0_75/stg0/blk1/btl_out/batchnorm1_fwd", 
      "attrs": {
        "axis": "1", 
        "eps": "1e-05", 
        "fix_gamma": "False", 
        "momentum": "0.9", 
        "use_global_stats": "False"
      }, 
      "inputs": [[71, 0, 0], [72, 0, 0], [73, 0, 0], [74, 0, 1], [75, 0, 1]]
    }, 
    {
      "op": "elemwise_add", 
      "name": "pydnet_0_75/stg0/blk1/_plus0", 
      "inputs": [[76, 0, 0], [42, 0, 0]]
    }, 
    {
      "op": "null", 
      "name": "pydnet_0_75/stg0/blk2/btl_in/batchnorm0_gamma", 
      "attrs": {
        "__dtype__": "0", 
        "__init__": "ones", 
        "__lr_mult__": "1.0", 
        "__shape__": "(0,)", 
        "__storage_type__": "0", 
        "__wd_mult__": "1.0"
      }, 
      "inputs": []
    }, 
    {
      "op": "null", 
      "name": "pydnet_0_75/stg0/blk2/btl_in/batchnorm0_beta", 
      "attrs": {
        "__dtype__": "0", 
        "__init__": "zeros", 
        "__lr_mult__": "1.0", 
        "__shape__": "(0,)", 
        "__storage_type__": "0", 
        "__wd_mult__": "1.0"
      }, 
      "inputs": []
    }, 
    {
      "op": "null", 
      "name": "pydnet_0_75/stg0/blk2/btl_in/batchnorm0_running_mean", 
      "attrs": {
        "__dtype__": "0", 
        "__init__": "zeros", 
        "__lr_mult__": "1.0", 
        "__shape__": "(0,)", 
        "__storage_type__": "0", 
        "__wd_mult__": "1.0"
      }, 
      "inputs": []
    }, 
    {
      "op": "null", 
      "name": "pydnet_0_75/stg0/blk2/btl_in/batchnorm0_running_var", 
      "attrs": {
        "__dtype__": "0", 
        "__init__": "ones", 
        "__lr_mult__": "1.0", 
        "__shape__": "(0,)", 
        "__storage_type__": "0", 
        "__wd_mult__": "1.0"
      }, 
      "inputs": []
    }, 
    {
      "op": "BatchNorm", 
      "name": "pydnet_0_75/stg0/blk2/btl_in/batchnorm0_fwd", 
      "attrs": {
        "axis": "1", 
        "eps": "1e-05", 
        "fix_gamma": "False", 
        "momentum": "0.9", 
        "use_global_stats": "False"
      }, 
      "inputs": [[77, 0, 0], [78, 0, 0], [79, 0, 0], [80, 0, 1], [81, 0, 1]]
    }, 
    {
      "op": "Activation", 
      "name": "pydnet_0_75/stg0/blk2/btl_in/relu0_fwd", 
      "attrs": {"act_type": "relu"}, 
      "inputs": [[82, 0, 0]]
    }, 
    {
      "op": "null", 
      "name": "pydnet_0_75/stg0/blk2/btl_in/conv0_weight", 
      "attrs": {
        "__dtype__": "0", 
        "__lr_mult__": "1.0", 
        "__shape__": "(48, 0, 1, 1)", 
        "__storage_type__": "0", 
        "__wd_mult__": "1.0"
      }, 
      "inputs": []
    }, 
    {
      "op": "Convolution", 
      "name": "pydnet_0_75/stg0/blk2/btl_in/conv0_fwd", 
      "attrs": {
        "dilate": "(1, 1)", 
        "kernel": "(1, 1)", 
        "layout": "NCHW", 
        "no_bias": "True", 
        "num_filter": "48", 
        "num_group": "1", 
        "pad": "(0, 0)", 
        "stride": "(1, 1)"
      }, 
      "inputs": [[83, 0, 0], [84, 0, 0]]
    }, 
    {
      "op": "null", 
      "name": "pydnet_0_75/stg0/blk2/btl_in/batchnorm1_gamma", 
      "attrs": {
        "__dtype__": "0", 
        "__init__": "ones", 
        "__lr_mult__": "1.0", 
        "__shape__": "(0,)", 
        "__storage_type__": "0", 
        "__wd_mult__": "1.0"
      }, 
      "inputs": []
    }, 
    {
      "op": "null", 
      "name": "pydnet_0_75/stg0/blk2/btl_in/batchnorm1_beta", 
      "attrs": {
        "__dtype__": "0", 
        "__init__": "zeros", 
        "__lr_mult__": "1.0", 
        "__shape__": "(0,)", 
        "__storage_type__": "0", 
        "__wd_mult__": "1.0"
      }, 
      "inputs": []
    }, 
    {
      "op": "null", 
      "name": "pydnet_0_75/stg0/blk2/btl_in/batchnorm1_running_mean", 
      "attrs": {
        "__dtype__": "0", 
        "__init__": "zeros", 
        "__lr_mult__": "1.0", 
        "__shape__": "(0,)", 
        "__storage_type__": "0", 
        "__wd_mult__": "1.0"
      }, 
      "inputs": []
    }, 
    {
      "op": "null", 
      "name": "pydnet_0_75/stg0/blk2/btl_in/batchnorm1_running_var", 
      "attrs": {
        "__dtype__": "0", 
        "__init__": "ones", 
        "__lr_mult__": "1.0", 
        "__shape__": "(0,)", 
        "__storage_type__": "0", 
        "__wd_mult__": "1.0"
      }, 
      "inputs": []
    }, 
    {
      "op": "BatchNorm", 
      "name": "pydnet_0_75/stg0/blk2/btl_in/batchnorm1_fwd", 
      "attrs": {
        "axis": "1", 
        "eps": "1e-05", 
        "fix_gamma": "False", 
        "momentum": "0.9", 
        "use_global_stats": "False"
      }, 
      "inputs": [[85, 0, 0], [86, 0, 0], [87, 0, 0], [88, 0, 1], [89, 0, 1]]
    }, 
    {
      "op": "Activation", 
      "name": "pydnet_0_75/stg0/blk2/btl_in/relu1_fwd", 
      "attrs": {"act_type": "relu"}, 
      "inputs": [[90, 0, 0]]
    }, 
    {
      "op": "null", 
      "name": "pydnet_0_75/stg0/blk2/conv3/conv0_weight", 
      "attrs": {
        "__dtype__": "0", 
        "__lr_mult__": "1.0", 
        "__shape__": "(48, 0, 3, 3)", 
        "__storage_type__": "0", 
        "__wd_mult__": "1.0"
      }, 
      "inputs": []
    }, 
    {
      "op": "Convolution", 
      "name": "pydnet_0_75/stg0/blk2/conv3/conv0_fwd", 
      "attrs": {
        "dilate": "(1, 1)", 
        "kernel": "(3, 3)", 
        "layout": "NCHW", 
        "no_bias": "True", 
        "num_filter": "48", 
        "num_group": "48", 
        "pad": "(1, 1)", 
        "stride": "(1, 1)"
      }, 
      "inputs": [[91, 0, 0], [92, 0, 0]]
    }, 
    {
      "op": "null", 
      "name": "pydnet_0_75/stg0/blk2/conv5/conv0_weight", 
      "attrs": {
        "__dtype__": "0", 
        "__lr_mult__": "1.0", 
        "__shape__": "(48, 0, 5, 5)", 
        "__storage_type__": "0", 
        "__wd_mult__": "1.0"
      }, 
      "inputs": []
    }, 
    {
      "op": "Convolution", 
      "name": "pydnet_0_75/stg0/blk2/conv5/conv0_fwd", 
      "attrs": {
        "dilate": "(1, 1)", 
        "kernel": "(5, 5)", 
        "layout": "NCHW", 
        "no_bias": "True", 
        "num_filter": "48", 
        "num_group": "48", 
        "pad": "(2, 2)", 
        "stride": "(1, 1)"
      }, 
      "inputs": [[91, 0, 0], [94, 0, 0]]
    }, 
    {
      "op": "null", 
      "name": "pydnet_0_75/stg0/blk2/conv7/conv0_weight", 
      "attrs": {
        "__dtype__": "0", 
        "__lr_mult__": "1.0", 
        "__shape__": "(48, 0, 7, 7)", 
        "__storage_type__": "0", 
        "__wd_mult__": "1.0"
      }, 
      "inputs": []
    }, 
    {
      "op": "Convolution", 
      "name": "pydnet_0_75/stg0/blk2/conv7/conv0_fwd", 
      "attrs": {
        "dilate": "(1, 1)", 
        "kernel": "(7, 7)", 
        "layout": "NCHW", 
        "no_bias": "True", 
        "num_filter": "48", 
        "num_group": "48", 
        "pad": "(3, 3)", 
        "stride": "(1, 1)"
      }, 
      "inputs": [[91, 0, 0], [96, 0, 0]]
    }, 
    {
      "op": "Concat", 
      "name": "pydnet_0_75/stg0/blk2/concat0", 
      "attrs": {
        "dim": "1", 
        "num_args": "3"
      }, 
      "inputs": [[93, 0, 0], [95, 0, 0], [97, 0, 0]]
    }, 
    {
      "op": "null", 
      "name": "pydnet_0_75/stg0/blk2/btl_out/batchnorm0_gamma", 
      "attrs": {
        "__dtype__": "0", 
        "__init__": "ones", 
        "__lr_mult__": "1.0", 
        "__shape__": "(0,)", 
        "__storage_type__": "0", 
        "__wd_mult__": "1.0"
      }, 
      "inputs": []
    }, 
    {
      "op": "null", 
      "name": "pydnet_0_75/stg0/blk2/btl_out/batchnorm0_beta", 
      "attrs": {
        "__dtype__": "0", 
        "__init__": "zeros", 
        "__lr_mult__": "1.0", 
        "__shape__": "(0,)", 
        "__storage_type__": "0", 
        "__wd_mult__": "1.0"
      }, 
      "inputs": []
    }, 
    {
      "op": "null", 
      "name": "pydnet_0_75/stg0/blk2/btl_out/batchnorm0_running_mean", 
      "attrs": {
        "__dtype__": "0", 
        "__init__": "zeros", 
        "__lr_mult__": "1.0", 
        "__shape__": "(0,)", 
        "__storage_type__": "0", 
        "__wd_mult__": "1.0"
      }, 
      "inputs": []
    }, 
    {
      "op": "null", 
      "name": "pydnet_0_75/stg0/blk2/btl_out/batchnorm0_running_var", 
      "attrs": {
        "__dtype__": "0", 
        "__init__": "ones", 
        "__lr_mult__": "1.0", 
        "__shape__": "(0,)", 
        "__storage_type__": "0", 
        "__wd_mult__": "1.0"
      }, 
      "inputs": []
    }, 
    {
      "op": "BatchNorm", 
      "name": "pydnet_0_75/stg0/blk2/btl_out/batchnorm0_fwd", 
      "attrs": {
        "axis": "1", 
        "eps": "1e-05", 
        "fix_gamma": "False", 
        "momentum": "0.9", 
        "use_global_stats": "False"
      }, 
      "inputs": [[98, 0, 0], [99, 0, 0], [100, 0, 0], [101, 0, 1], [102, 0, 1]]
    }, 
    {
      "op": "Activation", 
      "name": "pydnet_0_75/stg0/blk2/btl_out/relu0_fwd", 
      "attrs": {"act_type": "relu"}, 
      "inputs": [[103, 0, 0]]
    }, 
    {
      "op": "null", 
      "name": "pydnet_0_75/stg0/blk2/btl_out/conv0_weight", 
      "attrs": {
        "__dtype__": "0", 
        "__lr_mult__": "1.0", 
        "__shape__": "(64, 0, 1, 1)", 
        "__storage_type__": "0", 
        "__wd_mult__": "1.0"
      }, 
      "inputs": []
    }, 
    {
      "op": "Convolution", 
      "name": "pydnet_0_75/stg0/blk2/btl_out/conv0_fwd", 
      "attrs": {
        "dilate": "(1, 1)", 
        "kernel": "(1, 1)", 
        "layout": "NCHW", 
        "no_bias": "True", 
        "num_filter": "64", 
        "num_group": "1", 
        "pad": "(0, 0)", 
        "stride": "(1, 1)"
      }, 
      "inputs": [[104, 0, 0], [105, 0, 0]]
    }, 
    {
      "op": "null", 
      "name": "pydnet_0_75/stg0/blk2/btl_out/batchnorm1_gamma", 
      "attrs": {
        "__dtype__": "0", 
        "__init__": "ones", 
        "__lr_mult__": "1.0", 
        "__shape__": "(0,)", 
        "__storage_type__": "0", 
        "__wd_mult__": "1.0"
      }, 
      "inputs": []
    }, 
    {
      "op": "null", 
      "name": "pydnet_0_75/stg0/blk2/btl_out/batchnorm1_beta", 
      "attrs": {
        "__dtype__": "0", 
        "__init__": "zeros", 
        "__lr_mult__": "1.0", 
        "__shape__": "(0,)", 
        "__storage_type__": "0", 
        "__wd_mult__": "1.0"
      }, 
      "inputs": []
    }, 
    {
      "op": "null", 
      "name": "pydnet_0_75/stg0/blk2/btl_out/batchnorm1_running_mean", 
      "attrs": {
        "__dtype__": "0", 
        "__init__": "zeros", 
        "__lr_mult__": "1.0", 
        "__shape__": "(0,)", 
        "__storage_type__": "0", 
        "__wd_mult__": "1.0"
      }, 
      "inputs": []
    }, 
    {
      "op": "null", 
      "name": "pydnet_0_75/stg0/blk2/btl_out/batchnorm1_running_var", 
      "attrs": {
        "__dtype__": "0", 
        "__init__": "ones", 
        "__lr_mult__": "1.0", 
        "__shape__": "(0,)", 
        "__storage_type__": "0", 
        "__wd_mult__": "1.0"
      }, 
      "inputs": []
    }, 
    {
      "op": "BatchNorm", 
      "name": "pydnet_0_75/stg0/blk2/btl_out/batchnorm1_fwd", 
      "attrs": {
        "axis": "1", 
        "eps": "1e-05", 
        "fix_gamma": "False", 
        "momentum": "0.9", 
        "use_global_stats": "False"
      }, 
      "inputs": [[106, 0, 0], [107, 0, 0], [108, 0, 0], [109, 0, 1], [110, 0, 1]]
    }, 
    {
      "op": "elemwise_add", 
      "name": "pydnet_0_75/stg0/blk2/_plus0", 
      "inputs": [[111, 0, 0], [77, 0, 0]]
    }, 
    {
      "op": "null", 
      "name": "pydnet_0_75/stg0/blk3/btl_in/batchnorm0_gamma", 
      "attrs": {
        "__dtype__": "0", 
        "__init__": "ones", 
        "__lr_mult__": "1.0", 
        "__shape__": "(0,)", 
        "__storage_type__": "0", 
        "__wd_mult__": "1.0"
      }, 
      "inputs": []
    }, 
    {
      "op": "null", 
      "name": "pydnet_0_75/stg0/blk3/btl_in/batchnorm0_beta", 
      "attrs": {
        "__dtype__": "0", 
        "__init__": "zeros", 
        "__lr_mult__": "1.0", 
        "__shape__": "(0,)", 
        "__storage_type__": "0", 
        "__wd_mult__": "1.0"
      }, 
      "inputs": []
    }, 
    {
      "op": "null", 
      "name": "pydnet_0_75/stg0/blk3/btl_in/batchnorm0_running_mean", 
      "attrs": {
        "__dtype__": "0", 
        "__init__": "zeros", 
        "__lr_mult__": "1.0", 
        "__shape__": "(0,)", 
        "__storage_type__": "0", 
        "__wd_mult__": "1.0"
      }, 
      "inputs": []
    }, 
    {
      "op": "null", 
      "name": "pydnet_0_75/stg0/blk3/btl_in/batchnorm0_running_var", 
      "attrs": {
        "__dtype__": "0", 
        "__init__": "ones", 
        "__lr_mult__": "1.0", 
        "__shape__": "(0,)", 
        "__storage_type__": "0", 
        "__wd_mult__": "1.0"
      }, 
      "inputs": []
    }, 
    {
      "op": "BatchNorm", 
      "name": "pydnet_0_75/stg0/blk3/btl_in/batchnorm0_fwd", 
      "attrs": {
        "axis": "1", 
        "eps": "1e-05", 
        "fix_gamma": "False", 
        "momentum": "0.9", 
        "use_global_stats": "False"
      }, 
      "inputs": [[112, 0, 0], [113, 0, 0], [114, 0, 0], [115, 0, 1], [116, 0, 1]]
    }, 
    {
      "op": "Activation", 
      "name": "pydnet_0_75/stg0/blk3/btl_in/relu0_fwd", 
      "attrs": {"act_type": "relu"}, 
      "inputs": [[117, 0, 0]]
    }, 
    {
      "op": "null", 
      "name": "pydnet_0_75/stg0/blk3/btl_in/conv0_weight", 
      "attrs": {
        "__dtype__": "0", 
        "__lr_mult__": "1.0", 
        "__shape__": "(48, 0, 1, 1)", 
        "__storage_type__": "0", 
        "__wd_mult__": "1.0"
      }, 
      "inputs": []
    }, 
    {
      "op": "Convolution", 
      "name": "pydnet_0_75/stg0/blk3/btl_in/conv0_fwd", 
      "attrs": {
        "dilate": "(1, 1)", 
        "kernel": "(1, 1)", 
        "layout": "NCHW", 
        "no_bias": "True", 
        "num_filter": "48", 
        "num_group": "1", 
        "pad": "(0, 0)", 
        "stride": "(1, 1)"
      }, 
      "inputs": [[118, 0, 0], [119, 0, 0]]
    }, 
    {
      "op": "null", 
      "name": "pydnet_0_75/stg0/blk3/btl_in/batchnorm1_gamma", 
      "attrs": {
        "__dtype__": "0", 
        "__init__": "ones", 
        "__lr_mult__": "1.0", 
        "__shape__": "(0,)", 
        "__storage_type__": "0", 
        "__wd_mult__": "1.0"
      }, 
      "inputs": []
    }, 
    {
      "op": "null", 
      "name": "pydnet_0_75/stg0/blk3/btl_in/batchnorm1_beta", 
      "attrs": {
        "__dtype__": "0", 
        "__init__": "zeros", 
        "__lr_mult__": "1.0", 
        "__shape__": "(0,)", 
        "__storage_type__": "0", 
        "__wd_mult__": "1.0"
      }, 
      "inputs": []
    }, 
    {
      "op": "null", 
      "name": "pydnet_0_75/stg0/blk3/btl_in/batchnorm1_running_mean", 
      "attrs": {
        "__dtype__": "0", 
        "__init__": "zeros", 
        "__lr_mult__": "1.0", 
        "__shape__": "(0,)", 
        "__storage_type__": "0", 
        "__wd_mult__": "1.0"
      }, 
      "inputs": []
    }, 
    {
      "op": "null", 
      "name": "pydnet_0_75/stg0/blk3/btl_in/batchnorm1_running_var", 
      "attrs": {
        "__dtype__": "0", 
        "__init__": "ones", 
        "__lr_mult__": "1.0", 
        "__shape__": "(0,)", 
        "__storage_type__": "0", 
        "__wd_mult__": "1.0"
      }, 
      "inputs": []
    }, 
    {
      "op": "BatchNorm", 
      "name": "pydnet_0_75/stg0/blk3/btl_in/batchnorm1_fwd", 
      "attrs": {
        "axis": "1", 
        "eps": "1e-05", 
        "fix_gamma": "False", 
        "momentum": "0.9", 
        "use_global_stats": "False"
      }, 
      "inputs": [[120, 0, 0], [121, 0, 0], [122, 0, 0], [123, 0, 1], [124, 0, 1]]
    }, 
    {
      "op": "Activation", 
      "name": "pydnet_0_75/stg0/blk3/btl_in/relu1_fwd", 
      "attrs": {"act_type": "relu"}, 
      "inputs": [[125, 0, 0]]
    }, 
    {
      "op": "null", 
      "name": "pydnet_0_75/stg0/blk3/conv3/conv0_weight", 
      "attrs": {
        "__dtype__": "0", 
        "__lr_mult__": "1.0", 
        "__shape__": "(48, 0, 3, 3)", 
        "__storage_type__": "0", 
        "__wd_mult__": "1.0"
      }, 
      "inputs": []
    }, 
    {
      "op": "Convolution", 
      "name": "pydnet_0_75/stg0/blk3/conv3/conv0_fwd", 
      "attrs": {
        "dilate": "(1, 1)", 
        "kernel": "(3, 3)", 
        "layout": "NCHW", 
        "no_bias": "True", 
        "num_filter": "48", 
        "num_group": "48", 
        "pad": "(1, 1)", 
        "stride": "(1, 1)"
      }, 
      "inputs": [[126, 0, 0], [127, 0, 0]]
    }, 
    {
      "op": "null", 
      "name": "pydnet_0_75/stg0/blk3/conv5/conv0_weight", 
      "attrs": {
        "__dtype__": "0", 
        "__lr_mult__": "1.0", 
        "__shape__": "(48, 0, 5, 5)", 
        "__storage_type__": "0", 
        "__wd_mult__": "1.0"
      }, 
      "inputs": []
    }, 
    {
      "op": "Convolution", 
      "name": "pydnet_0_75/stg0/blk3/conv5/conv0_fwd", 
      "attrs": {
        "dilate": "(1, 1)", 
        "kernel": "(5, 5)", 
        "layout": "NCHW", 
        "no_bias": "True", 
        "num_filter": "48", 
        "num_group": "48", 
        "pad": "(2, 2)", 
        "stride": "(1, 1)"
      }, 
      "inputs": [[126, 0, 0], [129, 0, 0]]
    }, 
    {
      "op": "null", 
      "name": "pydnet_0_75/stg0/blk3/conv7/conv0_weight", 
      "attrs": {
        "__dtype__": "0", 
        "__lr_mult__": "1.0", 
        "__shape__": "(48, 0, 7, 7)", 
        "__storage_type__": "0", 
        "__wd_mult__": "1.0"
      }, 
      "inputs": []
    }, 
    {
      "op": "Convolution", 
      "name": "pydnet_0_75/stg0/blk3/conv7/conv0_fwd", 
      "attrs": {
        "dilate": "(1, 1)", 
        "kernel": "(7, 7)", 
        "layout": "NCHW", 
        "no_bias": "True", 
        "num_filter": "48", 
        "num_group": "48", 
        "pad": "(3, 3)", 
        "stride": "(1, 1)"
      }, 
      "inputs": [[126, 0, 0], [131, 0, 0]]
    }, 
    {
      "op": "Concat", 
      "name": "pydnet_0_75/stg0/blk3/concat0", 
      "attrs": {
        "dim": "1", 
        "num_args": "3"
      }, 
      "inputs": [[128, 0, 0], [130, 0, 0], [132, 0, 0]]
    }, 
    {
      "op": "null", 
      "name": "pydnet_0_75/stg0/blk3/btl_out/batchnorm0_gamma", 
      "attrs": {
        "__dtype__": "0", 
        "__init__": "ones", 
        "__lr_mult__": "1.0", 
        "__shape__": "(0,)", 
        "__storage_type__": "0", 
        "__wd_mult__": "1.0"
      }, 
      "inputs": []
    }, 
    {
      "op": "null", 
      "name": "pydnet_0_75/stg0/blk3/btl_out/batchnorm0_beta", 
      "attrs": {
        "__dtype__": "0", 
        "__init__": "zeros", 
        "__lr_mult__": "1.0", 
        "__shape__": "(0,)", 
        "__storage_type__": "0", 
        "__wd_mult__": "1.0"
      }, 
      "inputs": []
    }, 
    {
      "op": "null", 
      "name": "pydnet_0_75/stg0/blk3/btl_out/batchnorm0_running_mean", 
      "attrs": {
        "__dtype__": "0", 
        "__init__": "zeros", 
        "__lr_mult__": "1.0", 
        "__shape__": "(0,)", 
        "__storage_type__": "0", 
        "__wd_mult__": "1.0"
      }, 
      "inputs": []
    }, 
    {
      "op": "null", 
      "name": "pydnet_0_75/stg0/blk3/btl_out/batchnorm0_running_var", 
      "attrs": {
        "__dtype__": "0", 
        "__init__": "ones", 
        "__lr_mult__": "1.0", 
        "__shape__": "(0,)", 
        "__storage_type__": "0", 
        "__wd_mult__": "1.0"
      }, 
      "inputs": []
    }, 
    {
      "op": "BatchNorm", 
      "name": "pydnet_0_75/stg0/blk3/btl_out/batchnorm0_fwd", 
      "attrs": {
        "axis": "1", 
        "eps": "1e-05", 
        "fix_gamma": "False", 
        "momentum": "0.9", 
        "use_global_stats": "False"
      }, 
      "inputs": [[133, 0, 0], [134, 0, 0], [135, 0, 0], [136, 0, 1], [137, 0, 1]]
    }, 
    {
      "op": "Activation", 
      "name": "pydnet_0_75/stg0/blk3/btl_out/relu0_fwd", 
      "attrs": {"act_type": "relu"}, 
      "inputs": [[138, 0, 0]]
    }, 
    {
      "op": "null", 
      "name": "pydnet_0_75/stg0/blk3/btl_out/conv0_weight", 
      "attrs": {
        "__dtype__": "0", 
        "__lr_mult__": "1.0", 
        "__shape__": "(64, 0, 1, 1)", 
        "__storage_type__": "0", 
        "__wd_mult__": "1.0"
      }, 
      "inputs": []
    }, 
    {
      "op": "Convolution", 
      "name": "pydnet_0_75/stg0/blk3/btl_out/conv0_fwd", 
      "attrs": {
        "dilate": "(1, 1)", 
        "kernel": "(1, 1)", 
        "layout": "NCHW", 
        "no_bias": "True", 
        "num_filter": "64", 
        "num_group": "1", 
        "pad": "(0, 0)", 
        "stride": "(1, 1)"
      }, 
      "inputs": [[139, 0, 0], [140, 0, 0]]
    }, 
    {
      "op": "null", 
      "name": "pydnet_0_75/stg0/blk3/btl_out/batchnorm1_gamma", 
      "attrs": {
        "__dtype__": "0", 
        "__init__": "ones", 
        "__lr_mult__": "1.0", 
        "__shape__": "(0,)", 
        "__storage_type__": "0", 
        "__wd_mult__": "1.0"
      }, 
      "inputs": []
    }, 
    {
      "op": "null", 
      "name": "pydnet_0_75/stg0/blk3/btl_out/batchnorm1_beta", 
      "attrs": {
        "__dtype__": "0", 
        "__init__": "zeros", 
        "__lr_mult__": "1.0", 
        "__shape__": "(0,)", 
        "__storage_type__": "0", 
        "__wd_mult__": "1.0"
      }, 
      "inputs": []
    }, 
    {
      "op": "null", 
      "name": "pydnet_0_75/stg0/blk3/btl_out/batchnorm1_running_mean", 
      "attrs": {
        "__dtype__": "0", 
        "__init__": "zeros", 
        "__lr_mult__": "1.0", 
        "__shape__": "(0,)", 
        "__storage_type__": "0", 
        "__wd_mult__": "1.0"
      }, 
      "inputs": []
    }, 
    {
      "op": "null", 
      "name": "pydnet_0_75/stg0/blk3/btl_out/batchnorm1_running_var", 
      "attrs": {
        "__dtype__": "0", 
        "__init__": "ones", 
        "__lr_mult__": "1.0", 
        "__shape__": "(0,)", 
        "__storage_type__": "0", 
        "__wd_mult__": "1.0"
      }, 
      "inputs": []
    }, 
    {
      "op": "BatchNorm", 
      "name": "pydnet_0_75/stg0/blk3/btl_out/batchnorm1_fwd", 
      "attrs": {
        "axis": "1", 
        "eps": "1e-05", 
        "fix_gamma": "False", 
        "momentum": "0.9", 
        "use_global_stats": "False"
      }, 
      "inputs": [[141, 0, 0], [142, 0, 0], [143, 0, 0], [144, 0, 1], [145, 0, 1]]
    }, 
    {
      "op": "elemwise_add", 
      "name": "pydnet_0_75/stg0/blk3/_plus0", 
      "inputs": [[146, 0, 0], [112, 0, 0]]
    }, 
    {
      "op": "null", 
      "name": "pydnet_0_75/stg0/blk4/btl_in/batchnorm0_gamma", 
      "attrs": {
        "__dtype__": "0", 
        "__init__": "ones", 
        "__lr_mult__": "1.0", 
        "__shape__": "(0,)", 
        "__storage_type__": "0", 
        "__wd_mult__": "1.0"
      }, 
      "inputs": []
    }, 
    {
      "op": "null", 
      "name": "pydnet_0_75/stg0/blk4/btl_in/batchnorm0_beta", 
      "attrs": {
        "__dtype__": "0", 
        "__init__": "zeros", 
        "__lr_mult__": "1.0", 
        "__shape__": "(0,)", 
        "__storage_type__": "0", 
        "__wd_mult__": "1.0"
      }, 
      "inputs": []
    }, 
    {
      "op": "null", 
      "name": "pydnet_0_75/stg0/blk4/btl_in/batchnorm0_running_mean", 
      "attrs": {
        "__dtype__": "0", 
        "__init__": "zeros", 
        "__lr_mult__": "1.0", 
        "__shape__": "(0,)", 
        "__storage_type__": "0", 
        "__wd_mult__": "1.0"
      }, 
      "inputs": []
    }, 
    {
      "op": "null", 
      "name": "pydnet_0_75/stg0/blk4/btl_in/batchnorm0_running_var", 
      "attrs": {
        "__dtype__": "0", 
        "__init__": "ones", 
        "__lr_mult__": "1.0", 
        "__shape__": "(0,)", 
        "__storage_type__": "0", 
        "__wd_mult__": "1.0"
      }, 
      "inputs": []
    }, 
    {
      "op": "BatchNorm", 
      "name": "pydnet_0_75/stg0/blk4/btl_in/batchnorm0_fwd", 
      "attrs": {
        "axis": "1", 
        "eps": "1e-05", 
        "fix_gamma": "False", 
        "momentum": "0.9", 
        "use_global_stats": "False"
      }, 
      "inputs": [[147, 0, 0], [148, 0, 0], [149, 0, 0], [150, 0, 1], [151, 0, 1]]
    }, 
    {
      "op": "Activation", 
      "name": "pydnet_0_75/stg0/blk4/btl_in/relu0_fwd", 
      "attrs": {"act_type": "relu"}, 
      "inputs": [[152, 0, 0]]
    }, 
    {
      "op": "null", 
      "name": "pydnet_0_75/stg0/blk4/btl_in/conv0_weight", 
      "attrs": {
        "__dtype__": "0", 
        "__lr_mult__": "1.0", 
        "__shape__": "(48, 0, 1, 1)", 
        "__storage_type__": "0", 
        "__wd_mult__": "1.0"
      }, 
      "inputs": []
    }, 
    {
      "op": "Convolution", 
      "name": "pydnet_0_75/stg0/blk4/btl_in/conv0_fwd", 
      "attrs": {
        "dilate": "(1, 1)", 
        "kernel": "(1, 1)", 
        "layout": "NCHW", 
        "no_bias": "True", 
        "num_filter": "48", 
        "num_group": "1", 
        "pad": "(0, 0)", 
        "stride": "(1, 1)"
      }, 
      "inputs": [[153, 0, 0], [154, 0, 0]]
    }, 
    {
      "op": "null", 
      "name": "pydnet_0_75/stg0/blk4/btl_in/batchnorm1_gamma", 
      "attrs": {
        "__dtype__": "0", 
        "__init__": "ones", 
        "__lr_mult__": "1.0", 
        "__shape__": "(0,)", 
        "__storage_type__": "0", 
        "__wd_mult__": "1.0"
      }, 
      "inputs": []
    }, 
    {
      "op": "null", 
      "name": "pydnet_0_75/stg0/blk4/btl_in/batchnorm1_beta", 
      "attrs": {
        "__dtype__": "0", 
        "__init__": "zeros", 
        "__lr_mult__": "1.0", 
        "__shape__": "(0,)", 
        "__storage_type__": "0", 
        "__wd_mult__": "1.0"
      }, 
      "inputs": []
    }, 
    {
      "op": "null", 
      "name": "pydnet_0_75/stg0/blk4/btl_in/batchnorm1_running_mean", 
      "attrs": {
        "__dtype__": "0", 
        "__init__": "zeros", 
        "__lr_mult__": "1.0", 
        "__shape__": "(0,)", 
        "__storage_type__": "0", 
        "__wd_mult__": "1.0"
      }, 
      "inputs": []
    }, 
    {
      "op": "null", 
      "name": "pydnet_0_75/stg0/blk4/btl_in/batchnorm1_running_var", 
      "attrs": {
        "__dtype__": "0", 
        "__init__": "ones", 
        "__lr_mult__": "1.0", 
        "__shape__": "(0,)", 
        "__storage_type__": "0", 
        "__wd_mult__": "1.0"
      }, 
      "inputs": []
    }, 
    {
      "op": "BatchNorm", 
      "name": "pydnet_0_75/stg0/blk4/btl_in/batchnorm1_fwd", 
      "attrs": {
        "axis": "1", 
        "eps": "1e-05", 
        "fix_gamma": "False", 
        "momentum": "0.9", 
        "use_global_stats": "False"
      }, 
      "inputs": [[155, 0, 0], [156, 0, 0], [157, 0, 0], [158, 0, 1], [159, 0, 1]]
    }, 
    {
      "op": "Activation", 
      "name": "pydnet_0_75/stg0/blk4/btl_in/relu1_fwd", 
      "attrs": {"act_type": "relu"}, 
      "inputs": [[160, 0, 0]]
    }, 
    {
      "op": "null", 
      "name": "pydnet_0_75/stg0/blk4/conv3/conv0_weight", 
      "attrs": {
        "__dtype__": "0", 
        "__lr_mult__": "1.0", 
        "__shape__": "(48, 0, 3, 3)", 
        "__storage_type__": "0", 
        "__wd_mult__": "1.0"
      }, 
      "inputs": []
    }, 
    {
      "op": "Convolution", 
      "name": "pydnet_0_75/stg0/blk4/conv3/conv0_fwd", 
      "attrs": {
        "dilate": "(1, 1)", 
        "kernel": "(3, 3)", 
        "layout": "NCHW", 
        "no_bias": "True", 
        "num_filter": "48", 
        "num_group": "48", 
        "pad": "(1, 1)", 
        "stride": "(1, 1)"
      }, 
      "inputs": [[161, 0, 0], [162, 0, 0]]
    }, 
    {
      "op": "null", 
      "name": "pydnet_0_75/stg0/blk4/conv5/conv0_weight", 
      "attrs": {
        "__dtype__": "0", 
        "__lr_mult__": "1.0", 
        "__shape__": "(48, 0, 5, 5)", 
        "__storage_type__": "0", 
        "__wd_mult__": "1.0"
      }, 
      "inputs": []
    }, 
    {
      "op": "Convolution", 
      "name": "pydnet_0_75/stg0/blk4/conv5/conv0_fwd", 
      "attrs": {
        "dilate": "(1, 1)", 
        "kernel": "(5, 5)", 
        "layout": "NCHW", 
        "no_bias": "True", 
        "num_filter": "48", 
        "num_group": "48", 
        "pad": "(2, 2)", 
        "stride": "(1, 1)"
      }, 
      "inputs": [[161, 0, 0], [164, 0, 0]]
    }, 
    {
      "op": "null", 
      "name": "pydnet_0_75/stg0/blk4/conv7/conv0_weight", 
      "attrs": {
        "__dtype__": "0", 
        "__lr_mult__": "1.0", 
        "__shape__": "(48, 0, 7, 7)", 
        "__storage_type__": "0", 
        "__wd_mult__": "1.0"
      }, 
      "inputs": []
    }, 
    {
      "op": "Convolution", 
      "name": "pydnet_0_75/stg0/blk4/conv7/conv0_fwd", 
      "attrs": {
        "dilate": "(1, 1)", 
        "kernel": "(7, 7)", 
        "layout": "NCHW", 
        "no_bias": "True", 
        "num_filter": "48", 
        "num_group": "48", 
        "pad": "(3, 3)", 
        "stride": "(1, 1)"
      }, 
      "inputs": [[161, 0, 0], [166, 0, 0]]
    }, 
    {
      "op": "Concat", 
      "name": "pydnet_0_75/stg0/blk4/concat0", 
      "attrs": {
        "dim": "1", 
        "num_args": "3"
      }, 
      "inputs": [[163, 0, 0], [165, 0, 0], [167, 0, 0]]
    }, 
    {
      "op": "null", 
      "name": "pydnet_0_75/stg0/blk4/btl_out/batchnorm0_gamma", 
      "attrs": {
        "__dtype__": "0", 
        "__init__": "ones", 
        "__lr_mult__": "1.0", 
        "__shape__": "(0,)", 
        "__storage_type__": "0", 
        "__wd_mult__": "1.0"
      }, 
      "inputs": []
    }, 
    {
      "op": "null", 
      "name": "pydnet_0_75/stg0/blk4/btl_out/batchnorm0_beta", 
      "attrs": {
        "__dtype__": "0", 
        "__init__": "zeros", 
        "__lr_mult__": "1.0", 
        "__shape__": "(0,)", 
        "__storage_type__": "0", 
        "__wd_mult__": "1.0"
      }, 
      "inputs": []
    }, 
    {
      "op": "null", 
      "name": "pydnet_0_75/stg0/blk4/btl_out/batchnorm0_running_mean", 
      "attrs": {
        "__dtype__": "0", 
        "__init__": "zeros", 
        "__lr_mult__": "1.0", 
        "__shape__": "(0,)", 
        "__storage_type__": "0", 
        "__wd_mult__": "1.0"
      }, 
      "inputs": []
    }, 
    {
      "op": "null", 
      "name": "pydnet_0_75/stg0/blk4/btl_out/batchnorm0_running_var", 
      "attrs": {
        "__dtype__": "0", 
        "__init__": "ones", 
        "__lr_mult__": "1.0", 
        "__shape__": "(0,)", 
        "__storage_type__": "0", 
        "__wd_mult__": "1.0"
      }, 
      "inputs": []
    }, 
    {
      "op": "BatchNorm", 
      "name": "pydnet_0_75/stg0/blk4/btl_out/batchnorm0_fwd", 
      "attrs": {
        "axis": "1", 
        "eps": "1e-05", 
        "fix_gamma": "False", 
        "momentum": "0.9", 
        "use_global_stats": "False"
      }, 
      "inputs": [[168, 0, 0], [169, 0, 0], [170, 0, 0], [171, 0, 1], [172, 0, 1]]
    }, 
    {
      "op": "Activation", 
      "name": "pydnet_0_75/stg0/blk4/btl_out/relu0_fwd", 
      "attrs": {"act_type": "relu"}, 
      "inputs": [[173, 0, 0]]
    }, 
    {
      "op": "null", 
      "name": "pydnet_0_75/stg0/blk4/btl_out/conv0_weight", 
      "attrs": {
        "__dtype__": "0", 
        "__lr_mult__": "1.0", 
        "__shape__": "(64, 0, 1, 1)", 
        "__storage_type__": "0", 
        "__wd_mult__": "1.0"
      }, 
      "inputs": []
    }, 
    {
      "op": "Convolution", 
      "name": "pydnet_0_75/stg0/blk4/btl_out/conv0_fwd", 
      "attrs": {
        "dilate": "(1, 1)", 
        "kernel": "(1, 1)", 
        "layout": "NCHW", 
        "no_bias": "True", 
        "num_filter": "64", 
        "num_group": "1", 
        "pad": "(0, 0)", 
        "stride": "(1, 1)"
      }, 
      "inputs": [[174, 0, 0], [175, 0, 0]]
    }, 
    {
      "op": "null", 
      "name": "pydnet_0_75/stg0/blk4/btl_out/batchnorm1_gamma", 
      "attrs": {
        "__dtype__": "0", 
        "__init__": "ones", 
        "__lr_mult__": "1.0", 
        "__shape__": "(0,)", 
        "__storage_type__": "0", 
        "__wd_mult__": "1.0"
      }, 
      "inputs": []
    }, 
    {
      "op": "null", 
      "name": "pydnet_0_75/stg0/blk4/btl_out/batchnorm1_beta", 
      "attrs": {
        "__dtype__": "0", 
        "__init__": "zeros", 
        "__lr_mult__": "1.0", 
        "__shape__": "(0,)", 
        "__storage_type__": "0", 
        "__wd_mult__": "1.0"
      }, 
      "inputs": []
    }, 
    {
      "op": "null", 
      "name": "pydnet_0_75/stg0/blk4/btl_out/batchnorm1_running_mean", 
      "attrs": {
        "__dtype__": "0", 
        "__init__": "zeros", 
        "__lr_mult__": "1.0", 
        "__shape__": "(0,)", 
        "__storage_type__": "0", 
        "__wd_mult__": "1.0"
      }, 
      "inputs": []
    }, 
    {
      "op": "null", 
      "name": "pydnet_0_75/stg0/blk4/btl_out/batchnorm1_running_var", 
      "attrs": {
        "__dtype__": "0", 
        "__init__": "ones", 
        "__lr_mult__": "1.0", 
        "__shape__": "(0,)", 
        "__storage_type__": "0", 
        "__wd_mult__": "1.0"
      }, 
      "inputs": []
    }, 
    {
      "op": "BatchNorm", 
      "name": "pydnet_0_75/stg0/blk4/btl_out/batchnorm1_fwd", 
      "attrs": {
        "axis": "1", 
        "eps": "1e-05", 
        "fix_gamma": "False", 
        "momentum": "0.9", 
        "use_global_stats": "False"
      }, 
      "inputs": [[176, 0, 0], [177, 0, 0], [178, 0, 0], [179, 0, 1], [180, 0, 1]]
    }, 
    {
      "op": "elemwise_add", 
      "name": "pydnet_0_75/stg0/blk4/_plus0", 
      "inputs": [[181, 0, 0], [147, 0, 0]]
    }, 
    {
      "op": "null", 
      "name": "pydnet_0_75/stg0/blk5/btl_in/batchnorm0_gamma", 
      "attrs": {
        "__dtype__": "0", 
        "__init__": "ones", 
        "__lr_mult__": "1.0", 
        "__shape__": "(0,)", 
        "__storage_type__": "0", 
        "__wd_mult__": "1.0"
      }, 
      "inputs": []
    }, 
    {
      "op": "null", 
      "name": "pydnet_0_75/stg0/blk5/btl_in/batchnorm0_beta", 
      "attrs": {
        "__dtype__": "0", 
        "__init__": "zeros", 
        "__lr_mult__": "1.0", 
        "__shape__": "(0,)", 
        "__storage_type__": "0", 
        "__wd_mult__": "1.0"
      }, 
      "inputs": []
    }, 
    {
      "op": "null", 
      "name": "pydnet_0_75/stg0/blk5/btl_in/batchnorm0_running_mean", 
      "attrs": {
        "__dtype__": "0", 
        "__init__": "zeros", 
        "__lr_mult__": "1.0", 
        "__shape__": "(0,)", 
        "__storage_type__": "0", 
        "__wd_mult__": "1.0"
      }, 
      "inputs": []
    }, 
    {
      "op": "null", 
      "name": "pydnet_0_75/stg0/blk5/btl_in/batchnorm0_running_var", 
      "attrs": {
        "__dtype__": "0", 
        "__init__": "ones", 
        "__lr_mult__": "1.0", 
        "__shape__": "(0,)", 
        "__storage_type__": "0", 
        "__wd_mult__": "1.0"
      }, 
      "inputs": []
    }, 
    {
      "op": "BatchNorm", 
      "name": "pydnet_0_75/stg0/blk5/btl_in/batchnorm0_fwd", 
      "attrs": {
        "axis": "1", 
        "eps": "1e-05", 
        "fix_gamma": "False", 
        "momentum": "0.9", 
        "use_global_stats": "False"
      }, 
      "inputs": [[182, 0, 0], [183, 0, 0], [184, 0, 0], [185, 0, 1], [186, 0, 1]]
    }, 
    {
      "op": "Activation", 
      "name": "pydnet_0_75/stg0/blk5/btl_in/relu0_fwd", 
      "attrs": {"act_type": "relu"}, 
      "inputs": [[187, 0, 0]]
    }, 
    {
      "op": "null", 
      "name": "pydnet_0_75/stg0/blk5/btl_in/conv0_weight", 
      "attrs": {
        "__dtype__": "0", 
        "__lr_mult__": "1.0", 
        "__shape__": "(48, 0, 1, 1)", 
        "__storage_type__": "0", 
        "__wd_mult__": "1.0"
      }, 
      "inputs": []
    }, 
    {
      "op": "Convolution", 
      "name": "pydnet_0_75/stg0/blk5/btl_in/conv0_fwd", 
      "attrs": {
        "dilate": "(1, 1)", 
        "kernel": "(1, 1)", 
        "layout": "NCHW", 
        "no_bias": "True", 
        "num_filter": "48", 
        "num_group": "1", 
        "pad": "(0, 0)", 
        "stride": "(1, 1)"
      }, 
      "inputs": [[188, 0, 0], [189, 0, 0]]
    }, 
    {
      "op": "null", 
      "name": "pydnet_0_75/stg0/blk5/btl_in/batchnorm1_gamma", 
      "attrs": {
        "__dtype__": "0", 
        "__init__": "ones", 
        "__lr_mult__": "1.0", 
        "__shape__": "(0,)", 
        "__storage_type__": "0", 
        "__wd_mult__": "1.0"
      }, 
      "inputs": []
    }, 
    {
      "op": "null", 
      "name": "pydnet_0_75/stg0/blk5/btl_in/batchnorm1_beta", 
      "attrs": {
        "__dtype__": "0", 
        "__init__": "zeros", 
        "__lr_mult__": "1.0", 
        "__shape__": "(0,)", 
        "__storage_type__": "0", 
        "__wd_mult__": "1.0"
      }, 
      "inputs": []
    }, 
    {
      "op": "null", 
      "name": "pydnet_0_75/stg0/blk5/btl_in/batchnorm1_running_mean", 
      "attrs": {
        "__dtype__": "0", 
        "__init__": "zeros", 
        "__lr_mult__": "1.0", 
        "__shape__": "(0,)", 
        "__storage_type__": "0", 
        "__wd_mult__": "1.0"
      }, 
      "inputs": []
    }, 
    {
      "op": "null", 
      "name": "pydnet_0_75/stg0/blk5/btl_in/batchnorm1_running_var", 
      "attrs": {
        "__dtype__": "0", 
        "__init__": "ones", 
        "__lr_mult__": "1.0", 
        "__shape__": "(0,)", 
        "__storage_type__": "0", 
        "__wd_mult__": "1.0"
      }, 
      "inputs": []
    }, 
    {
      "op": "BatchNorm", 
      "name": "pydnet_0_75/stg0/blk5/btl_in/batchnorm1_fwd", 
      "attrs": {
        "axis": "1", 
        "eps": "1e-05", 
        "fix_gamma": "False", 
        "momentum": "0.9", 
        "use_global_stats": "False"
      }, 
      "inputs": [[190, 0, 0], [191, 0, 0], [192, 0, 0], [193, 0, 1], [194, 0, 1]]
    }, 
    {
      "op": "Activation", 
      "name": "pydnet_0_75/stg0/blk5/btl_in/relu1_fwd", 
      "attrs": {"act_type": "relu"}, 
      "inputs": [[195, 0, 0]]
    }, 
    {
      "op": "null", 
      "name": "pydnet_0_75/stg0/blk5/conv3/conv0_weight", 
      "attrs": {
        "__dtype__": "0", 
        "__lr_mult__": "1.0", 
        "__shape__": "(48, 0, 3, 3)", 
        "__storage_type__": "0", 
        "__wd_mult__": "1.0"
      }, 
      "inputs": []
    }, 
    {
      "op": "Convolution", 
      "name": "pydnet_0_75/stg0/blk5/conv3/conv0_fwd", 
      "attrs": {
        "dilate": "(1, 1)", 
        "kernel": "(3, 3)", 
        "layout": "NCHW", 
        "no_bias": "True", 
        "num_filter": "48", 
        "num_group": "48", 
        "pad": "(1, 1)", 
        "stride": "(1, 1)"
      }, 
      "inputs": [[196, 0, 0], [197, 0, 0]]
    }, 
    {
      "op": "null", 
      "name": "pydnet_0_75/stg0/blk5/conv5/conv0_weight", 
      "attrs": {
        "__dtype__": "0", 
        "__lr_mult__": "1.0", 
        "__shape__": "(48, 0, 5, 5)", 
        "__storage_type__": "0", 
        "__wd_mult__": "1.0"
      }, 
      "inputs": []
    }, 
    {
      "op": "Convolution", 
      "name": "pydnet_0_75/stg0/blk5/conv5/conv0_fwd", 
      "attrs": {
        "dilate": "(1, 1)", 
        "kernel": "(5, 5)", 
        "layout": "NCHW", 
        "no_bias": "True", 
        "num_filter": "48", 
        "num_group": "48", 
        "pad": "(2, 2)", 
        "stride": "(1, 1)"
      }, 
      "inputs": [[196, 0, 0], [199, 0, 0]]
    }, 
    {
      "op": "null", 
      "name": "pydnet_0_75/stg0/blk5/conv7/conv0_weight", 
      "attrs": {
        "__dtype__": "0", 
        "__lr_mult__": "1.0", 
        "__shape__": "(48, 0, 7, 7)", 
        "__storage_type__": "0", 
        "__wd_mult__": "1.0"
      }, 
      "inputs": []
    }, 
    {
      "op": "Convolution", 
      "name": "pydnet_0_75/stg0/blk5/conv7/conv0_fwd", 
      "attrs": {
        "dilate": "(1, 1)", 
        "kernel": "(7, 7)", 
        "layout": "NCHW", 
        "no_bias": "True", 
        "num_filter": "48", 
        "num_group": "48", 
        "pad": "(3, 3)", 
        "stride": "(1, 1)"
      }, 
      "inputs": [[196, 0, 0], [201, 0, 0]]
    }, 
    {
      "op": "Concat", 
      "name": "pydnet_0_75/stg0/blk5/concat0", 
      "attrs": {
        "dim": "1", 
        "num_args": "3"
      }, 
      "inputs": [[198, 0, 0], [200, 0, 0], [202, 0, 0]]
    }, 
    {
      "op": "null", 
      "name": "pydnet_0_75/stg0/blk5/btl_out/batchnorm0_gamma", 
      "attrs": {
        "__dtype__": "0", 
        "__init__": "ones", 
        "__lr_mult__": "1.0", 
        "__shape__": "(0,)", 
        "__storage_type__": "0", 
        "__wd_mult__": "1.0"
      }, 
      "inputs": []
    }, 
    {
      "op": "null", 
      "name": "pydnet_0_75/stg0/blk5/btl_out/batchnorm0_beta", 
      "attrs": {
        "__dtype__": "0", 
        "__init__": "zeros", 
        "__lr_mult__": "1.0", 
        "__shape__": "(0,)", 
        "__storage_type__": "0", 
        "__wd_mult__": "1.0"
      }, 
      "inputs": []
    }, 
    {
      "op": "null", 
      "name": "pydnet_0_75/stg0/blk5/btl_out/batchnorm0_running_mean", 
      "attrs": {
        "__dtype__": "0", 
        "__init__": "zeros", 
        "__lr_mult__": "1.0", 
        "__shape__": "(0,)", 
        "__storage_type__": "0", 
        "__wd_mult__": "1.0"
      }, 
      "inputs": []
    }, 
    {
      "op": "null", 
      "name": "pydnet_0_75/stg0/blk5/btl_out/batchnorm0_running_var", 
      "attrs": {
        "__dtype__": "0", 
        "__init__": "ones", 
        "__lr_mult__": "1.0", 
        "__shape__": "(0,)", 
        "__storage_type__": "0", 
        "__wd_mult__": "1.0"
      }, 
      "inputs": []
    }, 
    {
      "op": "BatchNorm", 
      "name": "pydnet_0_75/stg0/blk5/btl_out/batchnorm0_fwd", 
      "attrs": {
        "axis": "1", 
        "eps": "1e-05", 
        "fix_gamma": "False", 
        "momentum": "0.9", 
        "use_global_stats": "False"
      }, 
      "inputs": [[203, 0, 0], [204, 0, 0], [205, 0, 0], [206, 0, 1], [207, 0, 1]]
    }, 
    {
      "op": "Activation", 
      "name": "pydnet_0_75/stg0/blk5/btl_out/relu0_fwd", 
      "attrs": {"act_type": "relu"}, 
      "inputs": [[208, 0, 0]]
    }, 
    {
      "op": "null", 
      "name": "pydnet_0_75/stg0/blk5/btl_out/conv0_weight", 
      "attrs": {
        "__dtype__": "0", 
        "__lr_mult__": "1.0", 
        "__shape__": "(64, 0, 1, 1)", 
        "__storage_type__": "0", 
        "__wd_mult__": "1.0"
      }, 
      "inputs": []
    }, 
    {
      "op": "Convolution", 
      "name": "pydnet_0_75/stg0/blk5/btl_out/conv0_fwd", 
      "attrs": {
        "dilate": "(1, 1)", 
        "kernel": "(1, 1)", 
        "layout": "NCHW", 
        "no_bias": "True", 
        "num_filter": "64", 
        "num_group": "1", 
        "pad": "(0, 0)", 
        "stride": "(1, 1)"
      }, 
      "inputs": [[209, 0, 0], [210, 0, 0]]
    }, 
    {
      "op": "null", 
      "name": "pydnet_0_75/stg0/blk5/btl_out/batchnorm1_gamma", 
      "attrs": {
        "__dtype__": "0", 
        "__init__": "ones", 
        "__lr_mult__": "1.0", 
        "__shape__": "(0,)", 
        "__storage_type__": "0", 
        "__wd_mult__": "1.0"
      }, 
      "inputs": []
    }, 
    {
      "op": "null", 
      "name": "pydnet_0_75/stg0/blk5/btl_out/batchnorm1_beta", 
      "attrs": {
        "__dtype__": "0", 
        "__init__": "zeros", 
        "__lr_mult__": "1.0", 
        "__shape__": "(0,)", 
        "__storage_type__": "0", 
        "__wd_mult__": "1.0"
      }, 
      "inputs": []
    }, 
    {
      "op": "null", 
      "name": "pydnet_0_75/stg0/blk5/btl_out/batchnorm1_running_mean", 
      "attrs": {
        "__dtype__": "0", 
        "__init__": "zeros", 
        "__lr_mult__": "1.0", 
        "__shape__": "(0,)", 
        "__storage_type__": "0", 
        "__wd_mult__": "1.0"
      }, 
      "inputs": []
    }, 
    {
      "op": "null", 
      "name": "pydnet_0_75/stg0/blk5/btl_out/batchnorm1_running_var", 
      "attrs": {
        "__dtype__": "0", 
        "__init__": "ones", 
        "__lr_mult__": "1.0", 
        "__shape__": "(0,)", 
        "__storage_type__": "0", 
        "__wd_mult__": "1.0"
      }, 
      "inputs": []
    }, 
    {
      "op": "BatchNorm", 
      "name": "pydnet_0_75/stg0/blk5/btl_out/batchnorm1_fwd", 
      "attrs": {
        "axis": "1", 
        "eps": "1e-05", 
        "fix_gamma": "False", 
        "momentum": "0.9", 
        "use_global_stats": "False"
      }, 
      "inputs": [[211, 0, 0], [212, 0, 0], [213, 0, 0], [214, 0, 1], [215, 0, 1]]
    }, 
    {
      "op": "elemwise_add", 
      "name": "pydnet_0_75/stg0/blk5/_plus0", 
      "inputs": [[216, 0, 0], [182, 0, 0]]
    }, 
    {
      "op": "null", 
      "name": "pydnet_0_75/stg1/blk0/btl_in/batchnorm0_gamma", 
      "attrs": {
        "__dtype__": "0", 
        "__init__": "ones", 
        "__lr_mult__": "1.0", 
        "__shape__": "(0,)", 
        "__storage_type__": "0", 
        "__wd_mult__": "1.0"
      }, 
      "inputs": []
    }, 
    {
      "op": "null", 
      "name": "pydnet_0_75/stg1/blk0/btl_in/batchnorm0_beta", 
      "attrs": {
        "__dtype__": "0", 
        "__init__": "zeros", 
        "__lr_mult__": "1.0", 
        "__shape__": "(0,)", 
        "__storage_type__": "0", 
        "__wd_mult__": "1.0"
      }, 
      "inputs": []
    }, 
    {
      "op": "null", 
      "name": "pydnet_0_75/stg1/blk0/btl_in/batchnorm0_running_mean", 
      "attrs": {
        "__dtype__": "0", 
        "__init__": "zeros", 
        "__lr_mult__": "1.0", 
        "__shape__": "(0,)", 
        "__storage_type__": "0", 
        "__wd_mult__": "1.0"
      }, 
      "inputs": []
    }, 
    {
      "op": "null", 
      "name": "pydnet_0_75/stg1/blk0/btl_in/batchnorm0_running_var", 
      "attrs": {
        "__dtype__": "0", 
        "__init__": "ones", 
        "__lr_mult__": "1.0", 
        "__shape__": "(0,)", 
        "__storage_type__": "0", 
        "__wd_mult__": "1.0"
      }, 
      "inputs": []
    }, 
    {
      "op": "BatchNorm", 
      "name": "pydnet_0_75/stg1/blk0/btl_in/batchnorm0_fwd", 
      "attrs": {
        "axis": "1", 
        "eps": "1e-05", 
        "fix_gamma": "False", 
        "momentum": "0.9", 
        "use_global_stats": "False"
      }, 
      "inputs": [[217, 0, 0], [218, 0, 0], [219, 0, 0], [220, 0, 1], [221, 0, 1]]
    }, 
    {
      "op": "Activation", 
      "name": "pydnet_0_75/stg1/blk0/btl_in/relu0_fwd", 
      "attrs": {"act_type": "relu"}, 
      "inputs": [[222, 0, 0]]
    }, 
    {
      "op": "null", 
      "name": "pydnet_0_75/stg1/blk0/btl_in/conv0_weight", 
      "attrs": {
        "__dtype__": "0", 
        "__lr_mult__": "1.0", 
        "__shape__": "(96, 0, 1, 1)", 
        "__storage_type__": "0", 
        "__wd_mult__": "1.0"
      }, 
      "inputs": []
    }, 
    {
      "op": "Convolution", 
      "name": "pydnet_0_75/stg1/blk0/btl_in/conv0_fwd", 
      "attrs": {
        "dilate": "(1, 1)", 
        "kernel": "(1, 1)", 
        "layout": "NCHW", 
        "no_bias": "True", 
        "num_filter": "96", 
        "num_group": "1", 
        "pad": "(0, 0)", 
        "stride": "(1, 1)"
      }, 
      "inputs": [[223, 0, 0], [224, 0, 0]]
    }, 
    {
      "op": "null", 
      "name": "pydnet_0_75/stg1/blk0/btl_in/batchnorm1_gamma", 
      "attrs": {
        "__dtype__": "0", 
        "__init__": "ones", 
        "__lr_mult__": "1.0", 
        "__shape__": "(0,)", 
        "__storage_type__": "0", 
        "__wd_mult__": "1.0"
      }, 
      "inputs": []
    }, 
    {
      "op": "null", 
      "name": "pydnet_0_75/stg1/blk0/btl_in/batchnorm1_beta", 
      "attrs": {
        "__dtype__": "0", 
        "__init__": "zeros", 
        "__lr_mult__": "1.0", 
        "__shape__": "(0,)", 
        "__storage_type__": "0", 
        "__wd_mult__": "1.0"
      }, 
      "inputs": []
    }, 
    {
      "op": "null", 
      "name": "pydnet_0_75/stg1/blk0/btl_in/batchnorm1_running_mean", 
      "attrs": {
        "__dtype__": "0", 
        "__init__": "zeros", 
        "__lr_mult__": "1.0", 
        "__shape__": "(0,)", 
        "__storage_type__": "0", 
        "__wd_mult__": "1.0"
      }, 
      "inputs": []
    }, 
    {
      "op": "null", 
      "name": "pydnet_0_75/stg1/blk0/btl_in/batchnorm1_running_var", 
      "attrs": {
        "__dtype__": "0", 
        "__init__": "ones", 
        "__lr_mult__": "1.0", 
        "__shape__": "(0,)", 
        "__storage_type__": "0", 
        "__wd_mult__": "1.0"
      }, 
      "inputs": []
    }, 
    {
      "op": "BatchNorm", 
      "name": "pydnet_0_75/stg1/blk0/btl_in/batchnorm1_fwd", 
      "attrs": {
        "axis": "1", 
        "eps": "1e-05", 
        "fix_gamma": "False", 
        "momentum": "0.9", 
        "use_global_stats": "False"
      }, 
      "inputs": [[225, 0, 0], [226, 0, 0], [227, 0, 0], [228, 0, 1], [229, 0, 1]]
    }, 
    {
      "op": "Activation", 
      "name": "pydnet_0_75/stg1/blk0/btl_in/relu1_fwd", 
      "attrs": {"act_type": "relu"}, 
      "inputs": [[230, 0, 0]]
    }, 
    {
      "op": "null", 
      "name": "pydnet_0_75/stg1/blk0/conv3/conv0_weight", 
      "attrs": {
        "__dtype__": "0", 
        "__lr_mult__": "1.0", 
        "__shape__": "(96, 0, 3, 3)", 
        "__storage_type__": "0", 
        "__wd_mult__": "1.0"
      }, 
      "inputs": []
    }, 
    {
      "op": "Convolution", 
      "name": "pydnet_0_75/stg1/blk0/conv3/conv0_fwd", 
      "attrs": {
        "dilate": "(1, 1)", 
        "kernel": "(3, 3)", 
        "layout": "NCHW", 
        "no_bias": "True", 
        "num_filter": "96", 
        "num_group": "96", 
        "pad": "(1, 1)", 
        "stride": "(2, 2)"
      }, 
      "inputs": [[231, 0, 0], [232, 0, 0]]
    }, 
    {
      "op": "null", 
      "name": "pydnet_0_75/stg1/blk0/conv5/conv0_weight", 
      "attrs": {
        "__dtype__": "0", 
        "__lr_mult__": "1.0", 
        "__shape__": "(96, 0, 5, 5)", 
        "__storage_type__": "0", 
        "__wd_mult__": "1.0"
      }, 
      "inputs": []
    }, 
    {
      "op": "Convolution", 
      "name": "pydnet_0_75/stg1/blk0/conv5/conv0_fwd", 
      "attrs": {
        "dilate": "(1, 1)", 
        "kernel": "(5, 5)", 
        "layout": "NCHW", 
        "no_bias": "True", 
        "num_filter": "96", 
        "num_group": "96", 
        "pad": "(2, 2)", 
        "stride": "(2, 2)"
      }, 
      "inputs": [[231, 0, 0], [234, 0, 0]]
    }, 
    {
      "op": "null", 
      "name": "pydnet_0_75/stg1/blk0/conv7/conv0_weight", 
      "attrs": {
        "__dtype__": "0", 
        "__lr_mult__": "1.0", 
        "__shape__": "(96, 0, 7, 7)", 
        "__storage_type__": "0", 
        "__wd_mult__": "1.0"
      }, 
      "inputs": []
    }, 
    {
      "op": "Convolution", 
      "name": "pydnet_0_75/stg1/blk0/conv7/conv0_fwd", 
      "attrs": {
        "dilate": "(1, 1)", 
        "kernel": "(7, 7)", 
        "layout": "NCHW", 
        "no_bias": "True", 
        "num_filter": "96", 
        "num_group": "96", 
        "pad": "(3, 3)", 
        "stride": "(2, 2)"
      }, 
      "inputs": [[231, 0, 0], [236, 0, 0]]
    }, 
    {
      "op": "Concat", 
      "name": "pydnet_0_75/stg1/blk0/concat0", 
      "attrs": {
        "dim": "1", 
        "num_args": "3"
      }, 
      "inputs": [[233, 0, 0], [235, 0, 0], [237, 0, 0]]
    }, 
    {
      "op": "null", 
      "name": "pydnet_0_75/stg1/blk0/btl_out/batchnorm0_gamma", 
      "attrs": {
        "__dtype__": "0", 
        "__init__": "ones", 
        "__lr_mult__": "1.0", 
        "__shape__": "(0,)", 
        "__storage_type__": "0", 
        "__wd_mult__": "1.0"
      }, 
      "inputs": []
    }, 
    {
      "op": "null", 
      "name": "pydnet_0_75/stg1/blk0/btl_out/batchnorm0_beta", 
      "attrs": {
        "__dtype__": "0", 
        "__init__": "zeros", 
        "__lr_mult__": "1.0", 
        "__shape__": "(0,)", 
        "__storage_type__": "0", 
        "__wd_mult__": "1.0"
      }, 
      "inputs": []
    }, 
    {
      "op": "null", 
      "name": "pydnet_0_75/stg1/blk0/btl_out/batchnorm0_running_mean", 
      "attrs": {
        "__dtype__": "0", 
        "__init__": "zeros", 
        "__lr_mult__": "1.0", 
        "__shape__": "(0,)", 
        "__storage_type__": "0", 
        "__wd_mult__": "1.0"
      }, 
      "inputs": []
    }, 
    {
      "op": "null", 
      "name": "pydnet_0_75/stg1/blk0/btl_out/batchnorm0_running_var", 
      "attrs": {
        "__dtype__": "0", 
        "__init__": "ones", 
        "__lr_mult__": "1.0", 
        "__shape__": "(0,)", 
        "__storage_type__": "0", 
        "__wd_mult__": "1.0"
      }, 
      "inputs": []
    }, 
    {
      "op": "BatchNorm", 
      "name": "pydnet_0_75/stg1/blk0/btl_out/batchnorm0_fwd", 
      "attrs": {
        "axis": "1", 
        "eps": "1e-05", 
        "fix_gamma": "False", 
        "momentum": "0.9", 
        "use_global_stats": "False"
      }, 
      "inputs": [[238, 0, 0], [239, 0, 0], [240, 0, 0], [241, 0, 1], [242, 0, 1]]
    }, 
    {
      "op": "Activation", 
      "name": "pydnet_0_75/stg1/blk0/btl_out/relu0_fwd", 
      "attrs": {"act_type": "relu"}, 
      "inputs": [[243, 0, 0]]
    }, 
    {
      "op": "null", 
      "name": "pydnet_0_75/stg1/blk0/btl_out/conv0_weight", 
      "attrs": {
        "__dtype__": "0", 
        "__lr_mult__": "1.0", 
        "__shape__": "(128, 0, 1, 1)", 
        "__storage_type__": "0", 
        "__wd_mult__": "1.0"
      }, 
      "inputs": []
    }, 
    {
      "op": "Convolution", 
      "name": "pydnet_0_75/stg1/blk0/btl_out/conv0_fwd", 
      "attrs": {
        "dilate": "(1, 1)", 
        "kernel": "(1, 1)", 
        "layout": "NCHW", 
        "no_bias": "True", 
        "num_filter": "128", 
        "num_group": "1", 
        "pad": "(0, 0)", 
        "stride": "(1, 1)"
      }, 
      "inputs": [[244, 0, 0], [245, 0, 0]]
    }, 
    {
      "op": "null", 
      "name": "pydnet_0_75/stg1/blk0/btl_out/batchnorm1_gamma", 
      "attrs": {
        "__dtype__": "0", 
        "__init__": "ones", 
        "__lr_mult__": "1.0", 
        "__shape__": "(0,)", 
        "__storage_type__": "0", 
        "__wd_mult__": "1.0"
      }, 
      "inputs": []
    }, 
    {
      "op": "null", 
      "name": "pydnet_0_75/stg1/blk0/btl_out/batchnorm1_beta", 
      "attrs": {
        "__dtype__": "0", 
        "__init__": "zeros", 
        "__lr_mult__": "1.0", 
        "__shape__": "(0,)", 
        "__storage_type__": "0", 
        "__wd_mult__": "1.0"
      }, 
      "inputs": []
    }, 
    {
      "op": "null", 
      "name": "pydnet_0_75/stg1/blk0/btl_out/batchnorm1_running_mean", 
      "attrs": {
        "__dtype__": "0", 
        "__init__": "zeros", 
        "__lr_mult__": "1.0", 
        "__shape__": "(0,)", 
        "__storage_type__": "0", 
        "__wd_mult__": "1.0"
      }, 
      "inputs": []
    }, 
    {
      "op": "null", 
      "name": "pydnet_0_75/stg1/blk0/btl_out/batchnorm1_running_var", 
      "attrs": {
        "__dtype__": "0", 
        "__init__": "ones", 
        "__lr_mult__": "1.0", 
        "__shape__": "(0,)", 
        "__storage_type__": "0", 
        "__wd_mult__": "1.0"
      }, 
      "inputs": []
    }, 
    {
      "op": "BatchNorm", 
      "name": "pydnet_0_75/stg1/blk0/btl_out/batchnorm1_fwd", 
      "attrs": {
        "axis": "1", 
        "eps": "1e-05", 
        "fix_gamma": "False", 
        "momentum": "0.9", 
        "use_global_stats": "False"
      }, 
      "inputs": [[246, 0, 0], [247, 0, 0], [248, 0, 0], [249, 0, 1], [250, 0, 1]]
    }, 
    {
      "op": "null", 
      "name": "pydnet_0_75/stg1/blk0/conv0_weight", 
      "attrs": {
        "__dtype__": "0", 
        "__lr_mult__": "1.0", 
        "__shape__": "(128, 0, 1, 1)", 
        "__storage_type__": "0", 
        "__wd_mult__": "1.0"
      }, 
      "inputs": []
    }, 
    {
      "op": "Convolution", 
      "name": "pydnet_0_75/stg1/blk0/conv0_fwd", 
      "attrs": {
        "dilate": "(1, 1)", 
        "kernel": "(1, 1)", 
        "layout": "NCHW", 
        "no_bias": "True", 
        "num_filter": "128", 
        "num_group": "1", 
        "pad": "(0, 0)", 
        "stride": "(2, 2)"
      }, 
      "inputs": [[217, 0, 0], [252, 0, 0]]
    }, 
    {
      "op": "null", 
      "name": "pydnet_0_75/stg1/blk0/batchnorm0_gamma", 
      "attrs": {
        "__dtype__": "0", 
        "__init__": "ones", 
        "__lr_mult__": "1.0", 
        "__shape__": "(0,)", 
        "__storage_type__": "0", 
        "__wd_mult__": "1.0"
      }, 
      "inputs": []
    }, 
    {
      "op": "null", 
      "name": "pydnet_0_75/stg1/blk0/batchnorm0_beta", 
      "attrs": {
        "__dtype__": "0", 
        "__init__": "zeros", 
        "__lr_mult__": "1.0", 
        "__shape__": "(0,)", 
        "__storage_type__": "0", 
        "__wd_mult__": "1.0"
      }, 
      "inputs": []
    }, 
    {
      "op": "null", 
      "name": "pydnet_0_75/stg1/blk0/batchnorm0_running_mean", 
      "attrs": {
        "__dtype__": "0", 
        "__init__": "zeros", 
        "__lr_mult__": "1.0", 
        "__shape__": "(0,)", 
        "__storage_type__": "0", 
        "__wd_mult__": "1.0"
      }, 
      "inputs": []
    }, 
    {
      "op": "null", 
      "name": "pydnet_0_75/stg1/blk0/batchnorm0_running_var", 
      "attrs": {
        "__dtype__": "0", 
        "__init__": "ones", 
        "__lr_mult__": "1.0", 
        "__shape__": "(0,)", 
        "__storage_type__": "0", 
        "__wd_mult__": "1.0"
      }, 
      "inputs": []
    }, 
    {
      "op": "BatchNorm", 
      "name": "pydnet_0_75/stg1/blk0/batchnorm0_fwd", 
      "attrs": {
        "axis": "1", 
        "eps": "1e-05", 
        "fix_gamma": "False", 
        "momentum": "0.9", 
        "use_global_stats": "False"
      }, 
      "inputs": [[253, 0, 0], [254, 0, 0], [255, 0, 0], [256, 0, 1], [257, 0, 1]]
    }, 
    {
      "op": "elemwise_add", 
      "name": "pydnet_0_75/stg1/blk0/_plus0", 
      "inputs": [[251, 0, 0], [258, 0, 0]]
    }, 
    {
      "op": "null", 
      "name": "pydnet_0_75/stg1/blk1/btl_in/batchnorm0_gamma", 
      "attrs": {
        "__dtype__": "0", 
        "__init__": "ones", 
        "__lr_mult__": "1.0", 
        "__shape__": "(0,)", 
        "__storage_type__": "0", 
        "__wd_mult__": "1.0"
      }, 
      "inputs": []
    }, 
    {
      "op": "null", 
      "name": "pydnet_0_75/stg1/blk1/btl_in/batchnorm0_beta", 
      "attrs": {
        "__dtype__": "0", 
        "__init__": "zeros", 
        "__lr_mult__": "1.0", 
        "__shape__": "(0,)", 
        "__storage_type__": "0", 
        "__wd_mult__": "1.0"
      }, 
      "inputs": []
    }, 
    {
      "op": "null", 
      "name": "pydnet_0_75/stg1/blk1/btl_in/batchnorm0_running_mean", 
      "attrs": {
        "__dtype__": "0", 
        "__init__": "zeros", 
        "__lr_mult__": "1.0", 
        "__shape__": "(0,)", 
        "__storage_type__": "0", 
        "__wd_mult__": "1.0"
      }, 
      "inputs": []
    }, 
    {
      "op": "null", 
      "name": "pydnet_0_75/stg1/blk1/btl_in/batchnorm0_running_var", 
      "attrs": {
        "__dtype__": "0", 
        "__init__": "ones", 
        "__lr_mult__": "1.0", 
        "__shape__": "(0,)", 
        "__storage_type__": "0", 
        "__wd_mult__": "1.0"
      }, 
      "inputs": []
    }, 
    {
      "op": "BatchNorm", 
      "name": "pydnet_0_75/stg1/blk1/btl_in/batchnorm0_fwd", 
      "attrs": {
        "axis": "1", 
        "eps": "1e-05", 
        "fix_gamma": "False", 
        "momentum": "0.9", 
        "use_global_stats": "False"
      }, 
      "inputs": [[259, 0, 0], [260, 0, 0], [261, 0, 0], [262, 0, 1], [263, 0, 1]]
    }, 
    {
      "op": "Activation", 
      "name": "pydnet_0_75/stg1/blk1/btl_in/relu0_fwd", 
      "attrs": {"act_type": "relu"}, 
      "inputs": [[264, 0, 0]]
    }, 
    {
      "op": "null", 
      "name": "pydnet_0_75/stg1/blk1/btl_in/conv0_weight", 
      "attrs": {
        "__dtype__": "0", 
        "__lr_mult__": "1.0", 
        "__shape__": "(96, 0, 1, 1)", 
        "__storage_type__": "0", 
        "__wd_mult__": "1.0"
      }, 
      "inputs": []
    }, 
    {
      "op": "Convolution", 
      "name": "pydnet_0_75/stg1/blk1/btl_in/conv0_fwd", 
      "attrs": {
        "dilate": "(1, 1)", 
        "kernel": "(1, 1)", 
        "layout": "NCHW", 
        "no_bias": "True", 
        "num_filter": "96", 
        "num_group": "1", 
        "pad": "(0, 0)", 
        "stride": "(1, 1)"
      }, 
      "inputs": [[265, 0, 0], [266, 0, 0]]
    }, 
    {
      "op": "null", 
      "name": "pydnet_0_75/stg1/blk1/btl_in/batchnorm1_gamma", 
      "attrs": {
        "__dtype__": "0", 
        "__init__": "ones", 
        "__lr_mult__": "1.0", 
        "__shape__": "(0,)", 
        "__storage_type__": "0", 
        "__wd_mult__": "1.0"
      }, 
      "inputs": []
    }, 
    {
      "op": "null", 
      "name": "pydnet_0_75/stg1/blk1/btl_in/batchnorm1_beta", 
      "attrs": {
        "__dtype__": "0", 
        "__init__": "zeros", 
        "__lr_mult__": "1.0", 
        "__shape__": "(0,)", 
        "__storage_type__": "0", 
        "__wd_mult__": "1.0"
      }, 
      "inputs": []
    }, 
    {
      "op": "null", 
      "name": "pydnet_0_75/stg1/blk1/btl_in/batchnorm1_running_mean", 
      "attrs": {
        "__dtype__": "0", 
        "__init__": "zeros", 
        "__lr_mult__": "1.0", 
        "__shape__": "(0,)", 
        "__storage_type__": "0", 
        "__wd_mult__": "1.0"
      }, 
      "inputs": []
    }, 
    {
      "op": "null", 
      "name": "pydnet_0_75/stg1/blk1/btl_in/batchnorm1_running_var", 
      "attrs": {
        "__dtype__": "0", 
        "__init__": "ones", 
        "__lr_mult__": "1.0", 
        "__shape__": "(0,)", 
        "__storage_type__": "0", 
        "__wd_mult__": "1.0"
      }, 
      "inputs": []
    }, 
    {
      "op": "BatchNorm", 
      "name": "pydnet_0_75/stg1/blk1/btl_in/batchnorm1_fwd", 
      "attrs": {
        "axis": "1", 
        "eps": "1e-05", 
        "fix_gamma": "False", 
        "momentum": "0.9", 
        "use_global_stats": "False"
      }, 
      "inputs": [[267, 0, 0], [268, 0, 0], [269, 0, 0], [270, 0, 1], [271, 0, 1]]
    }, 
    {
      "op": "Activation", 
      "name": "pydnet_0_75/stg1/blk1/btl_in/relu1_fwd", 
      "attrs": {"act_type": "relu"}, 
      "inputs": [[272, 0, 0]]
    }, 
    {
      "op": "null", 
      "name": "pydnet_0_75/stg1/blk1/conv3/conv0_weight", 
      "attrs": {
        "__dtype__": "0", 
        "__lr_mult__": "1.0", 
        "__shape__": "(96, 0, 3, 3)", 
        "__storage_type__": "0", 
        "__wd_mult__": "1.0"
      }, 
      "inputs": []
    }, 
    {
      "op": "Convolution", 
      "name": "pydnet_0_75/stg1/blk1/conv3/conv0_fwd", 
      "attrs": {
        "dilate": "(1, 1)", 
        "kernel": "(3, 3)", 
        "layout": "NCHW", 
        "no_bias": "True", 
        "num_filter": "96", 
        "num_group": "96", 
        "pad": "(1, 1)", 
        "stride": "(1, 1)"
      }, 
      "inputs": [[273, 0, 0], [274, 0, 0]]
    }, 
    {
      "op": "null", 
      "name": "pydnet_0_75/stg1/blk1/conv5/conv0_weight", 
      "attrs": {
        "__dtype__": "0", 
        "__lr_mult__": "1.0", 
        "__shape__": "(96, 0, 5, 5)", 
        "__storage_type__": "0", 
        "__wd_mult__": "1.0"
      }, 
      "inputs": []
    }, 
    {
      "op": "Convolution", 
      "name": "pydnet_0_75/stg1/blk1/conv5/conv0_fwd", 
      "attrs": {
        "dilate": "(1, 1)", 
        "kernel": "(5, 5)", 
        "layout": "NCHW", 
        "no_bias": "True", 
        "num_filter": "96", 
        "num_group": "96", 
        "pad": "(2, 2)", 
        "stride": "(1, 1)"
      }, 
      "inputs": [[273, 0, 0], [276, 0, 0]]
    }, 
    {
      "op": "null", 
      "name": "pydnet_0_75/stg1/blk1/conv7/conv0_weight", 
      "attrs": {
        "__dtype__": "0", 
        "__lr_mult__": "1.0", 
        "__shape__": "(96, 0, 7, 7)", 
        "__storage_type__": "0", 
        "__wd_mult__": "1.0"
      }, 
      "inputs": []
    }, 
    {
      "op": "Convolution", 
      "name": "pydnet_0_75/stg1/blk1/conv7/conv0_fwd", 
      "attrs": {
        "dilate": "(1, 1)", 
        "kernel": "(7, 7)", 
        "layout": "NCHW", 
        "no_bias": "True", 
        "num_filter": "96", 
        "num_group": "96", 
        "pad": "(3, 3)", 
        "stride": "(1, 1)"
      }, 
      "inputs": [[273, 0, 0], [278, 0, 0]]
    }, 
    {
      "op": "Concat", 
      "name": "pydnet_0_75/stg1/blk1/concat0", 
      "attrs": {
        "dim": "1", 
        "num_args": "3"
      }, 
      "inputs": [[275, 0, 0], [277, 0, 0], [279, 0, 0]]
    }, 
    {
      "op": "null", 
      "name": "pydnet_0_75/stg1/blk1/btl_out/batchnorm0_gamma", 
      "attrs": {
        "__dtype__": "0", 
        "__init__": "ones", 
        "__lr_mult__": "1.0", 
        "__shape__": "(0,)", 
        "__storage_type__": "0", 
        "__wd_mult__": "1.0"
      }, 
      "inputs": []
    }, 
    {
      "op": "null", 
      "name": "pydnet_0_75/stg1/blk1/btl_out/batchnorm0_beta", 
      "attrs": {
        "__dtype__": "0", 
        "__init__": "zeros", 
        "__lr_mult__": "1.0", 
        "__shape__": "(0,)", 
        "__storage_type__": "0", 
        "__wd_mult__": "1.0"
      }, 
      "inputs": []
    }, 
    {
      "op": "null", 
      "name": "pydnet_0_75/stg1/blk1/btl_out/batchnorm0_running_mean", 
      "attrs": {
        "__dtype__": "0", 
        "__init__": "zeros", 
        "__lr_mult__": "1.0", 
        "__shape__": "(0,)", 
        "__storage_type__": "0", 
        "__wd_mult__": "1.0"
      }, 
      "inputs": []
    }, 
    {
      "op": "null", 
      "name": "pydnet_0_75/stg1/blk1/btl_out/batchnorm0_running_var", 
      "attrs": {
        "__dtype__": "0", 
        "__init__": "ones", 
        "__lr_mult__": "1.0", 
        "__shape__": "(0,)", 
        "__storage_type__": "0", 
        "__wd_mult__": "1.0"
      }, 
      "inputs": []
    }, 
    {
      "op": "BatchNorm", 
      "name": "pydnet_0_75/stg1/blk1/btl_out/batchnorm0_fwd", 
      "attrs": {
        "axis": "1", 
        "eps": "1e-05", 
        "fix_gamma": "False", 
        "momentum": "0.9", 
        "use_global_stats": "False"
      }, 
      "inputs": [[280, 0, 0], [281, 0, 0], [282, 0, 0], [283, 0, 1], [284, 0, 1]]
    }, 
    {
      "op": "Activation", 
      "name": "pydnet_0_75/stg1/blk1/btl_out/relu0_fwd", 
      "attrs": {"act_type": "relu"}, 
      "inputs": [[285, 0, 0]]
    }, 
    {
      "op": "null", 
      "name": "pydnet_0_75/stg1/blk1/btl_out/conv0_weight", 
      "attrs": {
        "__dtype__": "0", 
        "__lr_mult__": "1.0", 
        "__shape__": "(128, 0, 1, 1)", 
        "__storage_type__": "0", 
        "__wd_mult__": "1.0"
      }, 
      "inputs": []
    }, 
    {
      "op": "Convolution", 
      "name": "pydnet_0_75/stg1/blk1/btl_out/conv0_fwd", 
      "attrs": {
        "dilate": "(1, 1)", 
        "kernel": "(1, 1)", 
        "layout": "NCHW", 
        "no_bias": "True", 
        "num_filter": "128", 
        "num_group": "1", 
        "pad": "(0, 0)", 
        "stride": "(1, 1)"
      }, 
      "inputs": [[286, 0, 0], [287, 0, 0]]
    }, 
    {
      "op": "null", 
      "name": "pydnet_0_75/stg1/blk1/btl_out/batchnorm1_gamma", 
      "attrs": {
        "__dtype__": "0", 
        "__init__": "ones", 
        "__lr_mult__": "1.0", 
        "__shape__": "(0,)", 
        "__storage_type__": "0", 
        "__wd_mult__": "1.0"
      }, 
      "inputs": []
    }, 
    {
      "op": "null", 
      "name": "pydnet_0_75/stg1/blk1/btl_out/batchnorm1_beta", 
      "attrs": {
        "__dtype__": "0", 
        "__init__": "zeros", 
        "__lr_mult__": "1.0", 
        "__shape__": "(0,)", 
        "__storage_type__": "0", 
        "__wd_mult__": "1.0"
      }, 
      "inputs": []
    }, 
    {
      "op": "null", 
      "name": "pydnet_0_75/stg1/blk1/btl_out/batchnorm1_running_mean", 
      "attrs": {
        "__dtype__": "0", 
        "__init__": "zeros", 
        "__lr_mult__": "1.0", 
        "__shape__": "(0,)", 
        "__storage_type__": "0", 
        "__wd_mult__": "1.0"
      }, 
      "inputs": []
    }, 
    {
      "op": "null", 
      "name": "pydnet_0_75/stg1/blk1/btl_out/batchnorm1_running_var", 
      "attrs": {
        "__dtype__": "0", 
        "__init__": "ones", 
        "__lr_mult__": "1.0", 
        "__shape__": "(0,)", 
        "__storage_type__": "0", 
        "__wd_mult__": "1.0"
      }, 
      "inputs": []
    }, 
    {
      "op": "BatchNorm", 
      "name": "pydnet_0_75/stg1/blk1/btl_out/batchnorm1_fwd", 
      "attrs": {
        "axis": "1", 
        "eps": "1e-05", 
        "fix_gamma": "False", 
        "momentum": "0.9", 
        "use_global_stats": "False"
      }, 
      "inputs": [[288, 0, 0], [289, 0, 0], [290, 0, 0], [291, 0, 1], [292, 0, 1]]
    }, 
    {
      "op": "elemwise_add", 
      "name": "pydnet_0_75/stg1/blk1/_plus0", 
      "inputs": [[293, 0, 0], [259, 0, 0]]
    }, 
    {
      "op": "null", 
      "name": "pydnet_0_75/stg1/blk2/btl_in/batchnorm0_gamma", 
      "attrs": {
        "__dtype__": "0", 
        "__init__": "ones", 
        "__lr_mult__": "1.0", 
        "__shape__": "(0,)", 
        "__storage_type__": "0", 
        "__wd_mult__": "1.0"
      }, 
      "inputs": []
    }, 
    {
      "op": "null", 
      "name": "pydnet_0_75/stg1/blk2/btl_in/batchnorm0_beta", 
      "attrs": {
        "__dtype__": "0", 
        "__init__": "zeros", 
        "__lr_mult__": "1.0", 
        "__shape__": "(0,)", 
        "__storage_type__": "0", 
        "__wd_mult__": "1.0"
      }, 
      "inputs": []
    }, 
    {
      "op": "null", 
      "name": "pydnet_0_75/stg1/blk2/btl_in/batchnorm0_running_mean", 
      "attrs": {
        "__dtype__": "0", 
        "__init__": "zeros", 
        "__lr_mult__": "1.0", 
        "__shape__": "(0,)", 
        "__storage_type__": "0", 
        "__wd_mult__": "1.0"
      }, 
      "inputs": []
    }, 
    {
      "op": "null", 
      "name": "pydnet_0_75/stg1/blk2/btl_in/batchnorm0_running_var", 
      "attrs": {
        "__dtype__": "0", 
        "__init__": "ones", 
        "__lr_mult__": "1.0", 
        "__shape__": "(0,)", 
        "__storage_type__": "0", 
        "__wd_mult__": "1.0"
      }, 
      "inputs": []
    }, 
    {
      "op": "BatchNorm", 
      "name": "pydnet_0_75/stg1/blk2/btl_in/batchnorm0_fwd", 
      "attrs": {
        "axis": "1", 
        "eps": "1e-05", 
        "fix_gamma": "False", 
        "momentum": "0.9", 
        "use_global_stats": "False"
      }, 
      "inputs": [[294, 0, 0], [295, 0, 0], [296, 0, 0], [297, 0, 1], [298, 0, 1]]
    }, 
    {
      "op": "Activation", 
      "name": "pydnet_0_75/stg1/blk2/btl_in/relu0_fwd", 
      "attrs": {"act_type": "relu"}, 
      "inputs": [[299, 0, 0]]
    }, 
    {
      "op": "null", 
      "name": "pydnet_0_75/stg1/blk2/btl_in/conv0_weight", 
      "attrs": {
        "__dtype__": "0", 
        "__lr_mult__": "1.0", 
        "__shape__": "(96, 0, 1, 1)", 
        "__storage_type__": "0", 
        "__wd_mult__": "1.0"
      }, 
      "inputs": []
    }, 
    {
      "op": "Convolution", 
      "name": "pydnet_0_75/stg1/blk2/btl_in/conv0_fwd", 
      "attrs": {
        "dilate": "(1, 1)", 
        "kernel": "(1, 1)", 
        "layout": "NCHW", 
        "no_bias": "True", 
        "num_filter": "96", 
        "num_group": "1", 
        "pad": "(0, 0)", 
        "stride": "(1, 1)"
      }, 
      "inputs": [[300, 0, 0], [301, 0, 0]]
    }, 
    {
      "op": "null", 
      "name": "pydnet_0_75/stg1/blk2/btl_in/batchnorm1_gamma", 
      "attrs": {
        "__dtype__": "0", 
        "__init__": "ones", 
        "__lr_mult__": "1.0", 
        "__shape__": "(0,)", 
        "__storage_type__": "0", 
        "__wd_mult__": "1.0"
      }, 
      "inputs": []
    }, 
    {
      "op": "null", 
      "name": "pydnet_0_75/stg1/blk2/btl_in/batchnorm1_beta", 
      "attrs": {
        "__dtype__": "0", 
        "__init__": "zeros", 
        "__lr_mult__": "1.0", 
        "__shape__": "(0,)", 
        "__storage_type__": "0", 
        "__wd_mult__": "1.0"
      }, 
      "inputs": []
    }, 
    {
      "op": "null", 
      "name": "pydnet_0_75/stg1/blk2/btl_in/batchnorm1_running_mean", 
      "attrs": {
        "__dtype__": "0", 
        "__init__": "zeros", 
        "__lr_mult__": "1.0", 
        "__shape__": "(0,)", 
        "__storage_type__": "0", 
        "__wd_mult__": "1.0"
      }, 
      "inputs": []
    }, 
    {
      "op": "null", 
      "name": "pydnet_0_75/stg1/blk2/btl_in/batchnorm1_running_var", 
      "attrs": {
        "__dtype__": "0", 
        "__init__": "ones", 
        "__lr_mult__": "1.0", 
        "__shape__": "(0,)", 
        "__storage_type__": "0", 
        "__wd_mult__": "1.0"
      }, 
      "inputs": []
    }, 
    {
      "op": "BatchNorm", 
      "name": "pydnet_0_75/stg1/blk2/btl_in/batchnorm1_fwd", 
      "attrs": {
        "axis": "1", 
        "eps": "1e-05", 
        "fix_gamma": "False", 
        "momentum": "0.9", 
        "use_global_stats": "False"
      }, 
      "inputs": [[302, 0, 0], [303, 0, 0], [304, 0, 0], [305, 0, 1], [306, 0, 1]]
    }, 
    {
      "op": "Activation", 
      "name": "pydnet_0_75/stg1/blk2/btl_in/relu1_fwd", 
      "attrs": {"act_type": "relu"}, 
      "inputs": [[307, 0, 0]]
    }, 
    {
      "op": "null", 
      "name": "pydnet_0_75/stg1/blk2/conv3/conv0_weight", 
      "attrs": {
        "__dtype__": "0", 
        "__lr_mult__": "1.0", 
        "__shape__": "(96, 0, 3, 3)", 
        "__storage_type__": "0", 
        "__wd_mult__": "1.0"
      }, 
      "inputs": []
    }, 
    {
      "op": "Convolution", 
      "name": "pydnet_0_75/stg1/blk2/conv3/conv0_fwd", 
      "attrs": {
        "dilate": "(1, 1)", 
        "kernel": "(3, 3)", 
        "layout": "NCHW", 
        "no_bias": "True", 
        "num_filter": "96", 
        "num_group": "96", 
        "pad": "(1, 1)", 
        "stride": "(1, 1)"
      }, 
      "inputs": [[308, 0, 0], [309, 0, 0]]
    }, 
    {
      "op": "null", 
      "name": "pydnet_0_75/stg1/blk2/conv5/conv0_weight", 
      "attrs": {
        "__dtype__": "0", 
        "__lr_mult__": "1.0", 
        "__shape__": "(96, 0, 5, 5)", 
        "__storage_type__": "0", 
        "__wd_mult__": "1.0"
      }, 
      "inputs": []
    }, 
    {
      "op": "Convolution", 
      "name": "pydnet_0_75/stg1/blk2/conv5/conv0_fwd", 
      "attrs": {
        "dilate": "(1, 1)", 
        "kernel": "(5, 5)", 
        "layout": "NCHW", 
        "no_bias": "True", 
        "num_filter": "96", 
        "num_group": "96", 
        "pad": "(2, 2)", 
        "stride": "(1, 1)"
      }, 
      "inputs": [[308, 0, 0], [311, 0, 0]]
    }, 
    {
      "op": "null", 
      "name": "pydnet_0_75/stg1/blk2/conv7/conv0_weight", 
      "attrs": {
        "__dtype__": "0", 
        "__lr_mult__": "1.0", 
        "__shape__": "(96, 0, 7, 7)", 
        "__storage_type__": "0", 
        "__wd_mult__": "1.0"
      }, 
      "inputs": []
    }, 
    {
      "op": "Convolution", 
      "name": "pydnet_0_75/stg1/blk2/conv7/conv0_fwd", 
      "attrs": {
        "dilate": "(1, 1)", 
        "kernel": "(7, 7)", 
        "layout": "NCHW", 
        "no_bias": "True", 
        "num_filter": "96", 
        "num_group": "96", 
        "pad": "(3, 3)", 
        "stride": "(1, 1)"
      }, 
      "inputs": [[308, 0, 0], [313, 0, 0]]
    }, 
    {
      "op": "Concat", 
      "name": "pydnet_0_75/stg1/blk2/concat0", 
      "attrs": {
        "dim": "1", 
        "num_args": "3"
      }, 
      "inputs": [[310, 0, 0], [312, 0, 0], [314, 0, 0]]
    }, 
    {
      "op": "null", 
      "name": "pydnet_0_75/stg1/blk2/btl_out/batchnorm0_gamma", 
      "attrs": {
        "__dtype__": "0", 
        "__init__": "ones", 
        "__lr_mult__": "1.0", 
        "__shape__": "(0,)", 
        "__storage_type__": "0", 
        "__wd_mult__": "1.0"
      }, 
      "inputs": []
    }, 
    {
      "op": "null", 
      "name": "pydnet_0_75/stg1/blk2/btl_out/batchnorm0_beta", 
      "attrs": {
        "__dtype__": "0", 
        "__init__": "zeros", 
        "__lr_mult__": "1.0", 
        "__shape__": "(0,)", 
        "__storage_type__": "0", 
        "__wd_mult__": "1.0"
      }, 
      "inputs": []
    }, 
    {
      "op": "null", 
      "name": "pydnet_0_75/stg1/blk2/btl_out/batchnorm0_running_mean", 
      "attrs": {
        "__dtype__": "0", 
        "__init__": "zeros", 
        "__lr_mult__": "1.0", 
        "__shape__": "(0,)", 
        "__storage_type__": "0", 
        "__wd_mult__": "1.0"
      }, 
      "inputs": []
    }, 
    {
      "op": "null", 
      "name": "pydnet_0_75/stg1/blk2/btl_out/batchnorm0_running_var", 
      "attrs": {
        "__dtype__": "0", 
        "__init__": "ones", 
        "__lr_mult__": "1.0", 
        "__shape__": "(0,)", 
        "__storage_type__": "0", 
        "__wd_mult__": "1.0"
      }, 
      "inputs": []
    }, 
    {
      "op": "BatchNorm", 
      "name": "pydnet_0_75/stg1/blk2/btl_out/batchnorm0_fwd", 
      "attrs": {
        "axis": "1", 
        "eps": "1e-05", 
        "fix_gamma": "False", 
        "momentum": "0.9", 
        "use_global_stats": "False"
      }, 
      "inputs": [[315, 0, 0], [316, 0, 0], [317, 0, 0], [318, 0, 1], [319, 0, 1]]
    }, 
    {
      "op": "Activation", 
      "name": "pydnet_0_75/stg1/blk2/btl_out/relu0_fwd", 
      "attrs": {"act_type": "relu"}, 
      "inputs": [[320, 0, 0]]
    }, 
    {
      "op": "null", 
      "name": "pydnet_0_75/stg1/blk2/btl_out/conv0_weight", 
      "attrs": {
        "__dtype__": "0", 
        "__lr_mult__": "1.0", 
        "__shape__": "(128, 0, 1, 1)", 
        "__storage_type__": "0", 
        "__wd_mult__": "1.0"
      }, 
      "inputs": []
    }, 
    {
      "op": "Convolution", 
      "name": "pydnet_0_75/stg1/blk2/btl_out/conv0_fwd", 
      "attrs": {
        "dilate": "(1, 1)", 
        "kernel": "(1, 1)", 
        "layout": "NCHW", 
        "no_bias": "True", 
        "num_filter": "128", 
        "num_group": "1", 
        "pad": "(0, 0)", 
        "stride": "(1, 1)"
      }, 
      "inputs": [[321, 0, 0], [322, 0, 0]]
    }, 
    {
      "op": "null", 
      "name": "pydnet_0_75/stg1/blk2/btl_out/batchnorm1_gamma", 
      "attrs": {
        "__dtype__": "0", 
        "__init__": "ones", 
        "__lr_mult__": "1.0", 
        "__shape__": "(0,)", 
        "__storage_type__": "0", 
        "__wd_mult__": "1.0"
      }, 
      "inputs": []
    }, 
    {
      "op": "null", 
      "name": "pydnet_0_75/stg1/blk2/btl_out/batchnorm1_beta", 
      "attrs": {
        "__dtype__": "0", 
        "__init__": "zeros", 
        "__lr_mult__": "1.0", 
        "__shape__": "(0,)", 
        "__storage_type__": "0", 
        "__wd_mult__": "1.0"
      }, 
      "inputs": []
    }, 
    {
      "op": "null", 
      "name": "pydnet_0_75/stg1/blk2/btl_out/batchnorm1_running_mean", 
      "attrs": {
        "__dtype__": "0", 
        "__init__": "zeros", 
        "__lr_mult__": "1.0", 
        "__shape__": "(0,)", 
        "__storage_type__": "0", 
        "__wd_mult__": "1.0"
      }, 
      "inputs": []
    }, 
    {
      "op": "null", 
      "name": "pydnet_0_75/stg1/blk2/btl_out/batchnorm1_running_var", 
      "attrs": {
        "__dtype__": "0", 
        "__init__": "ones", 
        "__lr_mult__": "1.0", 
        "__shape__": "(0,)", 
        "__storage_type__": "0", 
        "__wd_mult__": "1.0"
      }, 
      "inputs": []
    }, 
    {
      "op": "BatchNorm", 
      "name": "pydnet_0_75/stg1/blk2/btl_out/batchnorm1_fwd", 
      "attrs": {
        "axis": "1", 
        "eps": "1e-05", 
        "fix_gamma": "False", 
        "momentum": "0.9", 
        "use_global_stats": "False"
      }, 
      "inputs": [[323, 0, 0], [324, 0, 0], [325, 0, 0], [326, 0, 1], [327, 0, 1]]
    }, 
    {
      "op": "elemwise_add", 
      "name": "pydnet_0_75/stg1/blk2/_plus0", 
      "inputs": [[328, 0, 0], [294, 0, 0]]
    }, 
    {
      "op": "null", 
      "name": "pydnet_0_75/stg1/blk3/btl_in/batchnorm0_gamma", 
      "attrs": {
        "__dtype__": "0", 
        "__init__": "ones", 
        "__lr_mult__": "1.0", 
        "__shape__": "(0,)", 
        "__storage_type__": "0", 
        "__wd_mult__": "1.0"
      }, 
      "inputs": []
    }, 
    {
      "op": "null", 
      "name": "pydnet_0_75/stg1/blk3/btl_in/batchnorm0_beta", 
      "attrs": {
        "__dtype__": "0", 
        "__init__": "zeros", 
        "__lr_mult__": "1.0", 
        "__shape__": "(0,)", 
        "__storage_type__": "0", 
        "__wd_mult__": "1.0"
      }, 
      "inputs": []
    }, 
    {
      "op": "null", 
      "name": "pydnet_0_75/stg1/blk3/btl_in/batchnorm0_running_mean", 
      "attrs": {
        "__dtype__": "0", 
        "__init__": "zeros", 
        "__lr_mult__": "1.0", 
        "__shape__": "(0,)", 
        "__storage_type__": "0", 
        "__wd_mult__": "1.0"
      }, 
      "inputs": []
    }, 
    {
      "op": "null", 
      "name": "pydnet_0_75/stg1/blk3/btl_in/batchnorm0_running_var", 
      "attrs": {
        "__dtype__": "0", 
        "__init__": "ones", 
        "__lr_mult__": "1.0", 
        "__shape__": "(0,)", 
        "__storage_type__": "0", 
        "__wd_mult__": "1.0"
      }, 
      "inputs": []
    }, 
    {
      "op": "BatchNorm", 
      "name": "pydnet_0_75/stg1/blk3/btl_in/batchnorm0_fwd", 
      "attrs": {
        "axis": "1", 
        "eps": "1e-05", 
        "fix_gamma": "False", 
        "momentum": "0.9", 
        "use_global_stats": "False"
      }, 
      "inputs": [[329, 0, 0], [330, 0, 0], [331, 0, 0], [332, 0, 1], [333, 0, 1]]
    }, 
    {
      "op": "Activation", 
      "name": "pydnet_0_75/stg1/blk3/btl_in/relu0_fwd", 
      "attrs": {"act_type": "relu"}, 
      "inputs": [[334, 0, 0]]
    }, 
    {
      "op": "null", 
      "name": "pydnet_0_75/stg1/blk3/btl_in/conv0_weight", 
      "attrs": {
        "__dtype__": "0", 
        "__lr_mult__": "1.0", 
        "__shape__": "(96, 0, 1, 1)", 
        "__storage_type__": "0", 
        "__wd_mult__": "1.0"
      }, 
      "inputs": []
    }, 
    {
      "op": "Convolution", 
      "name": "pydnet_0_75/stg1/blk3/btl_in/conv0_fwd", 
      "attrs": {
        "dilate": "(1, 1)", 
        "kernel": "(1, 1)", 
        "layout": "NCHW", 
        "no_bias": "True", 
        "num_filter": "96", 
        "num_group": "1", 
        "pad": "(0, 0)", 
        "stride": "(1, 1)"
      }, 
      "inputs": [[335, 0, 0], [336, 0, 0]]
    }, 
    {
      "op": "null", 
      "name": "pydnet_0_75/stg1/blk3/btl_in/batchnorm1_gamma", 
      "attrs": {
        "__dtype__": "0", 
        "__init__": "ones", 
        "__lr_mult__": "1.0", 
        "__shape__": "(0,)", 
        "__storage_type__": "0", 
        "__wd_mult__": "1.0"
      }, 
      "inputs": []
    }, 
    {
      "op": "null", 
      "name": "pydnet_0_75/stg1/blk3/btl_in/batchnorm1_beta", 
      "attrs": {
        "__dtype__": "0", 
        "__init__": "zeros", 
        "__lr_mult__": "1.0", 
        "__shape__": "(0,)", 
        "__storage_type__": "0", 
        "__wd_mult__": "1.0"
      }, 
      "inputs": []
    }, 
    {
      "op": "null", 
      "name": "pydnet_0_75/stg1/blk3/btl_in/batchnorm1_running_mean", 
      "attrs": {
        "__dtype__": "0", 
        "__init__": "zeros", 
        "__lr_mult__": "1.0", 
        "__shape__": "(0,)", 
        "__storage_type__": "0", 
        "__wd_mult__": "1.0"
      }, 
      "inputs": []
    }, 
    {
      "op": "null", 
      "name": "pydnet_0_75/stg1/blk3/btl_in/batchnorm1_running_var", 
      "attrs": {
        "__dtype__": "0", 
        "__init__": "ones", 
        "__lr_mult__": "1.0", 
        "__shape__": "(0,)", 
        "__storage_type__": "0", 
        "__wd_mult__": "1.0"
      }, 
      "inputs": []
    }, 
    {
      "op": "BatchNorm", 
      "name": "pydnet_0_75/stg1/blk3/btl_in/batchnorm1_fwd", 
      "attrs": {
        "axis": "1", 
        "eps": "1e-05", 
        "fix_gamma": "False", 
        "momentum": "0.9", 
        "use_global_stats": "False"
      }, 
      "inputs": [[337, 0, 0], [338, 0, 0], [339, 0, 0], [340, 0, 1], [341, 0, 1]]
    }, 
    {
      "op": "Activation", 
      "name": "pydnet_0_75/stg1/blk3/btl_in/relu1_fwd", 
      "attrs": {"act_type": "relu"}, 
      "inputs": [[342, 0, 0]]
    }, 
    {
      "op": "null", 
      "name": "pydnet_0_75/stg1/blk3/conv3/conv0_weight", 
      "attrs": {
        "__dtype__": "0", 
        "__lr_mult__": "1.0", 
        "__shape__": "(96, 0, 3, 3)", 
        "__storage_type__": "0", 
        "__wd_mult__": "1.0"
      }, 
      "inputs": []
    }, 
    {
      "op": "Convolution", 
      "name": "pydnet_0_75/stg1/blk3/conv3/conv0_fwd", 
      "attrs": {
        "dilate": "(1, 1)", 
        "kernel": "(3, 3)", 
        "layout": "NCHW", 
        "no_bias": "True", 
        "num_filter": "96", 
        "num_group": "96", 
        "pad": "(1, 1)", 
        "stride": "(1, 1)"
      }, 
      "inputs": [[343, 0, 0], [344, 0, 0]]
    }, 
    {
      "op": "null", 
      "name": "pydnet_0_75/stg1/blk3/conv5/conv0_weight", 
      "attrs": {
        "__dtype__": "0", 
        "__lr_mult__": "1.0", 
        "__shape__": "(96, 0, 5, 5)", 
        "__storage_type__": "0", 
        "__wd_mult__": "1.0"
      }, 
      "inputs": []
    }, 
    {
      "op": "Convolution", 
      "name": "pydnet_0_75/stg1/blk3/conv5/conv0_fwd", 
      "attrs": {
        "dilate": "(1, 1)", 
        "kernel": "(5, 5)", 
        "layout": "NCHW", 
        "no_bias": "True", 
        "num_filter": "96", 
        "num_group": "96", 
        "pad": "(2, 2)", 
        "stride": "(1, 1)"
      }, 
      "inputs": [[343, 0, 0], [346, 0, 0]]
    }, 
    {
      "op": "null", 
      "name": "pydnet_0_75/stg1/blk3/conv7/conv0_weight", 
      "attrs": {
        "__dtype__": "0", 
        "__lr_mult__": "1.0", 
        "__shape__": "(96, 0, 7, 7)", 
        "__storage_type__": "0", 
        "__wd_mult__": "1.0"
      }, 
      "inputs": []
    }, 
    {
      "op": "Convolution", 
      "name": "pydnet_0_75/stg1/blk3/conv7/conv0_fwd", 
      "attrs": {
        "dilate": "(1, 1)", 
        "kernel": "(7, 7)", 
        "layout": "NCHW", 
        "no_bias": "True", 
        "num_filter": "96", 
        "num_group": "96", 
        "pad": "(3, 3)", 
        "stride": "(1, 1)"
      }, 
      "inputs": [[343, 0, 0], [348, 0, 0]]
    }, 
    {
      "op": "Concat", 
      "name": "pydnet_0_75/stg1/blk3/concat0", 
      "attrs": {
        "dim": "1", 
        "num_args": "3"
      }, 
      "inputs": [[345, 0, 0], [347, 0, 0], [349, 0, 0]]
    }, 
    {
      "op": "null", 
      "name": "pydnet_0_75/stg1/blk3/btl_out/batchnorm0_gamma", 
      "attrs": {
        "__dtype__": "0", 
        "__init__": "ones", 
        "__lr_mult__": "1.0", 
        "__shape__": "(0,)", 
        "__storage_type__": "0", 
        "__wd_mult__": "1.0"
      }, 
      "inputs": []
    }, 
    {
      "op": "null", 
      "name": "pydnet_0_75/stg1/blk3/btl_out/batchnorm0_beta", 
      "attrs": {
        "__dtype__": "0", 
        "__init__": "zeros", 
        "__lr_mult__": "1.0", 
        "__shape__": "(0,)", 
        "__storage_type__": "0", 
        "__wd_mult__": "1.0"
      }, 
      "inputs": []
    }, 
    {
      "op": "null", 
      "name": "pydnet_0_75/stg1/blk3/btl_out/batchnorm0_running_mean", 
      "attrs": {
        "__dtype__": "0", 
        "__init__": "zeros", 
        "__lr_mult__": "1.0", 
        "__shape__": "(0,)", 
        "__storage_type__": "0", 
        "__wd_mult__": "1.0"
      }, 
      "inputs": []
    }, 
    {
      "op": "null", 
      "name": "pydnet_0_75/stg1/blk3/btl_out/batchnorm0_running_var", 
      "attrs": {
        "__dtype__": "0", 
        "__init__": "ones", 
        "__lr_mult__": "1.0", 
        "__shape__": "(0,)", 
        "__storage_type__": "0", 
        "__wd_mult__": "1.0"
      }, 
      "inputs": []
    }, 
    {
      "op": "BatchNorm", 
      "name": "pydnet_0_75/stg1/blk3/btl_out/batchnorm0_fwd", 
      "attrs": {
        "axis": "1", 
        "eps": "1e-05", 
        "fix_gamma": "False", 
        "momentum": "0.9", 
        "use_global_stats": "False"
      }, 
      "inputs": [[350, 0, 0], [351, 0, 0], [352, 0, 0], [353, 0, 1], [354, 0, 1]]
    }, 
    {
      "op": "Activation", 
      "name": "pydnet_0_75/stg1/blk3/btl_out/relu0_fwd", 
      "attrs": {"act_type": "relu"}, 
      "inputs": [[355, 0, 0]]
    }, 
    {
      "op": "null", 
      "name": "pydnet_0_75/stg1/blk3/btl_out/conv0_weight", 
      "attrs": {
        "__dtype__": "0", 
        "__lr_mult__": "1.0", 
        "__shape__": "(128, 0, 1, 1)", 
        "__storage_type__": "0", 
        "__wd_mult__": "1.0"
      }, 
      "inputs": []
    }, 
    {
      "op": "Convolution", 
      "name": "pydnet_0_75/stg1/blk3/btl_out/conv0_fwd", 
      "attrs": {
        "dilate": "(1, 1)", 
        "kernel": "(1, 1)", 
        "layout": "NCHW", 
        "no_bias": "True", 
        "num_filter": "128", 
        "num_group": "1", 
        "pad": "(0, 0)", 
        "stride": "(1, 1)"
      }, 
      "inputs": [[356, 0, 0], [357, 0, 0]]
    }, 
    {
      "op": "null", 
      "name": "pydnet_0_75/stg1/blk3/btl_out/batchnorm1_gamma", 
      "attrs": {
        "__dtype__": "0", 
        "__init__": "ones", 
        "__lr_mult__": "1.0", 
        "__shape__": "(0,)", 
        "__storage_type__": "0", 
        "__wd_mult__": "1.0"
      }, 
      "inputs": []
    }, 
    {
      "op": "null", 
      "name": "pydnet_0_75/stg1/blk3/btl_out/batchnorm1_beta", 
      "attrs": {
        "__dtype__": "0", 
        "__init__": "zeros", 
        "__lr_mult__": "1.0", 
        "__shape__": "(0,)", 
        "__storage_type__": "0", 
        "__wd_mult__": "1.0"
      }, 
      "inputs": []
    }, 
    {
      "op": "null", 
      "name": "pydnet_0_75/stg1/blk3/btl_out/batchnorm1_running_mean", 
      "attrs": {
        "__dtype__": "0", 
        "__init__": "zeros", 
        "__lr_mult__": "1.0", 
        "__shape__": "(0,)", 
        "__storage_type__": "0", 
        "__wd_mult__": "1.0"
      }, 
      "inputs": []
    }, 
    {
      "op": "null", 
      "name": "pydnet_0_75/stg1/blk3/btl_out/batchnorm1_running_var", 
      "attrs": {
        "__dtype__": "0", 
        "__init__": "ones", 
        "__lr_mult__": "1.0", 
        "__shape__": "(0,)", 
        "__storage_type__": "0", 
        "__wd_mult__": "1.0"
      }, 
      "inputs": []
    }, 
    {
      "op": "BatchNorm", 
      "name": "pydnet_0_75/stg1/blk3/btl_out/batchnorm1_fwd", 
      "attrs": {
        "axis": "1", 
        "eps": "1e-05", 
        "fix_gamma": "False", 
        "momentum": "0.9", 
        "use_global_stats": "False"
      }, 
      "inputs": [[358, 0, 0], [359, 0, 0], [360, 0, 0], [361, 0, 1], [362, 0, 1]]
    }, 
    {
      "op": "elemwise_add", 
      "name": "pydnet_0_75/stg1/blk3/_plus0", 
      "inputs": [[363, 0, 0], [329, 0, 0]]
    }, 
    {
      "op": "null", 
      "name": "pydnet_0_75/stg1/blk4/btl_in/batchnorm0_gamma", 
      "attrs": {
        "__dtype__": "0", 
        "__init__": "ones", 
        "__lr_mult__": "1.0", 
        "__shape__": "(0,)", 
        "__storage_type__": "0", 
        "__wd_mult__": "1.0"
      }, 
      "inputs": []
    }, 
    {
      "op": "null", 
      "name": "pydnet_0_75/stg1/blk4/btl_in/batchnorm0_beta", 
      "attrs": {
        "__dtype__": "0", 
        "__init__": "zeros", 
        "__lr_mult__": "1.0", 
        "__shape__": "(0,)", 
        "__storage_type__": "0", 
        "__wd_mult__": "1.0"
      }, 
      "inputs": []
    }, 
    {
      "op": "null", 
      "name": "pydnet_0_75/stg1/blk4/btl_in/batchnorm0_running_mean", 
      "attrs": {
        "__dtype__": "0", 
        "__init__": "zeros", 
        "__lr_mult__": "1.0", 
        "__shape__": "(0,)", 
        "__storage_type__": "0", 
        "__wd_mult__": "1.0"
      }, 
      "inputs": []
    }, 
    {
      "op": "null", 
      "name": "pydnet_0_75/stg1/blk4/btl_in/batchnorm0_running_var", 
      "attrs": {
        "__dtype__": "0", 
        "__init__": "ones", 
        "__lr_mult__": "1.0", 
        "__shape__": "(0,)", 
        "__storage_type__": "0", 
        "__wd_mult__": "1.0"
      }, 
      "inputs": []
    }, 
    {
      "op": "BatchNorm", 
      "name": "pydnet_0_75/stg1/blk4/btl_in/batchnorm0_fwd", 
      "attrs": {
        "axis": "1", 
        "eps": "1e-05", 
        "fix_gamma": "False", 
        "momentum": "0.9", 
        "use_global_stats": "False"
      }, 
      "inputs": [[364, 0, 0], [365, 0, 0], [366, 0, 0], [367, 0, 1], [368, 0, 1]]
    }, 
    {
      "op": "Activation", 
      "name": "pydnet_0_75/stg1/blk4/btl_in/relu0_fwd", 
      "attrs": {"act_type": "relu"}, 
      "inputs": [[369, 0, 0]]
    }, 
    {
      "op": "null", 
      "name": "pydnet_0_75/stg1/blk4/btl_in/conv0_weight", 
      "attrs": {
        "__dtype__": "0", 
        "__lr_mult__": "1.0", 
        "__shape__": "(96, 0, 1, 1)", 
        "__storage_type__": "0", 
        "__wd_mult__": "1.0"
      }, 
      "inputs": []
    }, 
    {
      "op": "Convolution", 
      "name": "pydnet_0_75/stg1/blk4/btl_in/conv0_fwd", 
      "attrs": {
        "dilate": "(1, 1)", 
        "kernel": "(1, 1)", 
        "layout": "NCHW", 
        "no_bias": "True", 
        "num_filter": "96", 
        "num_group": "1", 
        "pad": "(0, 0)", 
        "stride": "(1, 1)"
      }, 
      "inputs": [[370, 0, 0], [371, 0, 0]]
    }, 
    {
      "op": "null", 
      "name": "pydnet_0_75/stg1/blk4/btl_in/batchnorm1_gamma", 
      "attrs": {
        "__dtype__": "0", 
        "__init__": "ones", 
        "__lr_mult__": "1.0", 
        "__shape__": "(0,)", 
        "__storage_type__": "0", 
        "__wd_mult__": "1.0"
      }, 
      "inputs": []
    }, 
    {
      "op": "null", 
      "name": "pydnet_0_75/stg1/blk4/btl_in/batchnorm1_beta", 
      "attrs": {
        "__dtype__": "0", 
        "__init__": "zeros", 
        "__lr_mult__": "1.0", 
        "__shape__": "(0,)", 
        "__storage_type__": "0", 
        "__wd_mult__": "1.0"
      }, 
      "inputs": []
    }, 
    {
      "op": "null", 
      "name": "pydnet_0_75/stg1/blk4/btl_in/batchnorm1_running_mean", 
      "attrs": {
        "__dtype__": "0", 
        "__init__": "zeros", 
        "__lr_mult__": "1.0", 
        "__shape__": "(0,)", 
        "__storage_type__": "0", 
        "__wd_mult__": "1.0"
      }, 
      "inputs": []
    }, 
    {
      "op": "null", 
      "name": "pydnet_0_75/stg1/blk4/btl_in/batchnorm1_running_var", 
      "attrs": {
        "__dtype__": "0", 
        "__init__": "ones", 
        "__lr_mult__": "1.0", 
        "__shape__": "(0,)", 
        "__storage_type__": "0", 
        "__wd_mult__": "1.0"
      }, 
      "inputs": []
    }, 
    {
      "op": "BatchNorm", 
      "name": "pydnet_0_75/stg1/blk4/btl_in/batchnorm1_fwd", 
      "attrs": {
        "axis": "1", 
        "eps": "1e-05", 
        "fix_gamma": "False", 
        "momentum": "0.9", 
        "use_global_stats": "False"
      }, 
      "inputs": [[372, 0, 0], [373, 0, 0], [374, 0, 0], [375, 0, 1], [376, 0, 1]]
    }, 
    {
      "op": "Activation", 
      "name": "pydnet_0_75/stg1/blk4/btl_in/relu1_fwd", 
      "attrs": {"act_type": "relu"}, 
      "inputs": [[377, 0, 0]]
    }, 
    {
      "op": "null", 
      "name": "pydnet_0_75/stg1/blk4/conv3/conv0_weight", 
      "attrs": {
        "__dtype__": "0", 
        "__lr_mult__": "1.0", 
        "__shape__": "(96, 0, 3, 3)", 
        "__storage_type__": "0", 
        "__wd_mult__": "1.0"
      }, 
      "inputs": []
    }, 
    {
      "op": "Convolution", 
      "name": "pydnet_0_75/stg1/blk4/conv3/conv0_fwd", 
      "attrs": {
        "dilate": "(1, 1)", 
        "kernel": "(3, 3)", 
        "layout": "NCHW", 
        "no_bias": "True", 
        "num_filter": "96", 
        "num_group": "96", 
        "pad": "(1, 1)", 
        "stride": "(1, 1)"
      }, 
      "inputs": [[378, 0, 0], [379, 0, 0]]
    }, 
    {
      "op": "null", 
      "name": "pydnet_0_75/stg1/blk4/conv5/conv0_weight", 
      "attrs": {
        "__dtype__": "0", 
        "__lr_mult__": "1.0", 
        "__shape__": "(96, 0, 5, 5)", 
        "__storage_type__": "0", 
        "__wd_mult__": "1.0"
      }, 
      "inputs": []
    }, 
    {
      "op": "Convolution", 
      "name": "pydnet_0_75/stg1/blk4/conv5/conv0_fwd", 
      "attrs": {
        "dilate": "(1, 1)", 
        "kernel": "(5, 5)", 
        "layout": "NCHW", 
        "no_bias": "True", 
        "num_filter": "96", 
        "num_group": "96", 
        "pad": "(2, 2)", 
        "stride": "(1, 1)"
      }, 
      "inputs": [[378, 0, 0], [381, 0, 0]]
    }, 
    {
      "op": "null", 
      "name": "pydnet_0_75/stg1/blk4/conv7/conv0_weight", 
      "attrs": {
        "__dtype__": "0", 
        "__lr_mult__": "1.0", 
        "__shape__": "(96, 0, 7, 7)", 
        "__storage_type__": "0", 
        "__wd_mult__": "1.0"
      }, 
      "inputs": []
    }, 
    {
      "op": "Convolution", 
      "name": "pydnet_0_75/stg1/blk4/conv7/conv0_fwd", 
      "attrs": {
        "dilate": "(1, 1)", 
        "kernel": "(7, 7)", 
        "layout": "NCHW", 
        "no_bias": "True", 
        "num_filter": "96", 
        "num_group": "96", 
        "pad": "(3, 3)", 
        "stride": "(1, 1)"
      }, 
      "inputs": [[378, 0, 0], [383, 0, 0]]
    }, 
    {
      "op": "Concat", 
      "name": "pydnet_0_75/stg1/blk4/concat0", 
      "attrs": {
        "dim": "1", 
        "num_args": "3"
      }, 
      "inputs": [[380, 0, 0], [382, 0, 0], [384, 0, 0]]
    }, 
    {
      "op": "null", 
      "name": "pydnet_0_75/stg1/blk4/btl_out/batchnorm0_gamma", 
      "attrs": {
        "__dtype__": "0", 
        "__init__": "ones", 
        "__lr_mult__": "1.0", 
        "__shape__": "(0,)", 
        "__storage_type__": "0", 
        "__wd_mult__": "1.0"
      }, 
      "inputs": []
    }, 
    {
      "op": "null", 
      "name": "pydnet_0_75/stg1/blk4/btl_out/batchnorm0_beta", 
      "attrs": {
        "__dtype__": "0", 
        "__init__": "zeros", 
        "__lr_mult__": "1.0", 
        "__shape__": "(0,)", 
        "__storage_type__": "0", 
        "__wd_mult__": "1.0"
      }, 
      "inputs": []
    }, 
    {
      "op": "null", 
      "name": "pydnet_0_75/stg1/blk4/btl_out/batchnorm0_running_mean", 
      "attrs": {
        "__dtype__": "0", 
        "__init__": "zeros", 
        "__lr_mult__": "1.0", 
        "__shape__": "(0,)", 
        "__storage_type__": "0", 
        "__wd_mult__": "1.0"
      }, 
      "inputs": []
    }, 
    {
      "op": "null", 
      "name": "pydnet_0_75/stg1/blk4/btl_out/batchnorm0_running_var", 
      "attrs": {
        "__dtype__": "0", 
        "__init__": "ones", 
        "__lr_mult__": "1.0", 
        "__shape__": "(0,)", 
        "__storage_type__": "0", 
        "__wd_mult__": "1.0"
      }, 
      "inputs": []
    }, 
    {
      "op": "BatchNorm", 
      "name": "pydnet_0_75/stg1/blk4/btl_out/batchnorm0_fwd", 
      "attrs": {
        "axis": "1", 
        "eps": "1e-05", 
        "fix_gamma": "False", 
        "momentum": "0.9", 
        "use_global_stats": "False"
      }, 
      "inputs": [[385, 0, 0], [386, 0, 0], [387, 0, 0], [388, 0, 1], [389, 0, 1]]
    }, 
    {
      "op": "Activation", 
      "name": "pydnet_0_75/stg1/blk4/btl_out/relu0_fwd", 
      "attrs": {"act_type": "relu"}, 
      "inputs": [[390, 0, 0]]
    }, 
    {
      "op": "null", 
      "name": "pydnet_0_75/stg1/blk4/btl_out/conv0_weight", 
      "attrs": {
        "__dtype__": "0", 
        "__lr_mult__": "1.0", 
        "__shape__": "(128, 0, 1, 1)", 
        "__storage_type__": "0", 
        "__wd_mult__": "1.0"
      }, 
      "inputs": []
    }, 
    {
      "op": "Convolution", 
      "name": "pydnet_0_75/stg1/blk4/btl_out/conv0_fwd", 
      "attrs": {
        "dilate": "(1, 1)", 
        "kernel": "(1, 1)", 
        "layout": "NCHW", 
        "no_bias": "True", 
        "num_filter": "128", 
        "num_group": "1", 
        "pad": "(0, 0)", 
        "stride": "(1, 1)"
      }, 
      "inputs": [[391, 0, 0], [392, 0, 0]]
    }, 
    {
      "op": "null", 
      "name": "pydnet_0_75/stg1/blk4/btl_out/batchnorm1_gamma", 
      "attrs": {
        "__dtype__": "0", 
        "__init__": "ones", 
        "__lr_mult__": "1.0", 
        "__shape__": "(0,)", 
        "__storage_type__": "0", 
        "__wd_mult__": "1.0"
      }, 
      "inputs": []
    }, 
    {
      "op": "null", 
      "name": "pydnet_0_75/stg1/blk4/btl_out/batchnorm1_beta", 
      "attrs": {
        "__dtype__": "0", 
        "__init__": "zeros", 
        "__lr_mult__": "1.0", 
        "__shape__": "(0,)", 
        "__storage_type__": "0", 
        "__wd_mult__": "1.0"
      }, 
      "inputs": []
    }, 
    {
      "op": "null", 
      "name": "pydnet_0_75/stg1/blk4/btl_out/batchnorm1_running_mean", 
      "attrs": {
        "__dtype__": "0", 
        "__init__": "zeros", 
        "__lr_mult__": "1.0", 
        "__shape__": "(0,)", 
        "__storage_type__": "0", 
        "__wd_mult__": "1.0"
      }, 
      "inputs": []
    }, 
    {
      "op": "null", 
      "name": "pydnet_0_75/stg1/blk4/btl_out/batchnorm1_running_var", 
      "attrs": {
        "__dtype__": "0", 
        "__init__": "ones", 
        "__lr_mult__": "1.0", 
        "__shape__": "(0,)", 
        "__storage_type__": "0", 
        "__wd_mult__": "1.0"
      }, 
      "inputs": []
    }, 
    {
      "op": "BatchNorm", 
      "name": "pydnet_0_75/stg1/blk4/btl_out/batchnorm1_fwd", 
      "attrs": {
        "axis": "1", 
        "eps": "1e-05", 
        "fix_gamma": "False", 
        "momentum": "0.9", 
        "use_global_stats": "False"
      }, 
      "inputs": [[393, 0, 0], [394, 0, 0], [395, 0, 0], [396, 0, 1], [397, 0, 1]]
    }, 
    {
      "op": "elemwise_add", 
      "name": "pydnet_0_75/stg1/blk4/_plus0", 
      "inputs": [[398, 0, 0], [364, 0, 0]]
    }, 
    {
      "op": "null", 
      "name": "pydnet_0_75/stg1/blk5/btl_in/batchnorm0_gamma", 
      "attrs": {
        "__dtype__": "0", 
        "__init__": "ones", 
        "__lr_mult__": "1.0", 
        "__shape__": "(0,)", 
        "__storage_type__": "0", 
        "__wd_mult__": "1.0"
      }, 
      "inputs": []
    }, 
    {
      "op": "null", 
      "name": "pydnet_0_75/stg1/blk5/btl_in/batchnorm0_beta", 
      "attrs": {
        "__dtype__": "0", 
        "__init__": "zeros", 
        "__lr_mult__": "1.0", 
        "__shape__": "(0,)", 
        "__storage_type__": "0", 
        "__wd_mult__": "1.0"
      }, 
      "inputs": []
    }, 
    {
      "op": "null", 
      "name": "pydnet_0_75/stg1/blk5/btl_in/batchnorm0_running_mean", 
      "attrs": {
        "__dtype__": "0", 
        "__init__": "zeros", 
        "__lr_mult__": "1.0", 
        "__shape__": "(0,)", 
        "__storage_type__": "0", 
        "__wd_mult__": "1.0"
      }, 
      "inputs": []
    }, 
    {
      "op": "null", 
      "name": "pydnet_0_75/stg1/blk5/btl_in/batchnorm0_running_var", 
      "attrs": {
        "__dtype__": "0", 
        "__init__": "ones", 
        "__lr_mult__": "1.0", 
        "__shape__": "(0,)", 
        "__storage_type__": "0", 
        "__wd_mult__": "1.0"
      }, 
      "inputs": []
    }, 
    {
      "op": "BatchNorm", 
      "name": "pydnet_0_75/stg1/blk5/btl_in/batchnorm0_fwd", 
      "attrs": {
        "axis": "1", 
        "eps": "1e-05", 
        "fix_gamma": "False", 
        "momentum": "0.9", 
        "use_global_stats": "False"
      }, 
      "inputs": [[399, 0, 0], [400, 0, 0], [401, 0, 0], [402, 0, 1], [403, 0, 1]]
    }, 
    {
      "op": "Activation", 
      "name": "pydnet_0_75/stg1/blk5/btl_in/relu0_fwd", 
      "attrs": {"act_type": "relu"}, 
      "inputs": [[404, 0, 0]]
    }, 
    {
      "op": "null", 
      "name": "pydnet_0_75/stg1/blk5/btl_in/conv0_weight", 
      "attrs": {
        "__dtype__": "0", 
        "__lr_mult__": "1.0", 
        "__shape__": "(96, 0, 1, 1)", 
        "__storage_type__": "0", 
        "__wd_mult__": "1.0"
      }, 
      "inputs": []
    }, 
    {
      "op": "Convolution", 
      "name": "pydnet_0_75/stg1/blk5/btl_in/conv0_fwd", 
      "attrs": {
        "dilate": "(1, 1)", 
        "kernel": "(1, 1)", 
        "layout": "NCHW", 
        "no_bias": "True", 
        "num_filter": "96", 
        "num_group": "1", 
        "pad": "(0, 0)", 
        "stride": "(1, 1)"
      }, 
      "inputs": [[405, 0, 0], [406, 0, 0]]
    }, 
    {
      "op": "null", 
      "name": "pydnet_0_75/stg1/blk5/btl_in/batchnorm1_gamma", 
      "attrs": {
        "__dtype__": "0", 
        "__init__": "ones", 
        "__lr_mult__": "1.0", 
        "__shape__": "(0,)", 
        "__storage_type__": "0", 
        "__wd_mult__": "1.0"
      }, 
      "inputs": []
    }, 
    {
      "op": "null", 
      "name": "pydnet_0_75/stg1/blk5/btl_in/batchnorm1_beta", 
      "attrs": {
        "__dtype__": "0", 
        "__init__": "zeros", 
        "__lr_mult__": "1.0", 
        "__shape__": "(0,)", 
        "__storage_type__": "0", 
        "__wd_mult__": "1.0"
      }, 
      "inputs": []
    }, 
    {
      "op": "null", 
      "name": "pydnet_0_75/stg1/blk5/btl_in/batchnorm1_running_mean", 
      "attrs": {
        "__dtype__": "0", 
        "__init__": "zeros", 
        "__lr_mult__": "1.0", 
        "__shape__": "(0,)", 
        "__storage_type__": "0", 
        "__wd_mult__": "1.0"
      }, 
      "inputs": []
    }, 
    {
      "op": "null", 
      "name": "pydnet_0_75/stg1/blk5/btl_in/batchnorm1_running_var", 
      "attrs": {
        "__dtype__": "0", 
        "__init__": "ones", 
        "__lr_mult__": "1.0", 
        "__shape__": "(0,)", 
        "__storage_type__": "0", 
        "__wd_mult__": "1.0"
      }, 
      "inputs": []
    }, 
    {
      "op": "BatchNorm", 
      "name": "pydnet_0_75/stg1/blk5/btl_in/batchnorm1_fwd", 
      "attrs": {
        "axis": "1", 
        "eps": "1e-05", 
        "fix_gamma": "False", 
        "momentum": "0.9", 
        "use_global_stats": "False"
      }, 
      "inputs": [[407, 0, 0], [408, 0, 0], [409, 0, 0], [410, 0, 1], [411, 0, 1]]
    }, 
    {
      "op": "Activation", 
      "name": "pydnet_0_75/stg1/blk5/btl_in/relu1_fwd", 
      "attrs": {"act_type": "relu"}, 
      "inputs": [[412, 0, 0]]
    }, 
    {
      "op": "null", 
      "name": "pydnet_0_75/stg1/blk5/conv3/conv0_weight", 
      "attrs": {
        "__dtype__": "0", 
        "__lr_mult__": "1.0", 
        "__shape__": "(96, 0, 3, 3)", 
        "__storage_type__": "0", 
        "__wd_mult__": "1.0"
      }, 
      "inputs": []
    }, 
    {
      "op": "Convolution", 
      "name": "pydnet_0_75/stg1/blk5/conv3/conv0_fwd", 
      "attrs": {
        "dilate": "(1, 1)", 
        "kernel": "(3, 3)", 
        "layout": "NCHW", 
        "no_bias": "True", 
        "num_filter": "96", 
        "num_group": "96", 
        "pad": "(1, 1)", 
        "stride": "(1, 1)"
      }, 
      "inputs": [[413, 0, 0], [414, 0, 0]]
    }, 
    {
      "op": "null", 
      "name": "pydnet_0_75/stg1/blk5/conv5/conv0_weight", 
      "attrs": {
        "__dtype__": "0", 
        "__lr_mult__": "1.0", 
        "__shape__": "(96, 0, 5, 5)", 
        "__storage_type__": "0", 
        "__wd_mult__": "1.0"
      }, 
      "inputs": []
    }, 
    {
      "op": "Convolution", 
      "name": "pydnet_0_75/stg1/blk5/conv5/conv0_fwd", 
      "attrs": {
        "dilate": "(1, 1)", 
        "kernel": "(5, 5)", 
        "layout": "NCHW", 
        "no_bias": "True", 
        "num_filter": "96", 
        "num_group": "96", 
        "pad": "(2, 2)", 
        "stride": "(1, 1)"
      }, 
      "inputs": [[413, 0, 0], [416, 0, 0]]
    }, 
    {
      "op": "null", 
      "name": "pydnet_0_75/stg1/blk5/conv7/conv0_weight", 
      "attrs": {
        "__dtype__": "0", 
        "__lr_mult__": "1.0", 
        "__shape__": "(96, 0, 7, 7)", 
        "__storage_type__": "0", 
        "__wd_mult__": "1.0"
      }, 
      "inputs": []
    }, 
    {
      "op": "Convolution", 
      "name": "pydnet_0_75/stg1/blk5/conv7/conv0_fwd", 
      "attrs": {
        "dilate": "(1, 1)", 
        "kernel": "(7, 7)", 
        "layout": "NCHW", 
        "no_bias": "True", 
        "num_filter": "96", 
        "num_group": "96", 
        "pad": "(3, 3)", 
        "stride": "(1, 1)"
      }, 
      "inputs": [[413, 0, 0], [418, 0, 0]]
    }, 
    {
      "op": "Concat", 
      "name": "pydnet_0_75/stg1/blk5/concat0", 
      "attrs": {
        "dim": "1", 
        "num_args": "3"
      }, 
      "inputs": [[415, 0, 0], [417, 0, 0], [419, 0, 0]]
    }, 
    {
      "op": "null", 
      "name": "pydnet_0_75/stg1/blk5/btl_out/batchnorm0_gamma", 
      "attrs": {
        "__dtype__": "0", 
        "__init__": "ones", 
        "__lr_mult__": "1.0", 
        "__shape__": "(0,)", 
        "__storage_type__": "0", 
        "__wd_mult__": "1.0"
      }, 
      "inputs": []
    }, 
    {
      "op": "null", 
      "name": "pydnet_0_75/stg1/blk5/btl_out/batchnorm0_beta", 
      "attrs": {
        "__dtype__": "0", 
        "__init__": "zeros", 
        "__lr_mult__": "1.0", 
        "__shape__": "(0,)", 
        "__storage_type__": "0", 
        "__wd_mult__": "1.0"
      }, 
      "inputs": []
    }, 
    {
      "op": "null", 
      "name": "pydnet_0_75/stg1/blk5/btl_out/batchnorm0_running_mean", 
      "attrs": {
        "__dtype__": "0", 
        "__init__": "zeros", 
        "__lr_mult__": "1.0", 
        "__shape__": "(0,)", 
        "__storage_type__": "0", 
        "__wd_mult__": "1.0"
      }, 
      "inputs": []
    }, 
    {
      "op": "null", 
      "name": "pydnet_0_75/stg1/blk5/btl_out/batchnorm0_running_var", 
      "attrs": {
        "__dtype__": "0", 
        "__init__": "ones", 
        "__lr_mult__": "1.0", 
        "__shape__": "(0,)", 
        "__storage_type__": "0", 
        "__wd_mult__": "1.0"
      }, 
      "inputs": []
    }, 
    {
      "op": "BatchNorm", 
      "name": "pydnet_0_75/stg1/blk5/btl_out/batchnorm0_fwd", 
      "attrs": {
        "axis": "1", 
        "eps": "1e-05", 
        "fix_gamma": "False", 
        "momentum": "0.9", 
        "use_global_stats": "False"
      }, 
      "inputs": [[420, 0, 0], [421, 0, 0], [422, 0, 0], [423, 0, 1], [424, 0, 1]]
    }, 
    {
      "op": "Activation", 
      "name": "pydnet_0_75/stg1/blk5/btl_out/relu0_fwd", 
      "attrs": {"act_type": "relu"}, 
      "inputs": [[425, 0, 0]]
    }, 
    {
      "op": "null", 
      "name": "pydnet_0_75/stg1/blk5/btl_out/conv0_weight", 
      "attrs": {
        "__dtype__": "0", 
        "__lr_mult__": "1.0", 
        "__shape__": "(128, 0, 1, 1)", 
        "__storage_type__": "0", 
        "__wd_mult__": "1.0"
      }, 
      "inputs": []
    }, 
    {
      "op": "Convolution", 
      "name": "pydnet_0_75/stg1/blk5/btl_out/conv0_fwd", 
      "attrs": {
        "dilate": "(1, 1)", 
        "kernel": "(1, 1)", 
        "layout": "NCHW", 
        "no_bias": "True", 
        "num_filter": "128", 
        "num_group": "1", 
        "pad": "(0, 0)", 
        "stride": "(1, 1)"
      }, 
      "inputs": [[426, 0, 0], [427, 0, 0]]
    }, 
    {
      "op": "null", 
      "name": "pydnet_0_75/stg1/blk5/btl_out/batchnorm1_gamma", 
      "attrs": {
        "__dtype__": "0", 
        "__init__": "ones", 
        "__lr_mult__": "1.0", 
        "__shape__": "(0,)", 
        "__storage_type__": "0", 
        "__wd_mult__": "1.0"
      }, 
      "inputs": []
    }, 
    {
      "op": "null", 
      "name": "pydnet_0_75/stg1/blk5/btl_out/batchnorm1_beta", 
      "attrs": {
        "__dtype__": "0", 
        "__init__": "zeros", 
        "__lr_mult__": "1.0", 
        "__shape__": "(0,)", 
        "__storage_type__": "0", 
        "__wd_mult__": "1.0"
      }, 
      "inputs": []
    }, 
    {
      "op": "null", 
      "name": "pydnet_0_75/stg1/blk5/btl_out/batchnorm1_running_mean", 
      "attrs": {
        "__dtype__": "0", 
        "__init__": "zeros", 
        "__lr_mult__": "1.0", 
        "__shape__": "(0,)", 
        "__storage_type__": "0", 
        "__wd_mult__": "1.0"
      }, 
      "inputs": []
    }, 
    {
      "op": "null", 
      "name": "pydnet_0_75/stg1/blk5/btl_out/batchnorm1_running_var", 
      "attrs": {
        "__dtype__": "0", 
        "__init__": "ones", 
        "__lr_mult__": "1.0", 
        "__shape__": "(0,)", 
        "__storage_type__": "0", 
        "__wd_mult__": "1.0"
      }, 
      "inputs": []
    }, 
    {
      "op": "BatchNorm", 
      "name": "pydnet_0_75/stg1/blk5/btl_out/batchnorm1_fwd", 
      "attrs": {
        "axis": "1", 
        "eps": "1e-05", 
        "fix_gamma": "False", 
        "momentum": "0.9", 
        "use_global_stats": "False"
      }, 
      "inputs": [[428, 0, 0], [429, 0, 0], [430, 0, 0], [431, 0, 1], [432, 0, 1]]
    }, 
    {
      "op": "elemwise_add", 
      "name": "pydnet_0_75/stg1/blk5/_plus0", 
      "inputs": [[433, 0, 0], [399, 0, 0]]
    }, 
    {
      "op": "null", 
      "name": "pydnet_0_75/stg2/blk0/btl_in/batchnorm0_gamma", 
      "attrs": {
        "__dtype__": "0", 
        "__init__": "ones", 
        "__lr_mult__": "1.0", 
        "__shape__": "(0,)", 
        "__storage_type__": "0", 
        "__wd_mult__": "1.0"
      }, 
      "inputs": []
    }, 
    {
      "op": "null", 
      "name": "pydnet_0_75/stg2/blk0/btl_in/batchnorm0_beta", 
      "attrs": {
        "__dtype__": "0", 
        "__init__": "zeros", 
        "__lr_mult__": "1.0", 
        "__shape__": "(0,)", 
        "__storage_type__": "0", 
        "__wd_mult__": "1.0"
      }, 
      "inputs": []
    }, 
    {
      "op": "null", 
      "name": "pydnet_0_75/stg2/blk0/btl_in/batchnorm0_running_mean", 
      "attrs": {
        "__dtype__": "0", 
        "__init__": "zeros", 
        "__lr_mult__": "1.0", 
        "__shape__": "(0,)", 
        "__storage_type__": "0", 
        "__wd_mult__": "1.0"
      }, 
      "inputs": []
    }, 
    {
      "op": "null", 
      "name": "pydnet_0_75/stg2/blk0/btl_in/batchnorm0_running_var", 
      "attrs": {
        "__dtype__": "0", 
        "__init__": "ones", 
        "__lr_mult__": "1.0", 
        "__shape__": "(0,)", 
        "__storage_type__": "0", 
        "__wd_mult__": "1.0"
      }, 
      "inputs": []
    }, 
    {
      "op": "BatchNorm", 
      "name": "pydnet_0_75/stg2/blk0/btl_in/batchnorm0_fwd", 
      "attrs": {
        "axis": "1", 
        "eps": "1e-05", 
        "fix_gamma": "False", 
        "momentum": "0.9", 
        "use_global_stats": "False"
      }, 
      "inputs": [[434, 0, 0], [435, 0, 0], [436, 0, 0], [437, 0, 1], [438, 0, 1]]
    }, 
    {
      "op": "Activation", 
      "name": "pydnet_0_75/stg2/blk0/btl_in/relu0_fwd", 
      "attrs": {"act_type": "relu"}, 
      "inputs": [[439, 0, 0]]
    }, 
    {
      "op": "null", 
      "name": "pydnet_0_75/stg2/blk0/btl_in/conv0_weight", 
      "attrs": {
        "__dtype__": "0", 
        "__lr_mult__": "1.0", 
        "__shape__": "(192, 0, 1, 1)", 
        "__storage_type__": "0", 
        "__wd_mult__": "1.0"
      }, 
      "inputs": []
    }, 
    {
      "op": "Convolution", 
      "name": "pydnet_0_75/stg2/blk0/btl_in/conv0_fwd", 
      "attrs": {
        "dilate": "(1, 1)", 
        "kernel": "(1, 1)", 
        "layout": "NCHW", 
        "no_bias": "True", 
        "num_filter": "192", 
        "num_group": "1", 
        "pad": "(0, 0)", 
        "stride": "(1, 1)"
      }, 
      "inputs": [[440, 0, 0], [441, 0, 0]]
    }, 
    {
      "op": "null", 
      "name": "pydnet_0_75/stg2/blk0/btl_in/batchnorm1_gamma", 
      "attrs": {
        "__dtype__": "0", 
        "__init__": "ones", 
        "__lr_mult__": "1.0", 
        "__shape__": "(0,)", 
        "__storage_type__": "0", 
        "__wd_mult__": "1.0"
      }, 
      "inputs": []
    }, 
    {
      "op": "null", 
      "name": "pydnet_0_75/stg2/blk0/btl_in/batchnorm1_beta", 
      "attrs": {
        "__dtype__": "0", 
        "__init__": "zeros", 
        "__lr_mult__": "1.0", 
        "__shape__": "(0,)", 
        "__storage_type__": "0", 
        "__wd_mult__": "1.0"
      }, 
      "inputs": []
    }, 
    {
      "op": "null", 
      "name": "pydnet_0_75/stg2/blk0/btl_in/batchnorm1_running_mean", 
      "attrs": {
        "__dtype__": "0", 
        "__init__": "zeros", 
        "__lr_mult__": "1.0", 
        "__shape__": "(0,)", 
        "__storage_type__": "0", 
        "__wd_mult__": "1.0"
      }, 
      "inputs": []
    }, 
    {
      "op": "null", 
      "name": "pydnet_0_75/stg2/blk0/btl_in/batchnorm1_running_var", 
      "attrs": {
        "__dtype__": "0", 
        "__init__": "ones", 
        "__lr_mult__": "1.0", 
        "__shape__": "(0,)", 
        "__storage_type__": "0", 
        "__wd_mult__": "1.0"
      }, 
      "inputs": []
    }, 
    {
      "op": "BatchNorm", 
      "name": "pydnet_0_75/stg2/blk0/btl_in/batchnorm1_fwd", 
      "attrs": {
        "axis": "1", 
        "eps": "1e-05", 
        "fix_gamma": "False", 
        "momentum": "0.9", 
        "use_global_stats": "False"
      }, 
      "inputs": [[442, 0, 0], [443, 0, 0], [444, 0, 0], [445, 0, 1], [446, 0, 1]]
    }, 
    {
      "op": "Activation", 
      "name": "pydnet_0_75/stg2/blk0/btl_in/relu1_fwd", 
      "attrs": {"act_type": "relu"}, 
      "inputs": [[447, 0, 0]]
    }, 
    {
      "op": "null", 
      "name": "pydnet_0_75/stg2/blk0/conv3/conv0_weight", 
      "attrs": {
        "__dtype__": "0", 
        "__lr_mult__": "1.0", 
        "__shape__": "(192, 0, 3, 3)", 
        "__storage_type__": "0", 
        "__wd_mult__": "1.0"
      }, 
      "inputs": []
    }, 
    {
      "op": "Convolution", 
      "name": "pydnet_0_75/stg2/blk0/conv3/conv0_fwd", 
      "attrs": {
        "dilate": "(1, 1)", 
        "kernel": "(3, 3)", 
        "layout": "NCHW", 
        "no_bias": "True", 
        "num_filter": "192", 
        "num_group": "192", 
        "pad": "(1, 1)", 
        "stride": "(2, 2)"
      }, 
      "inputs": [[448, 0, 0], [449, 0, 0]]
    }, 
    {
      "op": "null", 
      "name": "pydnet_0_75/stg2/blk0/conv5/conv0_weight", 
      "attrs": {
        "__dtype__": "0", 
        "__lr_mult__": "1.0", 
        "__shape__": "(192, 0, 5, 5)", 
        "__storage_type__": "0", 
        "__wd_mult__": "1.0"
      }, 
      "inputs": []
    }, 
    {
      "op": "Convolution", 
      "name": "pydnet_0_75/stg2/blk0/conv5/conv0_fwd", 
      "attrs": {
        "dilate": "(1, 1)", 
        "kernel": "(5, 5)", 
        "layout": "NCHW", 
        "no_bias": "True", 
        "num_filter": "192", 
        "num_group": "192", 
        "pad": "(2, 2)", 
        "stride": "(2, 2)"
      }, 
      "inputs": [[448, 0, 0], [451, 0, 0]]
    }, 
    {
      "op": "null", 
      "name": "pydnet_0_75/stg2/blk0/conv7/conv0_weight", 
      "attrs": {
        "__dtype__": "0", 
        "__lr_mult__": "1.0", 
        "__shape__": "(192, 0, 7, 7)", 
        "__storage_type__": "0", 
        "__wd_mult__": "1.0"
      }, 
      "inputs": []
    }, 
    {
      "op": "Convolution", 
      "name": "pydnet_0_75/stg2/blk0/conv7/conv0_fwd", 
      "attrs": {
        "dilate": "(1, 1)", 
        "kernel": "(7, 7)", 
        "layout": "NCHW", 
        "no_bias": "True", 
        "num_filter": "192", 
        "num_group": "192", 
        "pad": "(3, 3)", 
        "stride": "(2, 2)"
      }, 
      "inputs": [[448, 0, 0], [453, 0, 0]]
    }, 
    {
      "op": "Concat", 
      "name": "pydnet_0_75/stg2/blk0/concat0", 
      "attrs": {
        "dim": "1", 
        "num_args": "3"
      }, 
      "inputs": [[450, 0, 0], [452, 0, 0], [454, 0, 0]]
    }, 
    {
      "op": "null", 
      "name": "pydnet_0_75/stg2/blk0/btl_out/batchnorm0_gamma", 
      "attrs": {
        "__dtype__": "0", 
        "__init__": "ones", 
        "__lr_mult__": "1.0", 
        "__shape__": "(0,)", 
        "__storage_type__": "0", 
        "__wd_mult__": "1.0"
      }, 
      "inputs": []
    }, 
    {
      "op": "null", 
      "name": "pydnet_0_75/stg2/blk0/btl_out/batchnorm0_beta", 
      "attrs": {
        "__dtype__": "0", 
        "__init__": "zeros", 
        "__lr_mult__": "1.0", 
        "__shape__": "(0,)", 
        "__storage_type__": "0", 
        "__wd_mult__": "1.0"
      }, 
      "inputs": []
    }, 
    {
      "op": "null", 
      "name": "pydnet_0_75/stg2/blk0/btl_out/batchnorm0_running_mean", 
      "attrs": {
        "__dtype__": "0", 
        "__init__": "zeros", 
        "__lr_mult__": "1.0", 
        "__shape__": "(0,)", 
        "__storage_type__": "0", 
        "__wd_mult__": "1.0"
      }, 
      "inputs": []
    }, 
    {
      "op": "null", 
      "name": "pydnet_0_75/stg2/blk0/btl_out/batchnorm0_running_var", 
      "attrs": {
        "__dtype__": "0", 
        "__init__": "ones", 
        "__lr_mult__": "1.0", 
        "__shape__": "(0,)", 
        "__storage_type__": "0", 
        "__wd_mult__": "1.0"
      }, 
      "inputs": []
    }, 
    {
      "op": "BatchNorm", 
      "name": "pydnet_0_75/stg2/blk0/btl_out/batchnorm0_fwd", 
      "attrs": {
        "axis": "1", 
        "eps": "1e-05", 
        "fix_gamma": "False", 
        "momentum": "0.9", 
        "use_global_stats": "False"
      }, 
      "inputs": [[455, 0, 0], [456, 0, 0], [457, 0, 0], [458, 0, 1], [459, 0, 1]]
    }, 
    {
      "op": "Activation", 
      "name": "pydnet_0_75/stg2/blk0/btl_out/relu0_fwd", 
      "attrs": {"act_type": "relu"}, 
      "inputs": [[460, 0, 0]]
    }, 
    {
      "op": "null", 
      "name": "pydnet_0_75/stg2/blk0/btl_out/conv0_weight", 
      "attrs": {
        "__dtype__": "0", 
        "__lr_mult__": "1.0", 
        "__shape__": "(256, 0, 1, 1)", 
        "__storage_type__": "0", 
        "__wd_mult__": "1.0"
      }, 
      "inputs": []
    }, 
    {
      "op": "Convolution", 
      "name": "pydnet_0_75/stg2/blk0/btl_out/conv0_fwd", 
      "attrs": {
        "dilate": "(1, 1)", 
        "kernel": "(1, 1)", 
        "layout": "NCHW", 
        "no_bias": "True", 
        "num_filter": "256", 
        "num_group": "1", 
        "pad": "(0, 0)", 
        "stride": "(1, 1)"
      }, 
      "inputs": [[461, 0, 0], [462, 0, 0]]
    }, 
    {
      "op": "null", 
      "name": "pydnet_0_75/stg2/blk0/btl_out/batchnorm1_gamma", 
      "attrs": {
        "__dtype__": "0", 
        "__init__": "ones", 
        "__lr_mult__": "1.0", 
        "__shape__": "(0,)", 
        "__storage_type__": "0", 
        "__wd_mult__": "1.0"
      }, 
      "inputs": []
    }, 
    {
      "op": "null", 
      "name": "pydnet_0_75/stg2/blk0/btl_out/batchnorm1_beta", 
      "attrs": {
        "__dtype__": "0", 
        "__init__": "zeros", 
        "__lr_mult__": "1.0", 
        "__shape__": "(0,)", 
        "__storage_type__": "0", 
        "__wd_mult__": "1.0"
      }, 
      "inputs": []
    }, 
    {
      "op": "null", 
      "name": "pydnet_0_75/stg2/blk0/btl_out/batchnorm1_running_mean", 
      "attrs": {
        "__dtype__": "0", 
        "__init__": "zeros", 
        "__lr_mult__": "1.0", 
        "__shape__": "(0,)", 
        "__storage_type__": "0", 
        "__wd_mult__": "1.0"
      }, 
      "inputs": []
    }, 
    {
      "op": "null", 
      "name": "pydnet_0_75/stg2/blk0/btl_out/batchnorm1_running_var", 
      "attrs": {
        "__dtype__": "0", 
        "__init__": "ones", 
        "__lr_mult__": "1.0", 
        "__shape__": "(0,)", 
        "__storage_type__": "0", 
        "__wd_mult__": "1.0"
      }, 
      "inputs": []
    }, 
    {
      "op": "BatchNorm", 
      "name": "pydnet_0_75/stg2/blk0/btl_out/batchnorm1_fwd", 
      "attrs": {
        "axis": "1", 
        "eps": "1e-05", 
        "fix_gamma": "False", 
        "momentum": "0.9", 
        "use_global_stats": "False"
      }, 
      "inputs": [[463, 0, 0], [464, 0, 0], [465, 0, 0], [466, 0, 1], [467, 0, 1]]
    }, 
    {
      "op": "null", 
      "name": "pydnet_0_75/stg2/blk0/conv0_weight", 
      "attrs": {
        "__dtype__": "0", 
        "__lr_mult__": "1.0", 
        "__shape__": "(256, 0, 1, 1)", 
        "__storage_type__": "0", 
        "__wd_mult__": "1.0"
      }, 
      "inputs": []
    }, 
    {
      "op": "Convolution", 
      "name": "pydnet_0_75/stg2/blk0/conv0_fwd", 
      "attrs": {
        "dilate": "(1, 1)", 
        "kernel": "(1, 1)", 
        "layout": "NCHW", 
        "no_bias": "True", 
        "num_filter": "256", 
        "num_group": "1", 
        "pad": "(0, 0)", 
        "stride": "(2, 2)"
      }, 
      "inputs": [[434, 0, 0], [469, 0, 0]]
    }, 
    {
      "op": "null", 
      "name": "pydnet_0_75/stg2/blk0/batchnorm0_gamma", 
      "attrs": {
        "__dtype__": "0", 
        "__init__": "ones", 
        "__lr_mult__": "1.0", 
        "__shape__": "(0,)", 
        "__storage_type__": "0", 
        "__wd_mult__": "1.0"
      }, 
      "inputs": []
    }, 
    {
      "op": "null", 
      "name": "pydnet_0_75/stg2/blk0/batchnorm0_beta", 
      "attrs": {
        "__dtype__": "0", 
        "__init__": "zeros", 
        "__lr_mult__": "1.0", 
        "__shape__": "(0,)", 
        "__storage_type__": "0", 
        "__wd_mult__": "1.0"
      }, 
      "inputs": []
    }, 
    {
      "op": "null", 
      "name": "pydnet_0_75/stg2/blk0/batchnorm0_running_mean", 
      "attrs": {
        "__dtype__": "0", 
        "__init__": "zeros", 
        "__lr_mult__": "1.0", 
        "__shape__": "(0,)", 
        "__storage_type__": "0", 
        "__wd_mult__": "1.0"
      }, 
      "inputs": []
    }, 
    {
      "op": "null", 
      "name": "pydnet_0_75/stg2/blk0/batchnorm0_running_var", 
      "attrs": {
        "__dtype__": "0", 
        "__init__": "ones", 
        "__lr_mult__": "1.0", 
        "__shape__": "(0,)", 
        "__storage_type__": "0", 
        "__wd_mult__": "1.0"
      }, 
      "inputs": []
    }, 
    {
      "op": "BatchNorm", 
      "name": "pydnet_0_75/stg2/blk0/batchnorm0_fwd", 
      "attrs": {
        "axis": "1", 
        "eps": "1e-05", 
        "fix_gamma": "False", 
        "momentum": "0.9", 
        "use_global_stats": "False"
      }, 
      "inputs": [[470, 0, 0], [471, 0, 0], [472, 0, 0], [473, 0, 1], [474, 0, 1]]
    }, 
    {
      "op": "elemwise_add", 
      "name": "pydnet_0_75/stg2/blk0/_plus0", 
      "inputs": [[468, 0, 0], [475, 0, 0]]
    }, 
    {
      "op": "null", 
      "name": "pydnet_0_75/stg2/blk1/btl_in/batchnorm0_gamma", 
      "attrs": {
        "__dtype__": "0", 
        "__init__": "ones", 
        "__lr_mult__": "1.0", 
        "__shape__": "(0,)", 
        "__storage_type__": "0", 
        "__wd_mult__": "1.0"
      }, 
      "inputs": []
    }, 
    {
…
        "__lr_mult__": "1.0", 
        "__shape__": "(256, 0, 1, 1)", 
        "__storage_type__": "0", 
        "__wd_mult__": "1.0"
      }, 
      "inputs": []
    }, 
    {
      "op": "Convolution", 
      "name": "pydnet_0_75/stg2/blk2/btl_out/conv0_fwd", 
      "attrs": {
        "dilate": "(1, 1)", 
        "kernel": "(1, 1)", 
        "layout": "NCHW", 
        "no_bias": "True", 
        "num_filter": "256", 
        "num_group": "1", 
        "pad": "(0, 0)", 
        "stride": "(1, 1)"
      }, 
      "inputs": [[538, 0, 0], [539, 0, 0]]
    }, 
    {
      "op": "null", 
      "name": "pydnet_0_75/stg2/blk2/btl_out/batchnorm1_gamma", 
      "attrs": {
        "__dtype__": "0", 
        "__init__": "ones", 
        "__lr_mult__": "1.0", 
        "__shape__": "(0,)", 
        "__storage_type__": "0", 
        "__wd_mult__": "1.0"
      }, 
      "inputs": []
    }, 
    {
      "op": "null", 
      "name": "pydnet_0_75/stg2/blk2/btl_out/batchnorm1_beta", 
      "attrs": {
        "__dtype__": "0", 
        "__init__": "zeros", 
        "__lr_mult__": "1.0", 
        "__shape__": "(0,)", 
        "__storage_type__": "0", 
        "__wd_mult__": "1.0"
      }, 
      "inputs": []
    }, 
    {
      "op": "null", 
      "name": "pydnet_0_75/stg2/blk2/btl_out/batchnorm1_running_mean", 
      "attrs": {
        "__dtype__": "0", 
        "__init__": "zeros", 
        "__lr_mult__": "1.0", 
        "__shape__": "(0,)", 
        "__storage_type__": "0", 
        "__wd_mult__": "1.0"
      }, 
      "inputs": []
    }, 
    {
      "op": "null", 
      "name": "pydnet_0_75/stg2/blk2/btl_out/batchnorm1_running_var", 
      "attrs": {
        "__dtype__": "0", 
        "__init__": "ones", 
        "__lr_mult__": "1.0", 
        "__shape__": "(0,)", 
        "__storage_type__": "0", 
        "__wd_mult__": "1.0"
      }, 
      "inputs": []
    }, 
    {
      "op": "BatchNorm", 
      "name": "pydnet_0_75/stg2/blk2/btl_out/batchnorm1_fwd", 
      "attrs": {
        "axis": "1", 
        "eps": "1e-05", 
        "fix_gamma": "False", 
        "momentum": "0.9", 
        "use_global_stats": "False"
      }, 
      "inputs": [[540, 0, 0], [541, 0, 0], [542, 0, 0], [543, 0, 1], [544, 0, 1]]
    }, 
    {
      "op": "elemwise_add", 
      "name": "pydnet_0_75/stg2/blk2/_plus0", 
      "inputs": [[545, 0, 0], [511, 0, 0]]
    }, 
    {
      "op": "null", 
      "name": "pydnet_0_75/stg2/blk3/btl_in/batchnorm0_gamma", 
      "attrs": {
        "__dtype__": "0", 
        "__init__": "ones", 
        "__lr_mult__": "1.0", 
        "__shape__": "(0,)", 
        "__storage_type__": "0", 
        "__wd_mult__": "1.0"
      }, 
      "inputs": []
    }, 
    {
      "op": "null", 
      "name": "pydnet_0_75/stg2/blk3/btl_in/batchnorm0_beta", 
      "attrs": {
        "__dtype__": "0", 
        "__init__": "zeros", 
        "__lr_mult__": "1.0", 
        "__shape__": "(0,)", 
        "__storage_type__": "0", 
        "__wd_mult__": "1.0"
      }, 
      "inputs": []
    }, 
    {
      "op": "null", 
      "name": "pydnet_0_75/stg2/blk3/btl_in/batchnorm0_running_mean", 
      "attrs": {
        "__dtype__": "0", 
        "__init__": "zeros", 
        "__lr_mult__": "1.0", 
        "__shape__": "(0,)", 
        "__storage_type__": "0", 
        "__wd_mult__": "1.0"
      }, 
      "inputs": []
    }, 
    {
      "op": "null", 
      "name": "pydnet_0_75/stg2/blk3/btl_in/batchnorm0_running_var", 
      "attrs": {
        "__dtype__": "0", 
        "__init__": "ones", 
        "__lr_mult__": "1.0", 
        "__shape__": "(0,)", 
        "__storage_type__": "0", 
        "__wd_mult__": "1.0"
      }, 
      "inputs": []
    }, 
    {
      "op": "BatchNorm", 
      "name": "pydnet_0_75/stg2/blk3/btl_in/batchnorm0_fwd", 
      "attrs": {
        "axis": "1", 
        "eps": "1e-05", 
        "fix_gamma": "False", 
        "momentum": "0.9", 
        "use_global_stats": "False"
      }, 
      "inputs": [[546, 0, 0], [547, 0, 0], [548, 0, 0], [549, 0, 1], [550, 0, 1]]
    }, 
    {
      "op": "Activation", 
      "name": "pydnet_0_75/stg2/blk3/btl_in/relu0_fwd", 
      "attrs": {"act_type": "relu"}, 
      "inputs": [[551, 0, 0]]
    }, 
    {
      "op": "null", 
      "name": "pydnet_0_75/stg2/blk3/btl_in/conv0_weight", 
      "attrs": {
        "__dtype__": "0", 
        "__lr_mult__": "1.0", 
        "__shape__": "(192, 0, 1, 1)", 
        "__storage_type__": "0", 
        "__wd_mult__": "1.0"
      }, 
      "inputs": []
    }, 
    {
      "op": "Convolution", 
      "name": "pydnet_0_75/stg2/blk3/btl_in/conv0_fwd", 
      "attrs": {
        "dilate": "(1, 1)", 
        "kernel": "(1, 1)", 
        "layout": "NCHW", 
        "no_bias": "True", 
        "num_filter": "192", 
        "num_group": "1", 
        "pad": "(0, 0)", 
        "stride": "(1, 1)"
      }, 
      "inputs": [[552, 0, 0], [553, 0, 0]]
    }, 
    {
      "op": "null", 
      "name": "pydnet_0_75/stg2/blk3/btl_in/batchnorm1_gamma", 
      "attrs": {
        "__dtype__": "0", 
        "__init__": "ones", 
        "__lr_mult__": "1.0", 
        "__shape__": "(0,)", 
        "__storage_type__": "0", 
        "__wd_mult__": "1.0"
      }, 
      "inputs": []
    }, 
    {
      "op": "null", 
      "name": "pydnet_0_75/stg2/blk3/btl_in/batchnorm1_beta", 
      "attrs": {
        "__dtype__": "0", 
        "__init__": "zeros", 
        "__lr_mult__": "1.0", 
        "__shape__": "(0,)", 
        "__storage_type__": "0", 
        "__wd_mult__": "1.0"
      }, 
      "inputs": []
    }, 
    {
      "op": "null", 
      "name": "pydnet_0_75/stg2/blk3/btl_in/batchnorm1_running_mean", 
      "attrs": {
        "__dtype__": "0", 
        "__init__": "zeros", 
        "__lr_mult__": "1.0", 
        "__shape__": "(0,)", 
        "__storage_type__": "0", 
        "__wd_mult__": "1.0"
      }, 
      "inputs": []
    }, 
    {
      "op": "null", 
      "name": "pydnet_0_75/stg2/blk3/btl_in/batchnorm1_running_var", 
      "attrs": {
        "__dtype__": "0", 
        "__init__": "ones", 
        "__lr_mult__": "1.0", 
        "__shape__": "(0,)", 
        "__storage_type__": "0", 
        "__wd_mult__": "1.0"
      }, 
      "inputs": []
    }, 
    {
      "op": "BatchNorm", 
      "name": "pydnet_0_75/stg2/blk3/btl_in/batchnorm1_fwd", 
      "attrs": {
        "axis": "1", 
        "eps": "1e-05", 
        "fix_gamma": "False", 
        "momentum": "0.9", 
        "use_global_stats": "False"
      }, 
      "inputs": [[554, 0, 0], [555, 0, 0], [556, 0, 0], [557, 0, 1], [558, 0, 1]]
    }, 
    {
      "op": "Activation", 
      "name": "pydnet_0_75/stg2/blk3/btl_in/relu1_fwd", 
      "attrs": {"act_type": "relu"}, 
      "inputs": [[559, 0, 0]]
    }, 
    {
      "op": "null", 
      "name": "pydnet_0_75/stg2/blk3/conv3/conv0_weight", 
      "attrs": {
        "__dtype__": "0", 
        "__lr_mult__": "1.0", 
        "__shape__": "(192, 0, 3, 3)", 
        "__storage_type__": "0", 
        "__wd_mult__": "1.0"
      }, 
      "inputs": []
    }, 
    {
      "op": "Convolution", 
      "name": "pydnet_0_75/stg2/blk3/conv3/conv0_fwd", 
      "attrs": {
        "dilate": "(1, 1)", 
        "kernel": "(3, 3)", 
        "layout": "NCHW", 
        "no_bias": "True", 
        "num_filter": "192", 
        "num_group": "192", 
        "pad": "(1, 1)", 
        "stride": "(1, 1)"
      }, 
      "inputs": [[560, 0, 0], [561, 0, 0]]
    }, 
    {
      "op": "null", 
      "name": "pydnet_0_75/stg2/blk3/conv5/conv0_weight", 
      "attrs": {
        "__dtype__": "0", 
        "__lr_mult__": "1.0", 
        "__shape__": "(192, 0, 5, 5)", 
        "__storage_type__": "0", 
        "__wd_mult__": "1.0"
      }, 
      "inputs": []
    }, 
    {
      "op": "Convolution", 
      "name": "pydnet_0_75/stg2/blk3/conv5/conv0_fwd", 
      "attrs": {
        "dilate": "(1, 1)", 
        "kernel": "(5, 5)", 
        "layout": "NCHW", 
        "no_bias": "True", 
        "num_filter": "192", 
        "num_group": "192", 
        "pad": "(2, 2)", 
        "stride": "(1, 1)"
      }, 
      "inputs": [[560, 0, 0], [563, 0, 0]]
    }, 
    {
      "op": "null", 
      "name": "pydnet_0_75/stg2/blk3/conv7/conv0_weight", 
      "attrs": {
        "__dtype__": "0", 
        "__lr_mult__": "1.0", 
        "__shape__": "(192, 0, 7, 7)", 
        "__storage_type__": "0", 
        "__wd_mult__": "1.0"
      }, 
      "inputs": []
    }, 
    {
      "op": "Convolution", 
      "name": "pydnet_0_75/stg2/blk3/conv7/conv0_fwd", 
      "attrs": {
        "dilate": "(1, 1)", 
        "kernel": "(7, 7)", 
        "layout": "NCHW", 
        "no_bias": "True", 
        "num_filter": "192", 
        "num_group": "192", 
        "pad": "(3, 3)", 
        "stride": "(1, 1)"
      }, 
      "inputs": [[560, 0, 0], [565, 0, 0]]
    }, 
    {
      "op": "Concat", 
      "name": "pydnet_0_75/stg2/blk3/concat0", 
      "attrs": {
        "dim": "1", 
        "num_args": "3"
      }, 
      "inputs": [[562, 0, 0], [564, 0, 0], [566, 0, 0]]
    }, 
    {
      "op": "null", 
      "name": "pydnet_0_75/stg2/blk3/btl_out/batchnorm0_gamma", 
      "attrs": {
        "__dtype__": "0", 
        "__init__": "ones", 
        "__lr_mult__": "1.0", 
        "__shape__": "(0,)", 
        "__storage_type__": "0", 
        "__wd_mult__": "1.0"
      }, 
      "inputs": []
    }, 
    {
      "op": "null", 
      "name": "pydnet_0_75/stg2/blk3/btl_out/batchnorm0_beta", 
      "attrs": {
        "__dtype__": "0", 
        "__init__": "zeros", 
        "__lr_mult__": "1.0", 
        "__shape__": "(0,)", 
        "__storage_type__": "0", 
        "__wd_mult__": "1.0"
      }, 
      "inputs": []
    }, 
    {
      "op": "null", 
      "name": "pydnet_0_75/stg2/blk3/btl_out/batchnorm0_running_mean", 
      "attrs": {
        "__dtype__": "0", 
        "__init__": "zeros", 
        "__lr_mult__": "1.0", 
        "__shape__": "(0,)", 
        "__storage_type__": "0", 
        "__wd_mult__": "1.0"
      }, 
      "inputs": []
    }, 
    {
      "op": "null", 
      "name": "pydnet_0_75/stg2/blk3/btl_out/batchnorm0_running_var", 
      "attrs": {
        "__dtype__": "0", 
        "__init__": "ones", 
        "__lr_mult__": "1.0", 
        "__shape__": "(0,)", 
        "__storage_type__": "0", 
        "__wd_mult__": "1.0"
      }, 
      "inputs": []
    }, 
    {
      "op": "BatchNorm", 
      "name": "pydnet_0_75/stg2/blk3/btl_out/batchnorm0_fwd", 
      "attrs": {
        "axis": "1", 
        "eps": "1e-05", 
        "fix_gamma": "False", 
        "momentum": "0.9", 
        "use_global_stats": "False"
      }, 
      "inputs": [[567, 0, 0], [568, 0, 0], [569, 0, 0], [570, 0, 1], [571, 0, 1]]
    }, 
    {
      "op": "Activation", 
      "name": "pydnet_0_75/stg2/blk3/btl_out/relu0_fwd", 
      "attrs": {"act_type": "relu"}, 
      "inputs": [[572, 0, 0]]
    }, 
    {
      "op": "null", 
      "name": "pydnet_0_75/stg2/blk3/btl_out/conv0_weight", 
      "attrs": {
        "__dtype__": "0", 
        "__lr_mult__": "1.0", 
        "__shape__": "(256, 0, 1, 1)", 
        "__storage_type__": "0", 
        "__wd_mult__": "1.0"
      }, 
      "inputs": []
    }, 
    {
      "op": "Convolution", 
      "name": "pydnet_0_75/stg2/blk3/btl_out/conv0_fwd", 
      "attrs": {
        "dilate": "(1, 1)", 
        "kernel": "(1, 1)", 
        "layout": "NCHW", 
        "no_bias": "True", 
        "num_filter": "256", 
        "num_group": "1", 
        "pad": "(0, 0)", 
        "stride": "(1, 1)"
      }, 
      "inputs": [[573, 0, 0], [574, 0, 0]]
    }, 
    {
      "op": "null", 
      "name": "pydnet_0_75/stg2/blk3/btl_out/batchnorm1_gamma", 
      "attrs": {
        "__dtype__": "0", 
        "__init__": "ones", 
        "__lr_mult__": "1.0", 
        "__shape__": "(0,)", 
        "__storage_type__": "0", 
        "__wd_mult__": "1.0"
      }, 
      "inputs": []
    }, 
    {
      "op": "null", 
      "name": "pydnet_0_75/stg2/blk3/btl_out/batchnorm1_beta", 
      "attrs": {
        "__dtype__": "0", 
        "__init__": "zeros", 
        "__lr_mult__": "1.0", 
        "__shape__": "(0,)", 
        "__storage_type__": "0", 
        "__wd_mult__": "1.0"
      }, 
      "inputs": []
    }, 
    {
      "op": "null", 
      "name": "pydnet_0_75/stg2/blk3/btl_out/batchnorm1_running_mean", 
      "attrs": {
        "__dtype__": "0", 
        "__init__": "zeros", 
        "__lr_mult__": "1.0", 
        "__shape__": "(0,)", 
        "__storage_type__": "0", 
        "__wd_mult__": "1.0"
      }, 
      "inputs": []
    }, 
    {
      "op": "null", 
      "name": "pydnet_0_75/stg2/blk3/btl_out/batchnorm1_running_var", 
      "attrs": {
        "__dtype__": "0", 
        "__init__": "ones", 
        "__lr_mult__": "1.0", 
        "__shape__": "(0,)", 
        "__storage_type__": "0", 
        "__wd_mult__": "1.0"
      }, 
      "inputs": []
    }, 
    {
      "op": "BatchNorm", 
      "name": "pydnet_0_75/stg2/blk3/btl_out/batchnorm1_fwd", 
      "attrs": {
        "axis": "1", 
        "eps": "1e-05", 
        "fix_gamma": "False", 
        "momentum": "0.9", 
        "use_global_stats": "False"
      }, 
      "inputs": [[575, 0, 0], [576, 0, 0], [577, 0, 0], [578, 0, 1], [579, 0, 1]]
    }, 
    {
      "op": "elemwise_add", 
      "name": "pydnet_0_75/stg2/blk3/_plus0", 
      "inputs": [[580, 0, 0], [546, 0, 0]]
    }, 
    {
      "op": "null", 
      "name": "pydnet_0_75/stg2/blk4/btl_in/batchnorm0_gamma", 
      "attrs": {
        "__dtype__": "0", 
        "__init__": "ones", 
        "__lr_mult__": "1.0", 
        "__shape__": "(0,)", 
        "__storage_type__": "0", 
        "__wd_mult__": "1.0"
      }, 
      "inputs": []
    }, 
    {
      "op": "null", 
      "name": "pydnet_0_75/stg2/blk4/btl_in/batchnorm0_beta", 
      "attrs": {
        "__dtype__": "0", 
        "__init__": "zeros", 
        "__lr_mult__": "1.0", 
        "__shape__": "(0,)", 
        "__storage_type__": "0", 
        "__wd_mult__": "1.0"
      }, 
      "inputs": []
    }, 
    {
      "op": "null", 
      "name": "pydnet_0_75/stg2/blk4/btl_in/batchnorm0_running_mean", 
      "attrs": {
        "__dtype__": "0", 
        "__init__": "zeros", 
        "__lr_mult__": "1.0", 
        "__shape__": "(0,)", 
        "__storage_type__": "0", 
        "__wd_mult__": "1.0"
      }, 
      "inputs": []
    }, 
    {
      "op": "null", 
      "name": "pydnet_0_75/stg2/blk4/btl_in/batchnorm0_running_var", 
      "attrs": {
        "__dtype__": "0", 
        "__init__": "ones", 
        "__lr_mult__": "1.0", 
        "__shape__": "(0,)", 
        "__storage_type__": "0", 
        "__wd_mult__": "1.0"
      }, 
      "inputs": []
    }, 
    {
      "op": "BatchNorm", 
      "name": "pydnet_0_75/stg2/blk4/btl_in/batchnorm0_fwd", 
      "attrs": {
        "axis": "1", 
        "eps": "1e-05", 
        "fix_gamma": "False", 
        "momentum": "0.9", 
        "use_global_stats": "False"
      }, 
      "inputs": [[581, 0, 0], [582, 0, 0], [583, 0, 0], [584, 0, 1], [585, 0, 1]]
    }, 
    {
      "op": "Activation", 
      "name": "pydnet_0_75/stg2/blk4/btl_in/relu0_fwd", 
      "attrs": {"act_type": "relu"}, 
      "inputs": [[586, 0, 0]]
    }, 
    {
      "op": "null", 
      "name": "pydnet_0_75/stg2/blk4/btl_in/conv0_weight", 
      "attrs": {
        "__dtype__": "0", 
        "__lr_mult__": "1.0", 
        "__shape__": "(192, 0, 1, 1)", 
        "__storage_type__": "0", 
        "__wd_mult__": "1.0"
      }, 
      "inputs": []
    }, 
    {
      "op": "Convolution", 
      "name": "pydnet_0_75/stg2/blk4/btl_in/conv0_fwd", 
      "attrs": {
        "dilate": "(1, 1)", 
        "kernel": "(1, 1)", 
        "layout": "NCHW", 
        "no_bias": "True", 
        "num_filter": "192", 
        "num_group": "1", 
        "pad": "(0, 0)", 
        "stride": "(1, 1)"
      }, 
      "inputs": [[587, 0, 0], [588, 0, 0]]
    }, 
    {
      "op": "null", 
      "name": "pydnet_0_75/stg2/blk4/btl_in/batchnorm1_gamma", 
      "attrs": {
        "__dtype__": "0", 
        "__init__": "ones", 
        "__lr_mult__": "1.0", 
        "__shape__": "(0,)", 
        "__storage_type__": "0", 
        "__wd_mult__": "1.0"
      }, 
      "inputs": []
    }, 
    {
      "op": "null", 
      "name": "pydnet_0_75/stg2/blk4/btl_in/batchnorm1_beta", 
      "attrs": {
        "__dtype__": "0", 
        "__init__": "zeros", 
        "__lr_mult__": "1.0", 
        "__shape__": "(0,)", 
        "__storage_type__": "0", 
        "__wd_mult__": "1.0"
      }, 
      "inputs": []
    }, 
    {
      "op": "null", 
      "name": "pydnet_0_75/stg2/blk4/btl_in/batchnorm1_running_mean", 
      "attrs": {
        "__dtype__": "0", 
        "__init__": "zeros", 
        "__lr_mult__": "1.0", 
        "__shape__": "(0,)", 
        "__storage_type__": "0", 
        "__wd_mult__": "1.0"
      }, 
      "inputs": []
    }, 
    {
      "op": "null", 
      "name": "pydnet_0_75/stg2/blk4/btl_in/batchnorm1_running_var", 
      "attrs": {
        "__dtype__": "0", 
        "__init__": "ones", 
        "__lr_mult__": "1.0", 
        "__shape__": "(0,)", 
        "__storage_type__": "0", 
        "__wd_mult__": "1.0"
      }, 
      "inputs": []
    }, 
    {
      "op": "BatchNorm", 
      "name": "pydnet_0_75/stg2/blk4/btl_in/batchnorm1_fwd", 
      "attrs": {
        "axis": "1", 
        "eps": "1e-05", 
        "fix_gamma": "False", 
        "momentum": "0.9", 
        "use_global_stats": "False"
      }, 
      "inputs": [[589, 0, 0], [590, 0, 0], [591, 0, 0], [592, 0, 1], [593, 0, 1]]
    }, 
    {
      "op": "Activation", 
      "name": "pydnet_0_75/stg2/blk4/btl_in/relu1_fwd", 
      "attrs": {"act_type": "relu"}, 
      "inputs": [[594, 0, 0]]
    }, 
    {
      "op": "null", 
      "name": "pydnet_0_75/stg2/blk4/conv3/conv0_weight", 
      "attrs": {
        "__dtype__": "0", 
        "__lr_mult__": "1.0", 
        "__shape__": "(192, 0, 3, 3)", 
        "__storage_type__": "0", 
        "__wd_mult__": "1.0"
      }, 
      "inputs": []
    }, 
    {
      "op": "Convolution", 
      "name": "pydnet_0_75/stg2/blk4/conv3/conv0_fwd", 
      "attrs": {
        "dilate": "(1, 1)", 
        "kernel": "(3, 3)", 
        "layout": "NCHW", 
        "no_bias": "True", 
        "num_filter": "192", 
        "num_group": "192", 
        "pad": "(1, 1)", 
        "stride": "(1, 1)"
      }, 
      "inputs": [[595, 0, 0], [596, 0, 0]]
    }, 
    {
      "op": "null", 
      "name": "pydnet_0_75/stg2/blk4/conv5/conv0_weight", 
      "attrs": {
        "__dtype__": "0", 
        "__lr_mult__": "1.0", 
        "__shape__": "(192, 0, 5, 5)", 
        "__storage_type__": "0", 
        "__wd_mult__": "1.0"
      }, 
      "inputs": []
    }, 
    {
      "op": "Convolution", 
      "name": "pydnet_0_75/stg2/blk4/conv5/conv0_fwd", 
      "attrs": {
        "dilate": "(1, 1)", 
        "kernel": "(5, 5)", 
        "layout": "NCHW", 
        "no_bias": "True", 
        "num_filter": "192", 
        "num_group": "192", 
        "pad": "(2, 2)", 
        "stride": "(1, 1)"
      }, 
      "inputs": [[595, 0, 0], [598, 0, 0]]
    }, 
    {
      "op": "null", 
      "name": "pydnet_0_75/stg2/blk4/conv7/conv0_weight", 
      "attrs": {
        "__dtype__": "0", 
        "__lr_mult__": "1.0", 
        "__shape__": "(192, 0, 7, 7)", 
        "__storage_type__": "0", 
        "__wd_mult__": "1.0"
      }, 
      "inputs": []
    }, 
    {
      "op": "Convolution", 
      "name": "pydnet_0_75/stg2/blk4/conv7/conv0_fwd", 
      "attrs": {
        "dilate": "(1, 1)", 
        "kernel": "(7, 7)", 
        "layout": "NCHW", 
        "no_bias": "True", 
        "num_filter": "192", 
        "num_group": "192", 
        "pad": "(3, 3)", 
        "stride": "(1, 1)"
      }, 
      "inputs": [[595, 0, 0], [600, 0, 0]]
    }, 
    {
      "op": "Concat", 
      "name": "pydnet_0_75/stg2/blk4/concat0", 
      "attrs": {
        "dim": "1", 
        "num_args": "3"
      }, 
      "inputs": [[597, 0, 0], [599, 0, 0], [601, 0, 0]]
    }, 
    {
      "op": "null", 
      "name": "pydnet_0_75/stg2/blk4/btl_out/batchnorm0_gamma", 
      "attrs": {
        "__dtype__": "0", 
        "__init__": "ones", 
        "__lr_mult__": "1.0", 
        "__shape__": "(0,)", 
        "__storage_type__": "0", 
        "__wd_mult__": "1.0"
      }, 
      "inputs": []
    }, 
    {
      "op": "null", 
      "name": "pydnet_0_75/stg2/blk4/btl_out/batchnorm0_beta", 
      "attrs": {
        "__dtype__": "0", 
        "__init__": "zeros", 
        "__lr_mult__": "1.0", 
        "__shape__": "(0,)", 
        "__storage_type__": "0", 
        "__wd_mult__": "1.0"
      }, 
      "inputs": []
    }, 
    {
      "op": "null", 
      "name": "pydnet_0_75/stg2/blk4/btl_out/batchnorm0_running_mean", 
      "attrs": {
        "__dtype__": "0", 
        "__init__": "zeros", 
        "__lr_mult__": "1.0", 
        "__shape__": "(0,)", 
        "__storage_type__": "0", 
        "__wd_mult__": "1.0"
      }, 
      "inputs": []
    }, 
    {
      "op": "null", 
      "name": "pydnet_0_75/stg2/blk4/btl_out/batchnorm0_running_var", 
      "attrs": {
        "__dtype__": "0", 
        "__init__": "ones", 
        "__lr_mult__": "1.0", 
        "__shape__": "(0,)", 
        "__storage_type__": "0", 
        "__wd_mult__": "1.0"
      }, 
      "inputs": []
    }, 
    {
      "op": "BatchNorm", 
      "name": "pydnet_0_75/stg2/blk4/btl_out/batchnorm0_fwd", 
      "attrs": {
        "axis": "1", 
        "eps": "1e-05", 
        "fix_gamma": "False", 
        "momentum": "0.9", 
        "use_global_stats": "False"
      }, 
      "inputs": [[602, 0, 0], [603, 0, 0], [604, 0, 0], [605, 0, 1], [606, 0, 1]]
    }, 
    {
      "op": "Activation", 
      "name": "pydnet_0_75/stg2/blk4/btl_out/relu0_fwd", 
      "attrs": {"act_type": "relu"}, 
      "inputs": [[607, 0, 0]]
    }, 
    {
      "op": "null", 
      "name": "pydnet_0_75/stg2/blk4/btl_out/conv0_weight", 
      "attrs": {
        "__dtype__": "0", 
        "__lr_mult__": "1.0", 
        "__shape__": "(256, 0, 1, 1)", 
        "__storage_type__": "0", 
        "__wd_mult__": "1.0"
      }, 
      "inputs": []
    }, 
    {
      "op": "Convolution", 
      "name": "pydnet_0_75/stg2/blk4/btl_out/conv0_fwd", 
      "attrs": {
        "dilate": "(1, 1)", 
        "kernel": "(1, 1)", 
        "layout": "NCHW", 
        "no_bias": "True", 
        "num_filter": "256", 
        "num_group": "1", 
        "pad": "(0, 0)", 
        "stride": "(1, 1)"
      }, 
      "inputs": [[608, 0, 0], [609, 0, 0]]
    }, 
    {
      "op": "null", 
      "name": "pydnet_0_75/stg2/blk4/btl_out/batchnorm1_gamma", 
      "attrs": {
        "__dtype__": "0", 
        "__init__": "ones", 
        "__lr_mult__": "1.0", 
        "__shape__": "(0,)", 
        "__storage_type__": "0", 
        "__wd_mult__": "1.0"
      }, 
      "inputs": []
    }, 
    {
      "op": "null", 
      "name": "pydnet_0_75/stg2/blk4/btl_out/batchnorm1_beta", 
      "attrs": {
        "__dtype__": "0", 
        "__init__": "zeros", 
        "__lr_mult__": "1.0", 
        "__shape__": "(0,)", 
        "__storage_type__": "0", 
        "__wd_mult__": "1.0"
      }, 
      "inputs": []
    }, 
    {
      "op": "null", 
      "name": "pydnet_0_75/stg2/blk4/btl_out/batchnorm1_running_mean", 
      "attrs": {
        "__dtype__": "0", 
        "__init__": "zeros", 
        "__lr_mult__": "1.0", 
        "__shape__": "(0,)", 
        "__storage_type__": "0", 
        "__wd_mult__": "1.0"
      }, 
      "inputs": []
    }, 
    {
      "op": "null", 
      "name": "pydnet_0_75/stg2/blk4/btl_out/batchnorm1_running_var", 
      "attrs": {
        "__dtype__": "0", 
        "__init__": "ones", 
        "__lr_mult__": "1.0", 
        "__shape__": "(0,)", 
        "__storage_type__": "0", 
        "__wd_mult__": "1.0"
      }, 
      "inputs": []
    }, 
    {
      "op": "BatchNorm", 
      "name": "pydnet_0_75/stg2/blk4/btl_out/batchnorm1_fwd", 
      "attrs": {
        "axis": "1", 
        "eps": "1e-05", 
        "fix_gamma": "False", 
        "momentum": "0.9", 
        "use_global_stats": "False"
      }, 
      "inputs": [[610, 0, 0], [611, 0, 0], [612, 0, 0], [613, 0, 1], [614, 0, 1]]
    }, 
    {
      "op": "elemwise_add", 
      "name": "pydnet_0_75/stg2/blk4/_plus0", 
      "inputs": [[615, 0, 0], [581, 0, 0]]
    }, 
    {
      "op": "null", 
      "name": "pydnet_0_75/stg2/blk5/btl_in/batchnorm0_gamma", 
      "attrs": {
        "__dtype__": "0", 
        "__init__": "ones", 
        "__lr_mult__": "1.0", 
        "__shape__": "(0,)", 
        "__storage_type__": "0", 
        "__wd_mult__": "1.0"
      }, 
      "inputs": []
    }, 
    {
      "op": "null", 
      "name": "pydnet_0_75/stg2/blk5/btl_in/batchnorm0_beta", 
      "attrs": {
        "__dtype__": "0", 
        "__init__": "zeros", 
        "__lr_mult__": "1.0", 
        "__shape__": "(0,)", 
        "__storage_type__": "0", 
        "__wd_mult__": "1.0"
      }, 
      "inputs": []
    }, 
    {
      "op": "null", 
      "name": "pydnet_0_75/stg2/blk5/btl_in/batchnorm0_running_mean", 
      "attrs": {
        "__dtype__": "0", 
        "__init__": "zeros", 
        "__lr_mult__": "1.0", 
        "__shape__": "(0,)", 
        "__storage_type__": "0", 
        "__wd_mult__": "1.0"
      }, 
      "inputs": []
    }, 
    {
      "op": "null", 
      "name": "pydnet_0_75/stg2/blk5/btl_in/batchnorm0_running_var", 
      "attrs": {
        "__dtype__": "0", 
        "__init__": "ones", 
        "__lr_mult__": "1.0", 
        "__shape__": "(0,)", 
        "__storage_type__": "0", 
        "__wd_mult__": "1.0"
      }, 
      "inputs": []
    }, 
    {
      "op": "BatchNorm", 
      "name": "pydnet_0_75/stg2/blk5/btl_in/batchnorm0_fwd", 
      "attrs": {
        "axis": "1", 
        "eps": "1e-05", 
        "fix_gamma": "False", 
        "momentum": "0.9", 
        "use_global_stats": "False"
      }, 
      "inputs": [[616, 0, 0], [617, 0, 0], [618, 0, 0], [619, 0, 1], [620, 0, 1]]
    }, 
    {
      "op": "Activation", 
      "name": "pydnet_0_75/stg2/blk5/btl_in/relu0_fwd", 
      "attrs": {"act_type": "relu"}, 
      "inputs": [[621, 0, 0]]
    }, 
    {
      "op": "null", 
      "name": "pydnet_0_75/stg2/blk5/btl_in/conv0_weight", 
      "attrs": {
        "__dtype__": "0", 
        "__lr_mult__": "1.0", 
        "__shape__": "(192, 0, 1, 1)", 
        "__storage_type__": "0", 
        "__wd_mult__": "1.0"
      }, 
      "inputs": []
    }, 
    {
      "op": "Convolution", 
      "name": "pydnet_0_75/stg2/blk5/btl_in/conv0_fwd", 
      "attrs": {
        "dilate": "(1, 1)", 
        "kernel": "(1, 1)", 
        "layout": "NCHW", 
        "no_bias": "True", 
        "num_filter": "192", 
        "num_group": "1", 
        "pad": "(0, 0)", 
        "stride": "(1, 1)"
      }, 
      "inputs": [[622, 0, 0], [623, 0, 0]]
    }, 
    {
      "op": "null", 
      "name": "pydnet_0_75/stg2/blk5/btl_in/batchnorm1_gamma", 
      "attrs": {
        "__dtype__": "0", 
        "__init__": "ones", 
        "__lr_mult__": "1.0", 
        "__shape__": "(0,)", 
        "__storage_type__": "0", 
        "__wd_mult__": "1.0"
      }, 
      "inputs": []
    }, 
    {
      "op": "null", 
      "name": "pydnet_0_75/stg2/blk5/btl_in/batchnorm1_beta", 
      "attrs": {
        "__dtype__": "0", 
        "__init__": "zeros", 
        "__lr_mult__": "1.0", 
        "__shape__": "(0,)", 
        "__storage_type__": "0", 
        "__wd_mult__": "1.0"
      }, 
      "inputs": []
    }, 
    {
      "op": "null", 
      "name": "pydnet_0_75/stg2/blk5/btl_in/batchnorm1_running_mean", 
      "attrs": {
        "__dtype__": "0", 
        "__init__": "zeros", 
        "__lr_mult__": "1.0", 
        "__shape__": "(0,)", 
        "__storage_type__": "0", 
        "__wd_mult__": "1.0"
      }, 
      "inputs": []
    }, 
    {
      "op": "null", 
      "name": "pydnet_0_75/stg2/blk5/btl_in/batchnorm1_running_var", 
      "attrs": {
        "__dtype__": "0", 
        "__init__": "ones", 
        "__lr_mult__": "1.0", 
        "__shape__": "(0,)", 
        "__storage_type__": "0", 
        "__wd_mult__": "1.0"
      }, 
      "inputs": []
    }, 
    {
      "op": "BatchNorm", 
      "name": "pydnet_0_75/stg2/blk5/btl_in/batchnorm1_fwd", 
      "attrs": {
        "axis": "1", 
        "eps": "1e-05", 
        "fix_gamma": "False", 
        "momentum": "0.9", 
        "use_global_stats": "False"
      }, 
      "inputs": [[624, 0, 0], [625, 0, 0], [626, 0, 0], [627, 0, 1], [628, 0, 1]]
    }, 
    {
      "op": "Activation", 
      "name": "pydnet_0_75/stg2/blk5/btl_in/relu1_fwd", 
      "attrs": {"act_type": "relu"}, 
      "inputs": [[629, 0, 0]]
    }, 
    {
      "op": "null", 
      "name": "pydnet_0_75/stg2/blk5/conv3/conv0_weight", 
      "attrs": {
        "__dtype__": "0", 
        "__lr_mult__": "1.0", 
        "__shape__": "(192, 0, 3, 3)", 
        "__storage_type__": "0", 
        "__wd_mult__": "1.0"
      }, 
      "inputs": []
    }, 
    {
      "op": "Convolution", 
      "name": "pydnet_0_75/stg2/blk5/conv3/conv0_fwd", 
      "attrs": {
        "dilate": "(1, 1)", 
        "kernel": "(3, 3)", 
        "layout": "NCHW", 
        "no_bias": "True", 
        "num_filter": "192", 
        "num_group": "192", 
        "pad": "(1, 1)", 
        "stride": "(1, 1)"
      }, 
      "inputs": [[630, 0, 0], [631, 0, 0]]
    }, 
    {
      "op": "null", 
      "name": "pydnet_0_75/stg2/blk5/conv5/conv0_weight", 
      "attrs": {
        "__dtype__": "0", 
        "__lr_mult__": "1.0", 
        "__shape__": "(192, 0, 5, 5)", 
        "__storage_type__": "0", 
        "__wd_mult__": "1.0"
      }, 
      "inputs": []
    }, 
    {
      "op": "Convolution", 
      "name": "pydnet_0_75/stg2/blk5/conv5/conv0_fwd", 
      "attrs": {
        "dilate": "(1, 1)", 
        "kernel": "(5, 5)", 
        "layout": "NCHW", 
        "no_bias": "True", 
        "num_filter": "192", 
        "num_group": "192", 
        "pad": "(2, 2)", 
        "stride": "(1, 1)"
      }, 
      "inputs": [[630, 0, 0], [633, 0, 0]]
    }, 
    {
      "op": "null", 
      "name": "pydnet_0_75/stg2/blk5/conv7/conv0_weight", 
      "attrs": {
        "__dtype__": "0", 
        "__lr_mult__": "1.0", 
        "__shape__": "(192, 0, 7, 7)", 
        "__storage_type__": "0", 
        "__wd_mult__": "1.0"
      }, 
      "inputs": []
    }, 
    {
      "op": "Convolution", 
      "name": "pydnet_0_75/stg2/blk5/conv7/conv0_fwd", 
      "attrs": {
        "dilate": "(1, 1)", 
        "kernel": "(7, 7)", 
        "layout": "NCHW", 
        "no_bias": "True", 
        "num_filter": "192", 
        "num_group": "192", 
        "pad": "(3, 3)", 
        "stride": "(1, 1)"
      }, 
      "inputs": [[630, 0, 0], [635, 0, 0]]
    }, 
    {
      "op": "Concat", 
      "name": "pydnet_0_75/stg2/blk5/concat0", 
      "attrs": {
        "dim": "1", 
        "num_args": "3"
      }, 
      "inputs": [[632, 0, 0], [634, 0, 0], [636, 0, 0]]
    }, 
    {
      "op": "null", 
      "name": "pydnet_0_75/stg2/blk5/btl_out/batchnorm0_gamma", 
      "attrs": {
        "__dtype__": "0", 
        "__init__": "ones", 
        "__lr_mult__": "1.0", 
        "__shape__": "(0,)", 
        "__storage_type__": "0", 
        "__wd_mult__": "1.0"
      }, 
      "inputs": []
    }, 
    {
      "op": "null", 
      "name": "pydnet_0_75/stg2/blk5/btl_out/batchnorm0_beta", 
      "attrs": {
        "__dtype__": "0", 
        "__init__": "zeros", 
        "__lr_mult__": "1.0", 
        "__shape__": "(0,)", 
        "__storage_type__": "0", 
        "__wd_mult__": "1.0"
      }, 
      "inputs": []
    }, 
    {
      "op": "null", 
      "name": "pydnet_0_75/stg2/blk5/btl_out/batchnorm0_running_mean", 
      "attrs": {
        "__dtype__": "0", 
        "__init__": "zeros", 
        "__lr_mult__": "1.0", 
        "__shape__": "(0,)", 
        "__storage_type__": "0", 
        "__wd_mult__": "1.0"
      }, 
      "inputs": []
    }, 
    {
      "op": "null", 
      "name": "pydnet_0_75/stg2/blk5/btl_out/batchnorm0_running_var", 
      "attrs": {
        "__dtype__": "0", 
        "__init__": "ones", 
        "__lr_mult__": "1.0", 
        "__shape__": "(0,)", 
        "__storage_type__": "0", 
        "__wd_mult__": "1.0"
      }, 
      "inputs": []
    }, 
    {
      "op": "BatchNorm", 
      "name": "pydnet_0_75/stg2/blk5/btl_out/batchnorm0_fwd", 
      "attrs": {
        "axis": "1", 
        "eps": "1e-05", 
        "fix_gamma": "False", 
        "momentum": "0.9", 
        "use_global_stats": "False"
      }, 
      "inputs": [[637, 0, 0], [638, 0, 0], [639, 0, 0], [640, 0, 1], [641, 0, 1]]
    }, 
    {
      "op": "Activation", 
      "name": "pydnet_0_75/stg2/blk5/btl_out/relu0_fwd", 
      "attrs": {"act_type": "relu"}, 
      "inputs": [[642, 0, 0]]
    }, 
    {
      "op": "null", 
      "name": "pydnet_0_75/stg2/blk5/btl_out/conv0_weight", 
      "attrs": {
        "__dtype__": "0", 
        "__lr_mult__": "1.0", 
        "__shape__": "(256, 0, 1, 1)", 
        "__storage_type__": "0", 
        "__wd_mult__": "1.0"
      }, 
      "inputs": []
    }, 
    {
      "op": "Convolution", 
      "name": "pydnet_0_75/stg2/blk5/btl_out/conv0_fwd", 
      "attrs": {
        "dilate": "(1, 1)", 
        "kernel": "(1, 1)", 
        "layout": "NCHW", 
        "no_bias": "True", 
        "num_filter": "256", 
        "num_group": "1", 
        "pad": "(0, 0)", 
        "stride": "(1, 1)"
      }, 
      "inputs": [[643, 0, 0], [644, 0, 0]]
    }, 
    {
      "op": "null", 
      "name": "pydnet_0_75/stg2/blk5/btl_out/batchnorm1_gamma", 
      "attrs": {
        "__dtype__": "0", 
        "__init__": "ones", 
        "__lr_mult__": "1.0", 
        "__shape__": "(0,)", 
        "__storage_type__": "0", 
        "__wd_mult__": "1.0"
      }, 
      "inputs": []
    }, 
    {
      "op": "null", 
      "name": "pydnet_0_75/stg2/blk5/btl_out/batchnorm1_beta", 
      "attrs": {
        "__dtype__": "0", 
        "__init__": "zeros", 
        "__lr_mult__": "1.0", 
        "__shape__": "(0,)", 
        "__storage_type__": "0", 
        "__wd_mult__": "1.0"
      }, 
      "inputs": []
    }, 
    {
      "op": "null", 
      "name": "pydnet_0_75/stg2/blk5/btl_out/batchnorm1_running_mean", 
      "attrs": {
        "__dtype__": "0", 
        "__init__": "zeros", 
        "__lr_mult__": "1.0", 
        "__shape__": "(0,)", 
        "__storage_type__": "0", 
        "__wd_mult__": "1.0"
      }, 
      "inputs": []
    }, 
    {
      "op": "null", 
      "name": "pydnet_0_75/stg2/blk5/btl_out/batchnorm1_running_var", 
      "attrs": {
        "__dtype__": "0", 
        "__init__": "ones", 
        "__lr_mult__": "1.0", 
        "__shape__": "(0,)", 
        "__storage_type__": "0", 
        "__wd_mult__": "1.0"
      }, 
      "inputs": []
    }, 
    {
      "op": "BatchNorm", 
      "name": "pydnet_0_75/stg2/blk5/btl_out/batchnorm1_fwd", 
      "attrs": {
        "axis": "1", 
        "eps": "1e-05", 
        "fix_gamma": "False", 
        "momentum": "0.9", 
        "use_global_stats": "False"
      }, 
      "inputs": [[645, 0, 0], [646, 0, 0], [647, 0, 0], [648, 0, 1], [649, 0, 1]]
    }, 
    {
      "op": "elemwise_add", 
      "name": "pydnet_0_75/stg2/blk5/_plus0", 
      "inputs": [[650, 0, 0], [616, 0, 0]]
    }, 
    {
      "op": "null", 
      "name": "pydnet_0_75/classifier/batchnorm0_gamma", 
      "attrs": {
        "__dtype__": "0", 
        "__init__": "ones", 
        "__lr_mult__": "1.0", 
        "__shape__": "(0,)", 
        "__storage_type__": "0", 
        "__wd_mult__": "1.0"
      }, 
      "inputs": []
    }, 
    {
      "op": "null", 
      "name": "pydnet_0_75/classifier/batchnorm0_beta", 
      "attrs": {
        "__dtype__": "0", 
        "__init__": "zeros", 
        "__lr_mult__": "1.0", 
        "__shape__": "(0,)", 
        "__storage_type__": "0", 
        "__wd_mult__": "1.0"
      }, 
      "inputs": []
    }, 
    {
      "op": "null", 
      "name": "pydnet_0_75/classifier/batchnorm0_running_mean", 
      "attrs": {
        "__dtype__": "0", 
        "__init__": "zeros", 
        "__lr_mult__": "1.0", 
        "__shape__": "(0,)", 
        "__storage_type__": "0", 
        "__wd_mult__": "1.0"
      }, 
      "inputs": []
    }, 
    {
      "op": "null", 
      "name": "pydnet_0_75/classifier/batchnorm0_running_var", 
      "attrs": {
        "__dtype__": "0", 
        "__init__": "ones", 
        "__lr_mult__": "1.0", 
        "__shape__": "(0,)", 
        "__storage_type__": "0", 
        "__wd_mult__": "1.0"
      }, 
      "inputs": []
    }, 
    {
      "op": "BatchNorm", 
      "name": "pydnet_0_75/classifier/batchnorm0_fwd", 
      "attrs": {
        "axis": "1", 
        "eps": "1e-05", 
        "fix_gamma": "False", 
        "momentum": "0.9", 
        "use_global_stats": "False"
      }, 
      "inputs": [[651, 0, 0], [652, 0, 0], [653, 0, 0], [654, 0, 1], [655, 0, 1]]
    }, 
    {
      "op": "Activation", 
      "name": "pydnet_0_75/classifier/relu0_fwd", 
      "attrs": {"act_type": "relu"}, 
      "inputs": [[656, 0, 0]]
    }, 
    {
      "op": "null", 
      "name": "pydnet_0_75/classifier/conv0_weight", 
      "attrs": {
        "__dtype__": "0", 
        "__lr_mult__": "1.0", 
        "__shape__": "(1280, 0, 1, 1)", 
        "__storage_type__": "0", 
        "__wd_mult__": "1.0"
      }, 
      "inputs": []
    }, 
    {
      "op": "null", 
      "name": "pydnet_0_75/classifier/conv0_bias", 
      "attrs": {
        "__dtype__": "0", 
        "__init__": "zeros", 
        "__lr_mult__": "1.0", 
        "__shape__": "(1280,)", 
        "__storage_type__": "0", 
        "__wd_mult__": "1.0"
      }, 
      "inputs": []
    }, 
    {
      "op": "Convolution", 
      "name": "pydnet_0_75/classifier/conv0_fwd", 
      "attrs": {
        "dilate": "(1, 1)", 
        "kernel": "(1, 1)", 
        "layout": "NCHW", 
        "no_bias": "False", 
        "num_filter": "1280", 
        "num_group": "1", 
        "pad": "(0, 0)", 
        "stride": "(1, 1)"
      }, 
      "inputs": [[657, 0, 0], [658, 0, 0], [659, 0, 0]]
    }, 
    {
      "op": "Pooling", 
      "name": "pydnet_0_75/classifier/pool0_fwd", 
      "attrs": {
        "global_pool": "True", 
        "kernel": "(1, 1)", 
        "pad": "(0, 0)", 
        "pool_type": "avg", 
        "pooling_convention": "full", 
        "stride": "(1, 1)"
      }, 
      "inputs": [[660, 0, 0]]
    }, 
    {
      "op": "null", 
      "name": "pydnet_0_75/classifier/dense0_weight", 
      "attrs": {
        "__dtype__": "0", 
        "__lr_mult__": "1.0", 
        "__shape__": "(1000, 0)", 
        "__storage_type__": "0", 
        "__wd_mult__": "1.0"
      }, 
      "inputs": []
    }, 
    {
      "op": "null", 
      "name": "pydnet_0_75/classifier/dense0_bias", 
      "attrs": {
        "__dtype__": "0", 
        "__init__": "zeros", 
        "__lr_mult__": "1.0", 
        "__shape__": "(1000,)", 
        "__storage_type__": "0", 
        "__wd_mult__": "1.0"
      }, 
      "inputs": []
    }, 
    {
      "op": "FullyConnected", 
      "name": "pydnet_0_75/classifier/dense0_fwd", 
      "attrs": {
        "flatten": "True", 
        "no_bias": "False", 
        "num_hidden": "1000"
      }, 
      "inputs": [[661, 0, 0], [662, 0, 0], [663, 0, 0]]
    }
  ], 
  "arg_nodes": [
    0, 
    1, 
    2, 
    3, 
    4, 
    6, 
    8, 
    9, 
    10, 
    11, 
    14, 
    16, 
    17, 
    18, 
    19, 
    22, 
    24, 
    26, 
    29, 
    30, 
    31, 
    32, 
    35, 
    37, 
    38, 
    39, 
    40, 
    43, 
    44, 
    45, 
    46, 
    49, 
    51, 
    52, 
    53, 
    54, 
    57, 
    59, 
    61, 
    64, 
    65, 
    66, 
    67, 
    70, 
    72, 
    73, 
    74, 
    75, 
    78, 
    79, 
    80, 
    81, 
    84, 
    86, 
    87, 
    88, 
    89, 
    92, 
    94, 
    96, 
    99, 
    100, 
    101, 
    102, 
    105, 
    107, 
    108, 
    109, 
    110, 
    113, 
    114, 
    115, 
    116, 
    119, 
    121, 
    122, 
    123, 
    124, 
    127, 
    129, 
    131, 
    134, 
    135, 
    136, 
    137, 
    140, 
    142, 
    143, 
    144, 
    145, 
    148, 
    149, 
    150, 
    151, 
    154, 
    156, 
    157, 
    158, 
    159, 
    162, 
    164, 
    166, 
    169, 
    170, 
    171, 
    172, 
    175, 
    177, 
    178, 
    179, 
    180, 
    183, 
    184, 
    185, 
    186, 
    189, 
    191, 
    192, 
    193, 
    194, 
    197, 
    199, 
    201, 
    204, 
    205, 
    206, 
    207, 
    210, 
    212, 
    213, 
    214, 
    215, 
    218, 
    219, 
    220, 
    221, 
    224, 
    226, 
    227, 
    228, 
    229, 
    232, 
    234, 
    236, 
    239, 
    240, 
    241, 
    242, 
    245, 
    247, 
    248, 
    249, 
    250, 
    252, 
    254, 
    255, 
    256, 
    257, 
    260, 
    261, 
    262, 
    263, 
    266, 
    268, 
    269, 
    270, 
    271, 
    274, 
    276, 
    278, 
    281, 
    282, 
    283, 
    284, 
    287, 
    289, 
    290, 
    291, 
    292, 
    295, 
    296, 
    297, 
    298, 
    301, 
    303, 
    304, 
    305, 
    306, 
    309, 
    311, 
    313, 
    316, 
    317, 
    318, 
    319, 
    322, 
    324, 
    325, 
    326, 
    327, 
    330, 
    331, 
    332, 
    333, 
    336, 
    338, 
    339, 
    340, 
    341, 
    344, 
    346, 
    348, 
    351, 
    352, 
    353, 
    354, 
    357, 
    359, 
    360, 
    361, 
    362, 
    365, 
    366, 
    367, 
    368, 
    371, 
    373, 
    374, 
    375, 
    376, 
    379, 
    381, 
    383, 
    386, 
    387, 
    388, 
    389, 
    392, 
    394, 
    395, 
    396, 
    397, 
    400, 
    401, 
    402, 
    403, 
    406, 
    408, 
    409, 
    410, 
    411, 
    414, 
    416, 
    418, 
    421, 
    422, 
    423, 
    424, 
    427, 
    429, 
    430, 
    431, 
    432, 
    435, 
    436, 
    437, 
    438, 
    441, 
    443, 
    444, 
    445, 
    446, 
    449, 
    451, 
    453, 
    456, 
    457, 
    458, 
    459, 
    462, 
    464, 
    465, 
    466, 
    467, 
    469, 
    471, 
    472, 
    473, 
    474, 
    477, 
    478, 
    479, 
    480, 
    483, 
    485, 
    486, 
    487, 
    488, 
    491, 
    493, 
    495, 
    498, 
    499, 
    500, 
    501, 
    504, 
    506, 
    507, 
    508, 
    509, 
    512, 
    513, 
    514, 
    515, 
    518, 
    520, 
    521, 
    522, 
    523, 
    526, 
    528, 
    530, 
    533, 
    534, 
    535, 
    536, 
    539, 
    541, 
    542, 
    543, 
    544, 
    547, 
    548, 
    549, 
    550, 
    553, 
    555, 
    556, 
    557, 
    558, 
    561, 
    563, 
    565, 
    568, 
    569, 
    570, 
    571, 
    574, 
    576, 
    577, 
    578, 
    579, 
    582, 
    583, 
    584, 
    585, 
    588, 
    590, 
    591, 
    592, 
    593, 
    596, 
    598, 
    600, 
    603, 
    604, 
    605, 
    606, 
    609, 
    611, 
    612, 
    613, 
    614, 
    617, 
    618, 
    619, 
    620, 
    623, 
    625, 
    626, 
    627, 
    628, 
    631, 
    633, 
    635, 
    638, 
    639, 
    640, 
    641, 
    644, 
    646, 
    647, 
    648, 
    649, 
    652, 
    653, 
    654, 
    655, 
    658, 
    659, 
    662, 
    663
  ], 
  "node_row_ptr": [
    0, 
    1, 
    2, 
    3, 
    4, 
    5, 
    8, 
    9, 
    10, 
    11, 
    12, 
    13, 
    14, 
    17, 
    18, 
    19, 
    20, 
    21, 
    22, 
    23, 
    24, 
    27, 
    28, 
    29, 
    30, 
    31, 
    32, 
    33, 
    34, 
    35, 
    36, 
    37, 
    38, 
    39, 
    42, 
    43, 
    44, 
    45, 
    46, 
    47, 
    48, 
    49, 
    52, 
    53, 
    54, 
    55, 
    56, 
    57, 
    60, 
    61, 
    62, 
    63, 
    64, 
    65, 
    66, 
    67, 
    70, 
    71, 
    72, 
    73, 
    74, 
    75, 
    76, 
    77, 
    78, 
    79, 
    80, 
    81, 
    82, 
    85, 
    86, 
    87, 
    88, 
    89, 
    90, 
    91, 
    92, 
    95, 
    96, 
    97, 
    98, 
    99, 
    100, 
    103, 
    104, 
    105, 
    106, 
    107, 
    108, 
    109, 
    110, 
    113, 
    114, 
    115, 
    116, 
    117, 
    118, 
    119, 
    120, 
    121, 
    122, 
    123, 
    124, 
    125, 
    128, 
    129, 
    130, 
    131, 
    132, 
    133, 
    134, 
    135, 
    138, 
    139, 
    140, 
    141, 
    142, 
    143, 
    146, 
    147, 
    148, 
    149, 
    150, 
    151, 
    152, 
    153, 
    156, 
    157, 
    158, 
    159, 
    160, 
    161, 
    162, 
    163, 
    164, 
    165, 
    166, 
    167, 
    168, 
    171, 
    172, 
    173, 
    174, 
    175, 
    176, 
    177, 
    178, 
    181, 
    182, 
    183, 
    184, 
    185, 
    186, 
    189, 
    190, 
    191, 
    192, 
    193, 
    194, 
    195, 
    196, 
    199, 
    200, 
    201, 
    202, 
    203, 
    204, 
    205, 
    206, 
    207, 
    208, 
    209, 
    210, 
    211, 
    214, 
    215, 
    216, 
    217, 
    218, 
    219, 
    220, 
    221, 
    224, 
    225, 
    226, 
    227, 
    228, 
    229, 
    232, 
    233, 
    234, 
    235, 
    236, 
    237, 
    238, 
    239, 
    242, 
    243, 
    244, 
    245, 
    246, 
    247, 
    248, 
    249, 
    250, 
    251, 
    252, 
    253, 
    254, 
    257, 
    258, 
    259, 
    260, 
    261, 
    262, 
    263, 
    264, 
    267, 
    268, 
    269, 
    270, 
    271, 
    272, 
    275, 
    276, 
    277, 
    278, 
    279, 
    280, 
    281, 
    282, 
    285, 
    286, 
    287, 
    288, 
    289, 
    290, 
    291, 
    292, 
    293, 
    294, 
    295, 
    296, 
    297, 
    300, 
    301, 
    302, 
    303, 
    304, 
    305, 
    306, 
    307, 
    310, 
    311, 
    312, 
    313, 
    314, 
    315, 
    316, 
    319, 
    320, 
    321, 
    322, 
    323, 
    324, 
    327, 
    328, 
    329, 
    330, 
    331, 
    332, 
    333, 
    334, 
    337, 
    338, 
    339, 
    340, 
    341, 
    342, 
    343, 
    344, 
    345, 
    346, 
    347, 
    348, 
    349, 
    352, 
    353, 
    354, 
    355, 
    356, 
    357, 
    358, 
    359, 
    362, 
    363, 
    364, 
    365, 
    366, 
    367, 
    370, 
    371, 
    372, 
    373, 
    374, 
    375, 
    376, 
    377, 
    380, 
    381, 
    382, 
    383, 
    384, 
    385, 
    386, 
    387, 
    388, 
    389, 
    390, 
    391, 
    392, 
    395, 
    396, 
    397, 
    398, 
    399, 
    400, 
    401, 
    402, 
    405, 
    406, 
    407, 
    408, 
    409, 
    410, 
    413, 
    414, 
    415, 
    416, 
    417, 
    418, 
    419, 
    420, 
    423, 
    424, 
    425, 
    426, 
    427, 
    428, 
    429, 
    430, 
    431, 
    432, 
    433, 
    434, 
    435, 
    438, 
    439, 
    440, 
    441, 
    442, 
    443, 
    444, 
    445, 
    448, 
    449, 
    450, 
    451, 
    452, 
    453, 
    456, 
    457, 
    458, 
    459, 
    460, 
    461, 
    462, 
    463, 
    466, 
    467, 
    468, 
    469, 
    470, 
    471, 
    472, 
    473, 
    474, 
    475, 
    476, 
    477, 
    478, 
    481, 
    482, 
    483, 
    484, 
    485, 
    486, 
    487, 
    488, 
    491, 
    492, 
    493, 
    494, 
    495, 
    496, 
    499, 
    500, 
    501, 
    502, 
    503, 
    504, 
    505, 
    506, 
    509, 
    510, 
    511, 
    512, 
    513, 
    514, 
    515, 
    516, 
    517, 
    518, 
    519, 
    520, 
    521, 
    524, 
    525, 
    526, 
    527, 
    528, 
    529, 
    530, 
    531, 
    534, 
    535, 
    536, 
    537, 
    538, 
    539, 
    542, 
    543, 
    544, 
    545, 
    546, 
    547, 
    548, 
    549, 
    552, 
    553, 
    554, 
    555, 
    556, 
    557, 
    558, 
    559, 
    560, 
    561, 
    562, 
    563, 
    564, 
    567, 
    568, 
    569, 
    570, 
    571, 
    572, 
    573, 
    574, 
    577, 
    578, 
    579, 
    580, 
    581, 
    582, 
    583, 
    586, 
    587, 
    588, 
    589, 
    590, 
    591, 
    594, 
    595, 
    596, 
    597, 
    598, 
    599, 
    600, 
    601, 
    604, 
    605, 
    606, 
    607, 
    608, 
    609, 
    610, 
    611, 
    612, 
    613, 
    614, 
    615, 
    616, 
    619, 
    620, 
    621, 
    622, 
    623, 
    624, 
    625, 
    626, 
    629, 
    630, 
    631, 
    632, 
    633, 
    634, 
    637, 
    638, 
    639, 
    640, 
    641, 
    642, 
    643, 
    644, 
    647, 
    648, 
    649, 
    650, 
    651, 
    652, 
    653, 
    654, 
    655, 
    656, 
    657, 
    658, 
    659, 
    662, 
    663, 
    664, 
    665, 
    666, 
    667, 
    668, 
    669, 
    672, 
    673, 
    674, 
    675, 
    676, 
    677, 
    680, 
    681, 
    682, 
    683, 
    684, 
    685, 
    686, 
    687, 
    690, 
    691, 
    692, 
    693, 
    694, 
    695, 
    696, 
    697, 
    698, 
    699, 
    700, 
    701, 
    702, 
    705, 
    706, 
    707, 
    708, 
    709, 
    710, 
    711, 
    712, 
    715, 
    716, 
    717, 
    718, 
    719, 
    720, 
    723, 
    724, 
    725, 
    726, 
    727, 
    728, 
    729, 
    730, 
    733, 
    734, 
    735, 
    736, 
    737, 
    738, 
    739, 
    740, 
    741, 
    742, 
    743, 
    744, 
    745, 
    748, 
    749, 
    750, 
    751, 
    752, 
    753, 
    754, 
    755, 
    758, 
    759, 
    760, 
    761, 
    762, 
    763, 
    766, 
    767, 
    768, 
    769, 
    770, 
    771, 
    772, 
    773, 
    776, 
    777, 
    778, 
    779, 
    780, 
    781, 
    782, 
    783, 
    784, 
    785, 
    786, 
    787, 
    788, 
    791, 
    792, 
    793, 
    794, 
    795, 
    796, 
    797, 
    798, 
    801, 
    802, 
    803, 
    804, 
    805, 
    806, 
    809, 
    810, 
    811, 
    812, 
    813, 
    814, 
    815, 
    816, 
    817
  ], 
  "heads": [[664, 0, 0]], 
  "attrs": {"mxnet_version": ["int", 10301]}
}