{
  "nodes": [
    {
      "op": "null", 
      "name": "data", 
      "inputs": []
    }, 
    {
      "op": "null", 
      "name": "cifar10_pydmobilenet56_0.25_plus/conv0/batchnorm0_gamma", 
      "attrs": {
        "__dtype__": "0", 
        "__init__": "ones", 
        "__lr_mult__": "1.0", 
        "__shape__": "(0,)", 
        "__storage_type__": "0", 
        "__wd_mult__": "1.0"
      }, 
      "inputs": []
    }, 
    {
      "op": "null", 
      "name": "cifar10_pydmobilenet56_0.25_plus/conv0/batchnorm0_beta", 
      "attrs": {
        "__dtype__": "0", 
        "__init__": "zeros", 
        "__lr_mult__": "1.0", 
        "__shape__": "(0,)", 
        "__storage_type__": "0", 
        "__wd_mult__": "1.0"
      }, 
      "inputs": []
    }, 
    {
      "op": "null", 
      "name": "cifar10_pydmobilenet56_0.25_plus/conv0/batchnorm0_running_mean", 
      "attrs": {
        "__dtype__": "0", 
        "__init__": "zeros", 
        "__lr_mult__": "1.0", 
        "__shape__": "(0,)", 
        "__storage_type__": "0", 
        "__wd_mult__": "1.0"
      }, 
      "inputs": []
    }, 
    {
      "op": "null", 
      "name": "cifar10_pydmobilenet56_0.25_plus/conv0/batchnorm0_running_var", 
      "attrs": {
        "__dtype__": "0", 
        "__init__": "ones", 
        "__lr_mult__": "1.0", 
        "__shape__": "(0,)", 
        "__storage_type__": "0", 
        "__wd_mult__": "1.0"
      }, 
      "inputs": []
    }, 
    {
      "op": "BatchNorm", 
      "name": "cifar10_pydmobilenet56_0.25_plus/conv0/batchnorm0_fwd", 
      "attrs": {
        "axis": "1", 
        "eps": "1e-05", 
        "fix_gamma": "True", 
        "momentum": "0.9", 
        "use_global_stats": "False"
      }, 
      "inputs": [[0, 0, 0], [1, 0, 0], [2, 0, 0], [3, 0, 1], [4, 0, 1]]
    }, 
    {
      "op": "null", 
      "name": "cifar10_pydmobilenet56_0.25_plus/conv0/conv0_weight", 
      "attrs": {
        "__dtype__": "0", 
        "__lr_mult__": "1.0", 
        "__shape__": "(32, 0, 3, 3)", 
        "__storage_type__": "0", 
        "__wd_mult__": "1.0"
      }, 
      "inputs": []
    }, 
    {
      "op": "Convolution", 
      "name": "cifar10_pydmobilenet56_0.25_plus/conv0/conv0_fwd", 
      "attrs": {
        "dilate": "(1, 1)", 
        "kernel": "(3, 3)", 
        "layout": "NCHW", 
        "no_bias": "True", 
        "num_filter": "32", 
        "num_group": "1", 
        "pad": "(1, 1)", 
        "stride": "(1, 1)"
      }, 
      "inputs": [[5, 0, 0], [6, 0, 0]]
    }, 
    {
      "op": "null", 
      "name": "cifar10_pydmobilenet56_0.25_plus/stg0/blk0/btl_in/batchnorm0_gamma", 
      "attrs": {
        "__dtype__": "0", 
        "__init__": "ones", 
        "__lr_mult__": "1.0", 
        "__shape__": "(0,)", 
        "__storage_type__": "0", 
        "__wd_mult__": "1.0"
      }, 
      "inputs": []
    }, 
    {
      "op": "null", 
      "name": "cifar10_pydmobilenet56_0.25_plus/stg0/blk0/btl_in/batchnorm0_beta", 
      "attrs": {
        "__dtype__": "0", 
        "__init__": "zeros", 
        "__lr_mult__": "1.0", 
        "__shape__": "(0,)", 
        "__storage_type__": "0", 
        "__wd_mult__": "1.0"
      }, 
      "inputs": []
    }, 
    {
      "op": "null", 
      "name": "cifar10_pydmobilenet56_0.25_plus/stg0/blk0/btl_in/batchnorm0_running_mean", 
      "attrs": {
        "__dtype__": "0", 
        "__init__": "zeros", 
        "__lr_mult__": "1.0", 
        "__shape__": "(0,)", 
        "__storage_type__": "0", 
        "__wd_mult__": "1.0"
      }, 
      "inputs": []
    }, 
    {
      "op": "null", 
      "name": "cifar10_pydmobilenet56_0.25_plus/stg0/blk0/btl_in/batchnorm0_running_var", 
      "attrs": {
        "__dtype__": "0", 
        "__init__": "ones", 
        "__lr_mult__": "1.0", 
        "__shape__": "(0,)", 
        "__storage_type__": "0", 
        "__wd_mult__": "1.0"
      }, 
      "inputs": []
    }, 
    {
      "op": "BatchNorm", 
      "name": "cifar10_pydmobilenet56_0.25_plus/stg0/blk0/btl_in/batchnorm0_fwd", 
      "attrs": {
        "axis": "1", 
        "eps": "1e-05", 
        "fix_gamma": "False", 
        "momentum": "0.9", 
        "use_global_stats": "False"
      }, 
      "inputs": [[7, 0, 0], [8, 0, 0], [9, 0, 0], [10, 0, 1], [11, 0, 1]]
    }, 
    {
      "op": "Activation", 
      "name": "cifar10_pydmobilenet56_0.25_plus/stg0/blk0/btl_in/relu0_fwd", 
      "attrs": {"act_type": "relu"}, 
      "inputs": [[12, 0, 0]]
    }, 
    {
      "op": "null", 
      "name": "cifar10_pydmobilenet56_0.25_plus/stg0/blk0/btl_in/conv0_weight", 
      "attrs": {
        "__dtype__": "0", 
        "__lr_mult__": "1.0", 
        "__shape__": "(8, 0, 1, 1)", 
        "__storage_type__": "0", 
        "__wd_mult__": "1.0"
      }, 
      "inputs": []
    }, 
    {
      "op": "Convolution", 
      "name": "cifar10_pydmobilenet56_0.25_plus/stg0/blk0/btl_in/conv0_fwd", 
      "attrs": {
        "dilate": "(1, 1)", 
        "kernel": "(1, 1)", 
        "layout": "NCHW", 
        "no_bias": "True", 
        "num_filter": "8", 
        "num_group": "1", 
        "pad": "(0, 0)", 
        "stride": "(1, 1)"
      }, 
      "inputs": [[13, 0, 0], [14, 0, 0]]
    }, 
    {
      "op": "null", 
      "name": "cifar10_pydmobilenet56_0.25_plus/stg0/blk0/btl_in/batchnorm1_gamma", 
      "attrs": {
        "__dtype__": "0", 
        "__init__": "ones", 
        "__lr_mult__": "1.0", 
        "__shape__": "(0,)", 
        "__storage_type__": "0", 
        "__wd_mult__": "1.0"
      }, 
      "inputs": []
    }, 
    {
      "op": "null", 
      "name": "cifar10_pydmobilenet56_0.25_plus/stg0/blk0/btl_in/batchnorm1_beta", 
      "attrs": {
        "__dtype__": "0", 
        "__init__": "zeros", 
        "__lr_mult__": "1.0", 
        "__shape__": "(0,)", 
        "__storage_type__": "0", 
        "__wd_mult__": "1.0"
      }, 
      "inputs": []
    }, 
    {
      "op": "null", 
      "name": "cifar10_pydmobilenet56_0.25_plus/stg0/blk0/btl_in/batchnorm1_running_mean", 
      "attrs": {
        "__dtype__": "0", 
        "__init__": "zeros", 
        "__lr_mult__": "1.0", 
        "__shape__": "(0,)", 
        "__storage_type__": "0", 
        "__wd_mult__": "1.0"
      }, 
      "inputs": []
    }, 
    {
      "op": "null", 
      "name": "cifar10_pydmobilenet56_0.25_plus/stg0/blk0/btl_in/batchnorm1_running_var", 
      "attrs": {
        "__dtype__": "0", 
        "__init__": "ones", 
        "__lr_mult__": "1.0", 
        "__shape__": "(0,)", 
        "__storage_type__": "0", 
        "__wd_mult__": "1.0"
      }, 
      "inputs": []
    }, 
    {
      "op": "BatchNorm", 
      "name": "cifar10_pydmobilenet56_0.25_plus/stg0/blk0/btl_in/batchnorm1_fwd", 
      "attrs": {
        "axis": "1", 
        "eps": "1e-05", 
        "fix_gamma": "False", 
        "momentum": "0.9", 
        "use_global_stats": "False"
      }, 
      "inputs": [[15, 0, 0], [16, 0, 0], [17, 0, 0], [18, 0, 1], [19, 0, 1]]
    }, 
    {
      "op": "Activation", 
      "name": "cifar10_pydmobilenet56_0.25_plus/stg0/blk0/btl_in/relu1_fwd", 
      "attrs": {"act_type": "relu"}, 
      "inputs": [[20, 0, 0]]
    }, 
    {
      "op": "null", 
      "name": "cifar10_pydmobilenet56_0.25_plus/stg0/blk0/conv3/conv0_weight", 
      "attrs": {
        "__dtype__": "0", 
        "__lr_mult__": "1.0", 
        "__shape__": "(8, 0, 3, 3)", 
        "__storage_type__": "0", 
        "__wd_mult__": "1.0"
      }, 
      "inputs": []
    }, 
    {
      "op": "Convolution", 
      "name": "cifar10_pydmobilenet56_0.25_plus/stg0/blk0/conv3/conv0_fwd", 
      "attrs": {
        "dilate": "(1, 1)", 
        "kernel": "(3, 3)", 
        "layout": "NCHW", 
        "no_bias": "True", 
        "num_filter": "8", 
        "num_group": "8", 
        "pad": "(1, 1)", 
        "stride": "(1, 1)"
      }, 
      "inputs": [[21, 0, 0], [22, 0, 0]]
    }, 
    {
      "op": "null", 
      "name": "cifar10_pydmobilenet56_0.25_plus/stg0/blk0/conv5/conv0_weight", 
      "attrs": {
        "__dtype__": "0", 
        "__lr_mult__": "1.0", 
        "__shape__": "(8, 0, 5, 5)", 
        "__storage_type__": "0", 
        "__wd_mult__": "1.0"
      }, 
      "inputs": []
    }, 
    {
      "op": "Convolution", 
      "name": "cifar10_pydmobilenet56_0.25_plus/stg0/blk0/conv5/conv0_fwd", 
      "attrs": {
        "dilate": "(1, 1)", 
        "kernel": "(5, 5)", 
        "layout": "NCHW", 
        "no_bias": "True", 
        "num_filter": "8", 
        "num_group": "8", 
        "pad": "(2, 2)", 
        "stride": "(1, 1)"
      }, 
      "inputs": [[21, 0, 0], [24, 0, 0]]
    }, 
    {
      "op": "elemwise_add", 
      "name": "cifar10_pydmobilenet56_0.25_plus/stg0/blk0/_plus0", 
      "inputs": [[23, 0, 0], [25, 0, 0]]
    }, 
    {
      "op": "null", 
      "name": "cifar10_pydmobilenet56_0.25_plus/stg0/blk0/conv7/conv0_weight", 
      "attrs": {
        "__dtype__": "0", 
        "__lr_mult__": "1.0", 
        "__shape__": "(8, 0, 7, 7)", 
        "__storage_type__": "0", 
        "__wd_mult__": "1.0"
      }, 
      "inputs": []
    }, 
    {
      "op": "Convolution", 
      "name": "cifar10_pydmobilenet56_0.25_plus/stg0/blk0/conv7/conv0_fwd", 
      "attrs": {
        "dilate": "(1, 1)", 
        "kernel": "(7, 7)", 
        "layout": "NCHW", 
        "no_bias": "True", 
        "num_filter": "8", 
        "num_group": "8", 
        "pad": "(3, 3)", 
        "stride": "(1, 1)"
      }, 
      "inputs": [[21, 0, 0], [27, 0, 0]]
    }, 
    {
      "op": "elemwise_add", 
      "name": "cifar10_pydmobilenet56_0.25_plus/stg0/blk0/_plus1", 
      "inputs": [[26, 0, 0], [28, 0, 0]]
    }, 
    {
      "op": "null", 
      "name": "cifar10_pydmobilenet56_0.25_plus/stg0/blk0/btl_out/batchnorm0_gamma", 
      "attrs": {
        "__dtype__": "0", 
        "__init__": "ones", 
        "__lr_mult__": "1.0", 
        "__shape__": "(0,)", 
        "__storage_type__": "0", 
        "__wd_mult__": "1.0"
      }, 
      "inputs": []
    }, 
    {
      "op": "null", 
      "name": "cifar10_pydmobilenet56_0.25_plus/stg0/blk0/btl_out/batchnorm0_beta", 
      "attrs": {
        "__dtype__": "0", 
        "__init__": "zeros", 
        "__lr_mult__": "1.0", 
        "__shape__": "(0,)", 
        "__storage_type__": "0", 
        "__wd_mult__": "1.0"
      }, 
      "inputs": []
    }, 
    {
      "op": "null", 
      "name": "cifar10_pydmobilenet56_0.25_plus/stg0/blk0/btl_out/batchnorm0_running_mean", 
      "attrs": {
        "__dtype__": "0", 
        "__init__": "zeros", 
        "__lr_mult__": "1.0", 
        "__shape__": "(0,)", 
        "__storage_type__": "0", 
        "__wd_mult__": "1.0"
      }, 
      "inputs": []
    }, 
    {
      "op": "null", 
      "name": "cifar10_pydmobilenet56_0.25_plus/stg0/blk0/btl_out/batchnorm0_running_var", 
      "attrs": {
        "__dtype__": "0", 
        "__init__": "ones", 
        "__lr_mult__": "1.0", 
        "__shape__": "(0,)", 
        "__storage_type__": "0", 
        "__wd_mult__": "1.0"
      }, 
      "inputs": []
    }, 
    {
      "op": "BatchNorm", 
      "name": "cifar10_pydmobilenet56_0.25_plus/stg0/blk0/btl_out/batchnorm0_fwd", 
      "attrs": {
        "axis": "1", 
        "eps": "1e-05", 
        "fix_gamma": "False", 
        "momentum": "0.9", 
        "use_global_stats": "False"
      }, 
      "inputs": [[29, 0, 0], [30, 0, 0], [31, 0, 0], [32, 0, 1], [33, 0, 1]]
    }, 
    {
      "op": "Activation", 
      "name": "cifar10_pydmobilenet56_0.25_plus/stg0/blk0/btl_out/relu0_fwd", 
      "attrs": {"act_type": "relu"}, 
      "inputs": [[34, 0, 0]]
    }, 
    {
      "op": "null", 
      "name": "cifar10_pydmobilenet56_0.25_plus/stg0/blk0/btl_out/conv0_weight", 
      "attrs": {
        "__dtype__": "0", 
        "__lr_mult__": "1.0", 
        "__shape__": "(32, 0, 1, 1)", 
        "__storage_type__": "0", 
        "__wd_mult__": "1.0"
      }, 
      "inputs": []
    }, 
    {
      "op": "Convolution", 
      "name": "cifar10_pydmobilenet56_0.25_plus/stg0/blk0/btl_out/conv0_fwd", 
      "attrs": {
        "dilate": "(1, 1)", 
        "kernel": "(1, 1)", 
        "layout": "NCHW", 
        "no_bias": "True", 
        "num_filter": "32", 
        "num_group": "1", 
        "pad": "(0, 0)", 
        "stride": "(1, 1)"
      }, 
      "inputs": [[35, 0, 0], [36, 0, 0]]
    }, 
    {
      "op": "null", 
      "name": "cifar10_pydmobilenet56_0.25_plus/stg0/blk0/btl_out/batchnorm1_gamma", 
      "attrs": {
        "__dtype__": "0", 
        "__init__": "ones", 
        "__lr_mult__": "1.0", 
        "__shape__": "(0,)", 
        "__storage_type__": "0", 
        "__wd_mult__": "1.0"
      }, 
      "inputs": []
    }, 
    {
      "op": "null", 
      "name": "cifar10_pydmobilenet56_0.25_plus/stg0/blk0/btl_out/batchnorm1_beta", 
      "attrs": {
        "__dtype__": "0", 
        "__init__": "zeros", 
        "__lr_mult__": "1.0", 
        "__shape__": "(0,)", 
        "__storage_type__": "0", 
        "__wd_mult__": "1.0"
      }, 
      "inputs": []
    }, 
    {
      "op": "null", 
      "name": "cifar10_pydmobilenet56_0.25_plus/stg0/blk0/btl_out/batchnorm1_running_mean", 
      "attrs": {
        "__dtype__": "0", 
        "__init__": "zeros", 
        "__lr_mult__": "1.0", 
        "__shape__": "(0,)", 
        "__storage_type__": "0", 
        "__wd_mult__": "1.0"
      }, 
      "inputs": []
    }, 
    {
      "op": "null", 
      "name": "cifar10_pydmobilenet56_0.25_plus/stg0/blk0/btl_out/batchnorm1_running_var", 
      "attrs": {
        "__dtype__": "0", 
        "__init__": "ones", 
        "__lr_mult__": "1.0", 
        "__shape__": "(0,)", 
        "__storage_type__": "0", 
        "__wd_mult__": "1.0"
      }, 
      "inputs": []
    }, 
    {
      "op": "BatchNorm", 
      "name": "cifar10_pydmobilenet56_0.25_plus/stg0/blk0/btl_out/batchnorm1_fwd", 
      "attrs": {
        "axis": "1", 
        "eps": "1e-05", 
        "fix_gamma": "False", 
        "momentum": "0.9", 
        "use_global_stats": "False"
      }, 
      "inputs": [[37, 0, 0], [38, 0, 0], [39, 0, 0], [40, 0, 1], [41, 0, 1]]
    }, 
    {
      "op": "elemwise_add", 
      "name": "cifar10_pydmobilenet56_0.25_plus/stg0/blk0/_plus2", 
      "inputs": [[42, 0, 0], [7, 0, 0]]
    }, 
    {
      "op": "null", 
      "name": "cifar10_pydmobilenet56_0.25_plus/stg0/blk1/btl_in/batchnorm0_gamma", 
      "attrs": {
        "__dtype__": "0", 
        "__init__": "ones", 
        "__lr_mult__": "1.0", 
        "__shape__": "(0,)", 
        "__storage_type__": "0", 
        "__wd_mult__": "1.0"
      }, 
      "inputs": []
    }, 
    {
      "op": "null", 
      "name": "cifar10_pydmobilenet56_0.25_plus/stg0/blk1/btl_in/batchnorm0_beta", 
      "attrs": {
        "__dtype__": "0", 
        "__init__": "zeros", 
        "__lr_mult__": "1.0", 
        "__shape__": "(0,)", 
        "__storage_type__": "0", 
        "__wd_mult__": "1.0"
      }, 
      "inputs": []
    }, 
    {
      "op": "null", 
      "name": "cifar10_pydmobilenet56_0.25_plus/stg0/blk1/btl_in/batchnorm0_running_mean", 
      "attrs": {
        "__dtype__": "0", 
        "__init__": "zeros", 
        "__lr_mult__": "1.0", 
        "__shape__": "(0,)", 
        "__storage_type__": "0", 
        "__wd_mult__": "1.0"
      }, 
      "inputs": []
    }, 
    {
      "op": "null", 
      "name": "cifar10_pydmobilenet56_0.25_plus/stg0/blk1/btl_in/batchnorm0_running_var", 
      "attrs": {
        "__dtype__": "0", 
        "__init__": "ones", 
        "__lr_mult__": "1.0", 
        "__shape__": "(0,)", 
        "__storage_type__": "0", 
        "__wd_mult__": "1.0"
      }, 
      "inputs": []
    }, 
    {
      "op": "BatchNorm", 
      "name": "cifar10_pydmobilenet56_0.25_plus/stg0/blk1/btl_in/batchnorm0_fwd", 
      "attrs": {
        "axis": "1", 
        "eps": "1e-05", 
        "fix_gamma": "False", 
        "momentum": "0.9", 
        "use_global_stats": "False"
      }, 
      "inputs": [[43, 0, 0], [44, 0, 0], [45, 0, 0], [46, 0, 1], [47, 0, 1]]
    }, 
    {
      "op": "Activation", 
      "name": "cifar10_pydmobilenet56_0.25_plus/stg0/blk1/btl_in/relu0_fwd", 
      "attrs": {"act_type": "relu"}, 
      "inputs": [[48, 0, 0]]
    }, 
    {
      "op": "null", 
      "name": "cifar10_pydmobilenet56_0.25_plus/stg0/blk1/btl_in/conv0_weight", 
      "attrs": {
        "__dtype__": "0", 
        "__lr_mult__": "1.0", 
        "__shape__": "(8, 0, 1, 1)", 
        "__storage_type__": "0", 
        "__wd_mult__": "1.0"
      }, 
      "inputs": []
    }, 
    {
      "op": "Convolution", 
      "name": "cifar10_pydmobilenet56_0.25_plus/stg0/blk1/btl_in/conv0_fwd", 
      "attrs": {
        "dilate": "(1, 1)", 
        "kernel": "(1, 1)", 
        "layout": "NCHW", 
        "no_bias": "True", 
        "num_filter": "8", 
        "num_group": "1", 
        "pad": "(0, 0)", 
        "stride": "(1, 1)"
      }, 
      "inputs": [[49, 0, 0], [50, 0, 0]]
    }, 
    {
      "op": "null", 
      "name": "cifar10_pydmobilenet56_0.25_plus/stg0/blk1/btl_in/batchnorm1_gamma", 
      "attrs": {
        "__dtype__": "0", 
        "__init__": "ones", 
        "__lr_mult__": "1.0", 
        "__shape__": "(0,)", 
        "__storage_type__": "0", 
        "__wd_mult__": "1.0"
      }, 
      "inputs": []
    }, 
    {
      "op": "null", 
      "name": "cifar10_pydmobilenet56_0.25_plus/stg0/blk1/btl_in/batchnorm1_beta", 
      "attrs": {
        "__dtype__": "0", 
        "__init__": "zeros", 
        "__lr_mult__": "1.0", 
        "__shape__": "(0,)", 
        "__storage_type__": "0", 
        "__wd_mult__": "1.0"
      }, 
      "inputs": []
    }, 
    {
      "op": "null", 
      "name": "cifar10_pydmobilenet56_0.25_plus/stg0/blk1/btl_in/batchnorm1_running_mean", 
      "attrs": {
        "__dtype__": "0", 
        "__init__": "zeros", 
        "__lr_mult__": "1.0", 
        "__shape__": "(0,)", 
        "__storage_type__": "0", 
        "__wd_mult__": "1.0"
      }, 
      "inputs": []
    }, 
    {
      "op": "null", 
      "name": "cifar10_pydmobilenet56_0.25_plus/stg0/blk1/btl_in/batchnorm1_running_var", 
      "attrs": {
        "__dtype__": "0", 
        "__init__": "ones", 
        "__lr_mult__": "1.0", 
        "__shape__": "(0,)", 
        "__storage_type__": "0", 
        "__wd_mult__": "1.0"
      }, 
      "inputs": []
    }, 
    {
      "op": "BatchNorm", 
      "name": "cifar10_pydmobilenet56_0.25_plus/stg0/blk1/btl_in/batchnorm1_fwd", 
      "attrs": {
        "axis": "1", 
        "eps": "1e-05", 
        "fix_gamma": "False", 
        "momentum": "0.9", 
        "use_global_stats": "False"
      }, 
      "inputs": [[51, 0, 0], [52, 0, 0], [53, 0, 0], [54, 0, 1], [55, 0, 1]]
    }, 
    {
      "op": "Activation", 
      "name": "cifar10_pydmobilenet56_0.25_plus/stg0/blk1/btl_in/relu1_fwd", 
      "attrs": {"act_type": "relu"}, 
      "inputs": [[56, 0, 0]]
    }, 
    {
      "op": "null", 
      "name": "cifar10_pydmobilenet56_0.25_plus/stg0/blk1/conv3/conv0_weight", 
      "attrs": {
        "__dtype__": "0", 
        "__lr_mult__": "1.0", 
        "__shape__": "(8, 0, 3, 3)", 
        "__storage_type__": "0", 
        "__wd_mult__": "1.0"
      }, 
      "inputs": []
    }, 
    {
      "op": "Convolution", 
      "name": "cifar10_pydmobilenet56_0.25_plus/stg0/blk1/conv3/conv0_fwd", 
      "attrs": {
        "dilate": "(1, 1)", 
        "kernel": "(3, 3)", 
        "layout": "NCHW", 
        "no_bias": "True", 
        "num_filter": "8", 
        "num_group": "8", 
        "pad": "(1, 1)", 
        "stride": "(1, 1)"
      }, 
      "inputs": [[57, 0, 0], [58, 0, 0]]
    }, 
    {
      "op": "null", 
      "name": "cifar10_pydmobilenet56_0.25_plus/stg0/blk1/conv5/conv0_weight", 
      "attrs": {
        "__dtype__": "0", 
        "__lr_mult__": "1.0", 
        "__shape__": "(8, 0, 5, 5)", 
        "__storage_type__": "0", 
        "__wd_mult__": "1.0"
      }, 
      "inputs": []
    }, 
    {
      "op": "Convolution", 
      "name": "cifar10_pydmobilenet56_0.25_plus/stg0/blk1/conv5/conv0_fwd", 
      "attrs": {
        "dilate": "(1, 1)", 
        "kernel": "(5, 5)", 
        "layout": "NCHW", 
        "no_bias": "True", 
        "num_filter": "8", 
        "num_group": "8", 
        "pad": "(2, 2)", 
        "stride": "(1, 1)"
      }, 
      "inputs": [[57, 0, 0], [60, 0, 0]]
    }, 
    {
      "op": "elemwise_add", 
      "name": "cifar10_pydmobilenet56_0.25_plus/stg0/blk1/_plus0", 
      "inputs": [[59, 0, 0], [61, 0, 0]]
    }, 
    {
      "op": "null", 
      "name": "cifar10_pydmobilenet56_0.25_plus/stg0/blk1/conv7/conv0_weight", 
      "attrs": {
        "__dtype__": "0", 
        "__lr_mult__": "1.0", 
        "__shape__": "(8, 0, 7, 7)", 
        "__storage_type__": "0", 
        "__wd_mult__": "1.0"
      }, 
      "inputs": []
    }, 
    {
      "op": "Convolution", 
      "name": "cifar10_pydmobilenet56_0.25_plus/stg0/blk1/conv7/conv0_fwd", 
      "attrs": {
        "dilate": "(1, 1)", 
        "kernel": "(7, 7)", 
        "layout": "NCHW", 
        "no_bias": "True", 
        "num_filter": "8", 
        "num_group": "8", 
        "pad": "(3, 3)", 
        "stride": "(1, 1)"
      }, 
      "inputs": [[57, 0, 0], [63, 0, 0]]
    }, 
    {
      "op": "elemwise_add", 
      "name": "cifar10_pydmobilenet56_0.25_plus/stg0/blk1/_plus1", 
      "inputs": [[62, 0, 0], [64, 0, 0]]
    }, 
    {
      "op": "null", 
      "name": "cifar10_pydmobilenet56_0.25_plus/stg0/blk1/btl_out/batchnorm0_gamma", 
      "attrs": {
        "__dtype__": "0", 
        "__init__": "ones", 
        "__lr_mult__": "1.0", 
        "__shape__": "(0,)", 
        "__storage_type__": "0", 
        "__wd_mult__": "1.0"
      }, 
      "inputs": []
    }, 
    {
      "op": "null", 
      "name": "cifar10_pydmobilenet56_0.25_plus/stg0/blk1/btl_out/batchnorm0_beta", 
      "attrs": {
        "__dtype__": "0", 
        "__init__": "zeros", 
        "__lr_mult__": "1.0", 
        "__shape__": "(0,)", 
        "__storage_type__": "0", 
        "__wd_mult__": "1.0"
      }, 
      "inputs": []
    }, 
    {
      "op": "null", 
      "name": "cifar10_pydmobilenet56_0.25_plus/stg0/blk1/btl_out/batchnorm0_running_mean", 
      "attrs": {
        "__dtype__": "0", 
        "__init__": "zeros", 
        "__lr_mult__": "1.0", 
        "__shape__": "(0,)", 
        "__storage_type__": "0", 
        "__wd_mult__": "1.0"
      }, 
      "inputs": []
    }, 
    {
      "op": "null", 
      "name": "cifar10_pydmobilenet56_0.25_plus/stg0/blk1/btl_out/batchnorm0_running_var", 
      "attrs": {
        "__dtype__": "0", 
        "__init__": "ones", 
        "__lr_mult__": "1.0", 
        "__shape__": "(0,)", 
        "__storage_type__": "0", 
        "__wd_mult__": "1.0"
      }, 
      "inputs": []
    }, 
    {
      "op": "BatchNorm", 
      "name": "cifar10_pydmobilenet56_0.25_plus/stg0/blk1/btl_out/batchnorm0_fwd", 
      "attrs": {
        "axis": "1", 
        "eps": "1e-05", 
        "fix_gamma": "False", 
        "momentum": "0.9", 
        "use_global_stats": "False"
      }, 
      "inputs": [[65, 0, 0], [66, 0, 0], [67, 0, 0], [68, 0, 1], [69, 0, 1]]
    }, 
    {
      "op": "Activation", 
      "name": "cifar10_pydmobilenet56_0.25_plus/stg0/blk1/btl_out/relu0_fwd", 
      "attrs": {"act_type": "relu"}, 
      "inputs": [[70, 0, 0]]
    }, 
    {
      "op": "null", 
      "name": "cifar10_pydmobilenet56_0.25_plus/stg0/blk1/btl_out/conv0_weight", 
      "attrs": {
        "__dtype__": "0", 
        "__lr_mult__": "1.0", 
        "__shape__": "(32, 0, 1, 1)", 
        "__storage_type__": "0", 
        "__wd_mult__": "1.0"
      }, 
      "inputs": []
    }, 
    {
      "op": "Convolution", 
      "name": "cifar10_pydmobilenet56_0.25_plus/stg0/blk1/btl_out/conv0_fwd", 
      "attrs": {
        "dilate": "(1, 1)", 
        "kernel": "(1, 1)", 
        "layout": "NCHW", 
        "no_bias": "True", 
        "num_filter": "32", 
        "num_group": "1", 
        "pad": "(0, 0)", 
        "stride": "(1, 1)"
      }, 
      "inputs": [[71, 0, 0], [72, 0, 0]]
    }, 
    {
      "op": "null", 
      "name": "cifar10_pydmobilenet56_0.25_plus/stg0/blk1/btl_out/batchnorm1_gamma", 
      "attrs": {
        "__dtype__": "0", 
        "__init__": "ones", 
        "__lr_mult__": "1.0", 
        "__shape__": "(0,)", 
        "__storage_type__": "0", 
        "__wd_mult__": "1.0"
      }, 
      "inputs": []
    }, 
    {
      "op": "null", 
      "name": "cifar10_pydmobilenet56_0.25_plus/stg0/blk1/btl_out/batchnorm1_beta", 
      "attrs": {
        "__dtype__": "0", 
        "__init__": "zeros", 
        "__lr_mult__": "1.0", 
        "__shape__": "(0,)", 
        "__storage_type__": "0", 
        "__wd_mult__": "1.0"
      }, 
      "inputs": []
    }, 
    {
      "op": "null", 
      "name": "cifar10_pydmobilenet56_0.25_plus/stg0/blk1/btl_out/batchnorm1_running_mean", 
      "attrs": {
        "__dtype__": "0", 
        "__init__": "zeros", 
        "__lr_mult__": "1.0", 
        "__shape__": "(0,)", 
        "__storage_type__": "0", 
        "__wd_mult__": "1.0"
      }, 
      "inputs": []
    }, 
    {
      "op": "null", 
      "name": "cifar10_pydmobilenet56_0.25_plus/stg0/blk1/btl_out/batchnorm1_running_var", 
      "attrs": {
        "__dtype__": "0", 
        "__init__": "ones", 
        "__lr_mult__": "1.0", 
        "__shape__": "(0,)", 
        "__storage_type__": "0", 
        "__wd_mult__": "1.0"
      }, 
      "inputs": []
    }, 
    {
      "op": "BatchNorm", 
      "name": "cifar10_pydmobilenet56_0.25_plus/stg0/blk1/btl_out/batchnorm1_fwd", 
      "attrs": {
        "axis": "1", 
        "eps": "1e-05", 
        "fix_gamma": "False", 
        "momentum": "0.9", 
        "use_global_stats": "False"
      }, 
      "inputs": [[73, 0, 0], [74, 0, 0], [75, 0, 0], [76, 0, 1], [77, 0, 1]]
    }, 
    {
      "op": "elemwise_add", 
      "name": "cifar10_pydmobilenet56_0.25_plus/stg0/blk1/_plus2", 
      "inputs": [[78, 0, 0], [43, 0, 0]]
    }, 
    {
      "op": "null", 
      "name": "cifar10_pydmobilenet56_0.25_plus/stg0/blk2/btl_in/batchnorm0_gamma", 
      "attrs": {
        "__dtype__": "0", 
        "__init__": "ones", 
        "__lr_mult__": "1.0", 
        "__shape__": "(0,)", 
        "__storage_type__": "0", 
        "__wd_mult__": "1.0"
      }, 
      "inputs": []
    }, 
    {
      "op": "null", 
      "name": "cifar10_pydmobilenet56_0.25_plus/stg0/blk2/btl_in/batchnorm0_beta", 
      "attrs": {
        "__dtype__": "0", 
        "__init__": "zeros", 
        "__lr_mult__": "1.0", 
        "__shape__": "(0,)", 
        "__storage_type__": "0", 
        "__wd_mult__": "1.0"
      }, 
      "inputs": []
    }, 
    {
      "op": "null", 
      "name": "cifar10_pydmobilenet56_0.25_plus/stg0/blk2/btl_in/batchnorm0_running_mean", 
      "attrs": {
        "__dtype__": "0", 
        "__init__": "zeros", 
        "__lr_mult__": "1.0", 
        "__shape__": "(0,)", 
        "__storage_type__": "0", 
        "__wd_mult__": "1.0"
      }, 
      "inputs": []
    }, 
    {
      "op": "null", 
      "name": "cifar10_pydmobilenet56_0.25_plus/stg0/blk2/btl_in/batchnorm0_running_var", 
      "attrs": {
        "__dtype__": "0", 
        "__init__": "ones", 
        "__lr_mult__": "1.0", 
        "__shape__": "(0,)", 
        "__storage_type__": "0", 
        "__wd_mult__": "1.0"
      }, 
      "inputs": []
    }, 
    {
      "op": "BatchNorm", 
      "name": "cifar10_pydmobilenet56_0.25_plus/stg0/blk2/btl_in/batchnorm0_fwd", 
      "attrs": {
        "axis": "1", 
        "eps": "1e-05", 
        "fix_gamma": "False", 
        "momentum": "0.9", 
        "use_global_stats": "False"
      }, 
      "inputs": [[79, 0, 0], [80, 0, 0], [81, 0, 0], [82, 0, 1], [83, 0, 1]]
    }, 
    {
      "op": "Activation", 
      "name": "cifar10_pydmobilenet56_0.25_plus/stg0/blk2/btl_in/relu0_fwd", 
      "attrs": {"act_type": "relu"}, 
      "inputs": [[84, 0, 0]]
    }, 
    {
      "op": "null", 
      "name": "cifar10_pydmobilenet56_0.25_plus/stg0/blk2/btl_in/conv0_weight", 
      "attrs": {
        "__dtype__": "0", 
        "__lr_mult__": "1.0", 
        "__shape__": "(8, 0, 1, 1)", 
        "__storage_type__": "0", 
        "__wd_mult__": "1.0"
      }, 
      "inputs": []
    }, 
    {
      "op": "Convolution", 
      "name": "cifar10_pydmobilenet56_0.25_plus/stg0/blk2/btl_in/conv0_fwd", 
      "attrs": {
        "dilate": "(1, 1)", 
        "kernel": "(1, 1)", 
        "layout": "NCHW", 
        "no_bias": "True", 
        "num_filter": "8", 
        "num_group": "1", 
        "pad": "(0, 0)", 
        "stride": "(1, 1)"
      }, 
      "inputs": [[85, 0, 0], [86, 0, 0]]
    }, 
    {
      "op": "null", 
      "name": "cifar10_pydmobilenet56_0.25_plus/stg0/blk2/btl_in/batchnorm1_gamma", 
      "attrs": {
        "__dtype__": "0", 
        "__init__": "ones", 
        "__lr_mult__": "1.0", 
        "__shape__": "(0,)", 
        "__storage_type__": "0", 
        "__wd_mult__": "1.0"
      }, 
      "inputs": []
    }, 
    {
      "op": "null", 
      "name": "cifar10_pydmobilenet56_0.25_plus/stg0/blk2/btl_in/batchnorm1_beta", 
      "attrs": {
        "__dtype__": "0", 
        "__init__": "zeros", 
        "__lr_mult__": "1.0", 
        "__shape__": "(0,)", 
        "__storage_type__": "0", 
        "__wd_mult__": "1.0"
      }, 
      "inputs": []
    }, 
    {
      "op": "null", 
      "name": "cifar10_pydmobilenet56_0.25_plus/stg0/blk2/btl_in/batchnorm1_running_mean", 
      "attrs": {
        "__dtype__": "0", 
        "__init__": "zeros", 
        "__lr_mult__": "1.0", 
        "__shape__": "(0,)", 
        "__storage_type__": "0", 
        "__wd_mult__": "1.0"
      }, 
      "inputs": []
    }, 
    {
      "op": "null", 
      "name": "cifar10_pydmobilenet56_0.25_plus/stg0/blk2/btl_in/batchnorm1_running_var", 
      "attrs": {
        "__dtype__": "0", 
        "__init__": "ones", 
        "__lr_mult__": "1.0", 
        "__shape__": "(0,)", 
        "__storage_type__": "0", 
        "__wd_mult__": "1.0"
      }, 
      "inputs": []
    }, 
    {
      "op": "BatchNorm", 
      "name": "cifar10_pydmobilenet56_0.25_plus/stg0/blk2/btl_in/batchnorm1_fwd", 
      "attrs": {
        "axis": "1", 
        "eps": "1e-05", 
        "fix_gamma": "False", 
        "momentum": "0.9", 
        "use_global_stats": "False"
      }, 
      "inputs": [[87, 0, 0], [88, 0, 0], [89, 0, 0], [90, 0, 1], [91, 0, 1]]
    }, 
    {
      "op": "Activation", 
      "name": "cifar10_pydmobilenet56_0.25_plus/stg0/blk2/btl_in/relu1_fwd", 
      "attrs": {"act_type": "relu"}, 
      "inputs": [[92, 0, 0]]
    }, 
    {
      "op": "null", 
      "name": "cifar10_pydmobilenet56_0.25_plus/stg0/blk2/conv3/conv0_weight", 
      "attrs": {
        "__dtype__": "0", 
        "__lr_mult__": "1.0", 
        "__shape__": "(8, 0, 3, 3)", 
        "__storage_type__": "0", 
        "__wd_mult__": "1.0"
      }, 
      "inputs": []
    }, 
    {
      "op": "Convolution", 
      "name": "cifar10_pydmobilenet56_0.25_plus/stg0/blk2/conv3/conv0_fwd", 
      "attrs": {
        "dilate": "(1, 1)", 
        "kernel": "(3, 3)", 
        "layout": "NCHW", 
        "no_bias": "True", 
        "num_filter": "8", 
        "num_group": "8", 
        "pad": "(1, 1)", 
        "stride": "(1, 1)"
      }, 
      "inputs": [[93, 0, 0], [94, 0, 0]]
    }, 
    {
      "op": "null", 
      "name": "cifar10_pydmobilenet56_0.25_plus/stg0/blk2/conv5/conv0_weight", 
      "attrs": {
        "__dtype__": "0", 
        "__lr_mult__": "1.0", 
        "__shape__": "(8, 0, 5, 5)", 
        "__storage_type__": "0", 
        "__wd_mult__": "1.0"
      }, 
      "inputs": []
    }, 
    {
      "op": "Convolution", 
      "name": "cifar10_pydmobilenet56_0.25_plus/stg0/blk2/conv5/conv0_fwd", 
      "attrs": {
        "dilate": "(1, 1)", 
        "kernel": "(5, 5)", 
        "layout": "NCHW", 
        "no_bias": "True", 
        "num_filter": "8", 
        "num_group": "8", 
        "pad": "(2, 2)", 
        "stride": "(1, 1)"
      }, 
      "inputs": [[93, 0, 0], [96, 0, 0]]
    }, 
    {
      "op": "elemwise_add", 
      "name": "cifar10_pydmobilenet56_0.25_plus/stg0/blk2/_plus0", 
      "inputs": [[95, 0, 0], [97, 0, 0]]
    }, 
    {
      "op": "null", 
      "name": "cifar10_pydmobilenet56_0.25_plus/stg0/blk2/conv7/conv0_weight", 
      "attrs": {
        "__dtype__": "0", 
        "__lr_mult__": "1.0", 
        "__shape__": "(8, 0, 7, 7)", 
        "__storage_type__": "0", 
        "__wd_mult__": "1.0"
      }, 
      "inputs": []
    }, 
    {
      "op": "Convolution", 
      "name": "cifar10_pydmobilenet56_0.25_plus/stg0/blk2/conv7/conv0_fwd", 
      "attrs": {
        "dilate": "(1, 1)", 
        "kernel": "(7, 7)", 
        "layout": "NCHW", 
        "no_bias": "True", 
        "num_filter": "8", 
        "num_group": "8", 
        "pad": "(3, 3)", 
        "stride": "(1, 1)"
      }, 
      "inputs": [[93, 0, 0], [99, 0, 0]]
    }, 
    {
      "op": "elemwise_add", 
      "name": "cifar10_pydmobilenet56_0.25_plus/stg0/blk2/_plus1", 
      "inputs": [[98, 0, 0], [100, 0, 0]]
    }, 
    {
      "op": "null", 
      "name": "cifar10_pydmobilenet56_0.25_plus/stg0/blk2/btl_out/batchnorm0_gamma", 
      "attrs": {
        "__dtype__": "0", 
        "__init__": "ones", 
        "__lr_mult__": "1.0", 
        "__shape__": "(0,)", 
        "__storage_type__": "0", 
        "__wd_mult__": "1.0"
      }, 
      "inputs": []
    }, 
    {
      "op": "null", 
      "name": "cifar10_pydmobilenet56_0.25_plus/stg0/blk2/btl_out/batchnorm0_beta", 
      "attrs": {
        "__dtype__": "0", 
        "__init__": "zeros", 
        "__lr_mult__": "1.0", 
        "__shape__": "(0,)", 
        "__storage_type__": "0", 
        "__wd_mult__": "1.0"
      }, 
      "inputs": []
    }, 
    {
      "op": "null", 
      "name": "cifar10_pydmobilenet56_0.25_plus/stg0/blk2/btl_out/batchnorm0_running_mean", 
      "attrs": {
        "__dtype__": "0", 
        "__init__": "zeros", 
        "__lr_mult__": "1.0", 
        "__shape__": "(0,)", 
        "__storage_type__": "0", 
        "__wd_mult__": "1.0"
      }, 
      "inputs": []
    }, 
    {
      "op": "null", 
      "name": "cifar10_pydmobilenet56_0.25_plus/stg0/blk2/btl_out/batchnorm0_running_var", 
      "attrs": {
        "__dtype__": "0", 
        "__init__": "ones", 
        "__lr_mult__": "1.0", 
        "__shape__": "(0,)", 
        "__storage_type__": "0", 
        "__wd_mult__": "1.0"
      }, 
      "inputs": []
    }, 
    {
      "op": "BatchNorm", 
      "name": "cifar10_pydmobilenet56_0.25_plus/stg0/blk2/btl_out/batchnorm0_fwd", 
      "attrs": {
        "axis": "1", 
        "eps": "1e-05", 
        "fix_gamma": "False", 
        "momentum": "0.9", 
        "use_global_stats": "False"
      }, 
      "inputs": [[101, 0, 0], [102, 0, 0], [103, 0, 0], [104, 0, 1], [105, 0, 1]]
    }, 
    {
      "op": "Activation", 
      "name": "cifar10_pydmobilenet56_0.25_plus/stg0/blk2/btl_out/relu0_fwd", 
      "attrs": {"act_type": "relu"}, 
      "inputs": [[106, 0, 0]]
    }, 
    {
      "op": "null", 
      "name": "cifar10_pydmobilenet56_0.25_plus/stg0/blk2/btl_out/conv0_weight", 
      "attrs": {
        "__dtype__": "0", 
        "__lr_mult__": "1.0", 
        "__shape__": "(32, 0, 1, 1)", 
        "__storage_type__": "0", 
        "__wd_mult__": "1.0"
      }, 
      "inputs": []
    }, 
    {
      "op": "Convolution", 
      "name": "cifar10_pydmobilenet56_0.25_plus/stg0/blk2/btl_out/conv0_fwd", 
      "attrs": {
        "dilate": "(1, 1)", 
        "kernel": "(1, 1)", 
        "layout": "NCHW", 
        "no_bias": "True", 
        "num_filter": "32", 
        "num_group": "1", 
        "pad": "(0, 0)", 
        "stride": "(1, 1)"
      }, 
      "inputs": [[107, 0, 0], [108, 0, 0]]
    }, 
    {
      "op": "null", 
      "name": "cifar10_pydmobilenet56_0.25_plus/stg0/blk2/btl_out/batchnorm1_gamma", 
      "attrs": {
        "__dtype__": "0", 
        "__init__": "ones", 
        "__lr_mult__": "1.0", 
        "__shape__": "(0,)", 
        "__storage_type__": "0", 
        "__wd_mult__": "1.0"
      }, 
      "inputs": []
    }, 
    {
      "op": "null", 
      "name": "cifar10_pydmobilenet56_0.25_plus/stg0/blk2/btl_out/batchnorm1_beta", 
      "attrs": {
        "__dtype__": "0", 
        "__init__": "zeros", 
        "__lr_mult__": "1.0", 
        "__shape__": "(0,)", 
        "__storage_type__": "0", 
        "__wd_mult__": "1.0"
      }, 
      "inputs": []
    }, 
    {
      "op": "null", 
      "name": "cifar10_pydmobilenet56_0.25_plus/stg0/blk2/btl_out/batchnorm1_running_mean", 
      "attrs": {
        "__dtype__": "0", 
        "__init__": "zeros", 
        "__lr_mult__": "1.0", 
        "__shape__": "(0,)", 
        "__storage_type__": "0", 
        "__wd_mult__": "1.0"
      }, 
      "inputs": []
    }, 
    {
      "op": "null", 
      "name": "cifar10_pydmobilenet56_0.25_plus/stg0/blk2/btl_out/batchnorm1_running_var", 
      "attrs": {
        "__dtype__": "0", 
        "__init__": "ones", 
        "__lr_mult__": "1.0", 
        "__shape__": "(0,)", 
        "__storage_type__": "0", 
        "__wd_mult__": "1.0"
      }, 
      "inputs": []
    }, 
    {
      "op": "BatchNorm", 
      "name": "cifar10_pydmobilenet56_0.25_plus/stg0/blk2/btl_out/batchnorm1_fwd", 
      "attrs": {
        "axis": "1", 
        "eps": "1e-05", 
        "fix_gamma": "False", 
        "momentum": "0.9", 
        "use_global_stats": "False"
      }, 
      "inputs": [[109, 0, 0], [110, 0, 0], [111, 0, 0], [112, 0, 1], [113, 0, 1]]
    }, 
    {
      "op": "elemwise_add", 
      "name": "cifar10_pydmobilenet56_0.25_plus/stg0/blk2/_plus2", 
      "inputs": [[114, 0, 0], [79, 0, 0]]
    }, 
    {
      "op": "null", 
      "name": "cifar10_pydmobilenet56_0.25_plus/stg0/blk3/btl_in/batchnorm0_gamma", 
      "attrs": {
        "__dtype__": "0", 
        "__init__": "ones", 
        "__lr_mult__": "1.0", 
        "__shape__": "(0,)", 
        "__storage_type__": "0", 
        "__wd_mult__": "1.0"
      }, 
      "inputs": []
    }, 
    {
      "op": "null", 
      "name": "cifar10_pydmobilenet56_0.25_plus/stg0/blk3/btl_in/batchnorm0_beta", 
      "attrs": {
        "__dtype__": "0", 
        "__init__": "zeros", 
        "__lr_mult__": "1.0", 
        "__shape__": "(0,)", 
        "__storage_type__": "0", 
        "__wd_mult__": "1.0"
      }, 
      "inputs": []
    }, 
    {
      "op": "null", 
      "name": "cifar10_pydmobilenet56_0.25_plus/stg0/blk3/btl_in/batchnorm0_running_mean", 
      "attrs": {
        "__dtype__": "0", 
        "__init__": "zeros", 
        "__lr_mult__": "1.0", 
        "__shape__": "(0,)", 
        "__storage_type__": "0", 
        "__wd_mult__": "1.0"
      }, 
      "inputs": []
    }, 
    {
      "op": "null", 
      "name": "cifar10_pydmobilenet56_0.25_plus/stg0/blk3/btl_in/batchnorm0_running_var", 
      "attrs": {
        "__dtype__": "0", 
        "__init__": "ones", 
        "__lr_mult__": "1.0", 
        "__shape__": "(0,)", 
        "__storage_type__": "0", 
        "__wd_mult__": "1.0"
      }, 
      "inputs": []
    }, 
    {
      "op": "BatchNorm", 
      "name": "cifar10_pydmobilenet56_0.25_plus/stg0/blk3/btl_in/batchnorm0_fwd", 
      "attrs": {
        "axis": "1", 
        "eps": "1e-05", 
        "fix_gamma": "False", 
        "momentum": "0.9", 
        "use_global_stats": "False"
      }, 
      "inputs": [[115, 0, 0], [116, 0, 0], [117, 0, 0], [118, 0, 1], [119, 0, 1]]
    }, 
    {
      "op": "Activation", 
      "name": "cifar10_pydmobilenet56_0.25_plus/stg0/blk3/btl_in/relu0_fwd", 
      "attrs": {"act_type": "relu"}, 
      "inputs": [[120, 0, 0]]
    }, 
    {
      "op": "null", 
      "name": "cifar10_pydmobilenet56_0.25_plus/stg0/blk3/btl_in/conv0_weight", 
      "attrs": {
        "__dtype__": "0", 
        "__lr_mult__": "1.0", 
        "__shape__": "(8, 0, 1, 1)", 
        "__storage_type__": "0", 
        "__wd_mult__": "1.0"
      }, 
      "inputs": []
    }, 
    {
      "op": "Convolution", 
      "name": "cifar10_pydmobilenet56_0.25_plus/stg0/blk3/btl_in/conv0_fwd", 
      "attrs": {
        "dilate": "(1, 1)", 
        "kernel": "(1, 1)", 
        "layout": "NCHW", 
        "no_bias": "True", 
        "num_filter": "8", 
        "num_group": "1", 
        "pad": "(0, 0)", 
        "stride": "(1, 1)"
      }, 
      "inputs": [[121, 0, 0], [122, 0, 0]]
    }, 
    {
      "op": "null", 
      "name": "cifar10_pydmobilenet56_0.25_plus/stg0/blk3/btl_in/batchnorm1_gamma", 
      "attrs": {
        "__dtype__": "0", 
        "__init__": "ones", 
        "__lr_mult__": "1.0", 
        "__shape__": "(0,)", 
        "__storage_type__": "0", 
        "__wd_mult__": "1.0"
      }, 
      "inputs": []
    }, 
    {
      "op": "null", 
      "name": "cifar10_pydmobilenet56_0.25_plus/stg0/blk3/btl_in/batchnorm1_beta", 
      "attrs": {
        "__dtype__": "0", 
        "__init__": "zeros", 
        "__lr_mult__": "1.0", 
        "__shape__": "(0,)", 
        "__storage_type__": "0", 
        "__wd_mult__": "1.0"
      }, 
      "inputs": []
    }, 
    {
      "op": "null", 
      "name": "cifar10_pydmobilenet56_0.25_plus/stg0/blk3/btl_in/batchnorm1_running_mean", 
      "attrs": {
        "__dtype__": "0", 
        "__init__": "zeros", 
        "__lr_mult__": "1.0", 
        "__shape__": "(0,)", 
        "__storage_type__": "0", 
        "__wd_mult__": "1.0"
      }, 
      "inputs": []
    }, 
    {
      "op": "null", 
      "name": "cifar10_pydmobilenet56_0.25_plus/stg0/blk3/btl_in/batchnorm1_running_var", 
      "attrs": {
        "__dtype__": "0", 
        "__init__": "ones", 
        "__lr_mult__": "1.0", 
        "__shape__": "(0,)", 
        "__storage_type__": "0", 
        "__wd_mult__": "1.0"
      }, 
      "inputs": []
    }, 
    {
      "op": "BatchNorm", 
      "name": "cifar10_pydmobilenet56_0.25_plus/stg0/blk3/btl_in/batchnorm1_fwd", 
      "attrs": {
        "axis": "1", 
        "eps": "1e-05", 
        "fix_gamma": "False", 
        "momentum": "0.9", 
        "use_global_stats": "False"
      }, 
      "inputs": [[123, 0, 0], [124, 0, 0], [125, 0, 0], [126, 0, 1], [127, 0, 1]]
    }, 
    {
      "op": "Activation", 
      "name": "cifar10_pydmobilenet56_0.25_plus/stg0/blk3/btl_in/relu1_fwd", 
      "attrs": {"act_type": "relu"}, 
      "inputs": [[128, 0, 0]]
    }, 
    {
      "op": "null", 
      "name": "cifar10_pydmobilenet56_0.25_plus/stg0/blk3/conv3/conv0_weight", 
      "attrs": {
        "__dtype__": "0", 
        "__lr_mult__": "1.0", 
        "__shape__": "(8, 0, 3, 3)", 
        "__storage_type__": "0", 
        "__wd_mult__": "1.0"
      }, 
      "inputs": []
    }, 
    {
      "op": "Convolution", 
      "name": "cifar10_pydmobilenet56_0.25_plus/stg0/blk3/conv3/conv0_fwd", 
      "attrs": {
        "dilate": "(1, 1)", 
        "kernel": "(3, 3)", 
        "layout": "NCHW", 
        "no_bias": "True", 
        "num_filter": "8", 
        "num_group": "8", 
        "pad": "(1, 1)", 
        "stride": "(1, 1)"
      }, 
      "inputs": [[129, 0, 0], [130, 0, 0]]
    }, 
    {
      "op": "null", 
      "name": "cifar10_pydmobilenet56_0.25_plus/stg0/blk3/conv5/conv0_weight", 
      "attrs": {
        "__dtype__": "0", 
        "__lr_mult__": "1.0", 
        "__shape__": "(8, 0, 5, 5)", 
        "__storage_type__": "0", 
        "__wd_mult__": "1.0"
      }, 
      "inputs": []
    }, 
    {
      "op": "Convolution", 
      "name": "cifar10_pydmobilenet56_0.25_plus/stg0/blk3/conv5/conv0_fwd", 
      "attrs": {
        "dilate": "(1, 1)", 
        "kernel": "(5, 5)", 
        "layout": "NCHW", 
        "no_bias": "True", 
        "num_filter": "8", 
        "num_group": "8", 
        "pad": "(2, 2)", 
        "stride": "(1, 1)"
      }, 
      "inputs": [[129, 0, 0], [132, 0, 0]]
    }, 
    {
      "op": "elemwise_add", 
      "name": "cifar10_pydmobilenet56_0.25_plus/stg0/blk3/_plus0", 
      "inputs": [[131, 0, 0], [133, 0, 0]]
    }, 
    {
      "op": "null", 
      "name": "cifar10_pydmobilenet56_0.25_plus/stg0/blk3/conv7/conv0_weight", 
      "attrs": {
        "__dtype__": "0", 
        "__lr_mult__": "1.0", 
        "__shape__": "(8, 0, 7, 7)", 
        "__storage_type__": "0", 
        "__wd_mult__": "1.0"
      }, 
      "inputs": []
    }, 
    {
      "op": "Convolution", 
      "name": "cifar10_pydmobilenet56_0.25_plus/stg0/blk3/conv7/conv0_fwd", 
      "attrs": {
        "dilate": "(1, 1)", 
        "kernel": "(7, 7)", 
        "layout": "NCHW", 
        "no_bias": "True", 
        "num_filter": "8", 
        "num_group": "8", 
        "pad": "(3, 3)", 
        "stride": "(1, 1)"
      }, 
      "inputs": [[129, 0, 0], [135, 0, 0]]
    }, 
    {
      "op": "elemwise_add", 
      "name": "cifar10_pydmobilenet56_0.25_plus/stg0/blk3/_plus1", 
      "inputs": [[134, 0, 0], [136, 0, 0]]
    }, 
    {
      "op": "null", 
      "name": "cifar10_pydmobilenet56_0.25_plus/stg0/blk3/btl_out/batchnorm0_gamma", 
      "attrs": {
        "__dtype__": "0", 
        "__init__": "ones", 
        "__lr_mult__": "1.0", 
        "__shape__": "(0,)", 
        "__storage_type__": "0", 
        "__wd_mult__": "1.0"
      }, 
      "inputs": []
    }, 
    {
      "op": "null", 
      "name": "cifar10_pydmobilenet56_0.25_plus/stg0/blk3/btl_out/batchnorm0_beta", 
      "attrs": {
        "__dtype__": "0", 
        "__init__": "zeros", 
        "__lr_mult__": "1.0", 
        "__shape__": "(0,)", 
        "__storage_type__": "0", 
        "__wd_mult__": "1.0"
      }, 
      "inputs": []
    }, 
    {
      "op": "null", 
      "name": "cifar10_pydmobilenet56_0.25_plus/stg0/blk3/btl_out/batchnorm0_running_mean", 
      "attrs": {
        "__dtype__": "0", 
        "__init__": "zeros", 
        "__lr_mult__": "1.0", 
        "__shape__": "(0,)", 
        "__storage_type__": "0", 
        "__wd_mult__": "1.0"
      }, 
      "inputs": []
    }, 
    {
      "op": "null", 
      "name": "cifar10_pydmobilenet56_0.25_plus/stg0/blk3/btl_out/batchnorm0_running_var", 
      "attrs": {
        "__dtype__": "0", 
        "__init__": "ones", 
        "__lr_mult__": "1.0", 
        "__shape__": "(0,)", 
        "__storage_type__": "0", 
        "__wd_mult__": "1.0"
      }, 
      "inputs": []
    }, 
    {
      "op": "BatchNorm", 
      "name": "cifar10_pydmobilenet56_0.25_plus/stg0/blk3/btl_out/batchnorm0_fwd", 
      "attrs": {
        "axis": "1", 
        "eps": "1e-05", 
        "fix_gamma": "False", 
        "momentum": "0.9", 
        "use_global_stats": "False"
      }, 
      "inputs": [[137, 0, 0], [138, 0, 0], [139, 0, 0], [140, 0, 1], [141, 0, 1]]
    }, 
    {
      "op": "Activation", 
      "name": "cifar10_pydmobilenet56_0.25_plus/stg0/blk3/btl_out/relu0_fwd", 
      "attrs": {"act_type": "relu"}, 
      "inputs": [[142, 0, 0]]
    }, 
    {
      "op": "null", 
      "name": "cifar10_pydmobilenet56_0.25_plus/stg0/blk3/btl_out/conv0_weight", 
      "attrs": {
        "__dtype__": "0", 
        "__lr_mult__": "1.0", 
        "__shape__": "(32, 0, 1, 1)", 
        "__storage_type__": "0", 
        "__wd_mult__": "1.0"
      }, 
      "inputs": []
    }, 
    {
      "op": "Convolution", 
      "name": "cifar10_pydmobilenet56_0.25_plus/stg0/blk3/btl_out/conv0_fwd", 
      "attrs": {
        "dilate": "(1, 1)", 
        "kernel": "(1, 1)", 
        "layout": "NCHW", 
        "no_bias": "True", 
        "num_filter": "32", 
        "num_group": "1", 
        "pad": "(0, 0)", 
        "stride": "(1, 1)"
      }, 
      "inputs": [[143, 0, 0], [144, 0, 0]]
    }, 
    {
      "op": "null", 
      "name": "cifar10_pydmobilenet56_0.25_plus/stg0/blk3/btl_out/batchnorm1_gamma", 
      "attrs": {
        "__dtype__": "0", 
        "__init__": "ones", 
        "__lr_mult__": "1.0", 
        "__shape__": "(0,)", 
        "__storage_type__": "0", 
        "__wd_mult__": "1.0"
      }, 
      "inputs": []
    }, 
    {
      "op": "null", 
      "name": "cifar10_pydmobilenet56_0.25_plus/stg0/blk3/btl_out/batchnorm1_beta", 
      "attrs": {
        "__dtype__": "0", 
        "__init__": "zeros", 
        "__lr_mult__": "1.0", 
        "__shape__": "(0,)", 
        "__storage_type__": "0", 
        "__wd_mult__": "1.0"
      }, 
      "inputs": []
    }, 
    {
      "op": "null", 
      "name": "cifar10_pydmobilenet56_0.25_plus/stg0/blk3/btl_out/batchnorm1_running_mean", 
      "attrs": {
        "__dtype__": "0", 
        "__init__": "zeros", 
        "__lr_mult__": "1.0", 
        "__shape__": "(0,)", 
        "__storage_type__": "0", 
        "__wd_mult__": "1.0"
      }, 
      "inputs": []
    }, 
    {
      "op": "null", 
      "name": "cifar10_pydmobilenet56_0.25_plus/stg0/blk3/btl_out/batchnorm1_running_var", 
      "attrs": {
        "__dtype__": "0", 
        "__init__": "ones", 
        "__lr_mult__": "1.0", 
        "__shape__": "(0,)", 
        "__storage_type__": "0", 
        "__wd_mult__": "1.0"
      }, 
      "inputs": []
    }, 
    {
      "op": "BatchNorm", 
      "name": "cifar10_pydmobilenet56_0.25_plus/stg0/blk3/btl_out/batchnorm1_fwd", 
      "attrs": {
        "axis": "1", 
        "eps": "1e-05", 
        "fix_gamma": "False", 
        "momentum": "0.9", 
        "use_global_stats": "False"
      }, 
      "inputs": [[145, 0, 0], [146, 0, 0], [147, 0, 0], [148, 0, 1], [149, 0, 1]]
    }, 
    {
      "op": "elemwise_add", 
      "name": "cifar10_pydmobilenet56_0.25_plus/stg0/blk3/_plus2", 
      "inputs": [[150, 0, 0], [115, 0, 0]]
    }, 
    {
      "op": "null", 
      "name": "cifar10_pydmobilenet56_0.25_plus/stg0/blk4/btl_in/batchnorm0_gamma", 
      "attrs": {
        "__dtype__": "0", 
        "__init__": "ones", 
        "__lr_mult__": "1.0", 
        "__shape__": "(0,)", 
        "__storage_type__": "0", 
        "__wd_mult__": "1.0"
      }, 
      "inputs": []
    }, 
    {
      "op": "null", 
      "name": "cifar10_pydmobilenet56_0.25_plus/stg0/blk4/btl_in/batchnorm0_beta", 
      "attrs": {
        "__dtype__": "0", 
        "__init__": "zeros", 
        "__lr_mult__": "1.0", 
        "__shape__": "(0,)", 
        "__storage_type__": "0", 
        "__wd_mult__": "1.0"
      }, 
      "inputs": []
    }, 
    {
      "op": "null", 
      "name": "cifar10_pydmobilenet56_0.25_plus/stg0/blk4/btl_in/batchnorm0_running_mean", 
      "attrs": {
        "__dtype__": "0", 
        "__init__": "zeros", 
        "__lr_mult__": "1.0", 
        "__shape__": "(0,)", 
        "__storage_type__": "0", 
        "__wd_mult__": "1.0"
      }, 
      "inputs": []
    }, 
    {
      "op": "null", 
      "name": "cifar10_pydmobilenet56_0.25_plus/stg0/blk4/btl_in/batchnorm0_running_var", 
      "attrs": {
        "__dtype__": "0", 
        "__init__": "ones", 
        "__lr_mult__": "1.0", 
        "__shape__": "(0,)", 
        "__storage_type__": "0", 
        "__wd_mult__": "1.0"
      }, 
      "inputs": []
    }, 
    {
      "op": "BatchNorm", 
      "name": "cifar10_pydmobilenet56_0.25_plus/stg0/blk4/btl_in/batchnorm0_fwd", 
      "attrs": {
        "axis": "1", 
        "eps": "1e-05", 
        "fix_gamma": "False", 
        "momentum": "0.9", 
        "use_global_stats": "False"
      }, 
      "inputs": [[151, 0, 0], [152, 0, 0], [153, 0, 0], [154, 0, 1], [155, 0, 1]]
    }, 
    {
      "op": "Activation", 
      "name": "cifar10_pydmobilenet56_0.25_plus/stg0/blk4/btl_in/relu0_fwd", 
      "attrs": {"act_type": "relu"}, 
      "inputs": [[156, 0, 0]]
    }, 
    {
      "op": "null", 
      "name": "cifar10_pydmobilenet56_0.25_plus/stg0/blk4/btl_in/conv0_weight", 
      "attrs": {
        "__dtype__": "0", 
        "__lr_mult__": "1.0", 
        "__shape__": "(8, 0, 1, 1)", 
        "__storage_type__": "0", 
        "__wd_mult__": "1.0"
      }, 
      "inputs": []
    }, 
    {
      "op": "Convolution", 
      "name": "cifar10_pydmobilenet56_0.25_plus/stg0/blk4/btl_in/conv0_fwd", 
      "attrs": {
        "dilate": "(1, 1)", 
        "kernel": "(1, 1)", 
        "layout": "NCHW", 
        "no_bias": "True", 
        "num_filter": "8", 
        "num_group": "1", 
        "pad": "(0, 0)", 
        "stride": "(1, 1)"
      }, 
      "inputs": [[157, 0, 0], [158, 0, 0]]
    }, 
    {
      "op": "null", 
      "name": "cifar10_pydmobilenet56_0.25_plus/stg0/blk4/btl_in/batchnorm1_gamma", 
      "attrs": {
        "__dtype__": "0", 
        "__init__": "ones", 
        "__lr_mult__": "1.0", 
        "__shape__": "(0,)", 
        "__storage_type__": "0", 
        "__wd_mult__": "1.0"
      }, 
      "inputs": []
    }, 
    {
      "op": "null", 
      "name": "cifar10_pydmobilenet56_0.25_plus/stg0/blk4/btl_in/batchnorm1_beta", 
      "attrs": {
        "__dtype__": "0", 
        "__init__": "zeros", 
        "__lr_mult__": "1.0", 
        "__shape__": "(0,)", 
        "__storage_type__": "0", 
        "__wd_mult__": "1.0"
      }, 
      "inputs": []
    }, 
    {
      "op": "null", 
      "name": "cifar10_pydmobilenet56_0.25_plus/stg0/blk4/btl_in/batchnorm1_running_mean", 
      "attrs": {
        "__dtype__": "0", 
        "__init__": "zeros", 
        "__lr_mult__": "1.0", 
        "__shape__": "(0,)", 
        "__storage_type__": "0", 
        "__wd_mult__": "1.0"
      }, 
      "inputs": []
    }, 
    {
      "op": "null", 
      "name": "cifar10_pydmobilenet56_0.25_plus/stg0/blk4/btl_in/batchnorm1_running_var", 
      "attrs": {
        "__dtype__": "0", 
        "__init__": "ones", 
        "__lr_mult__": "1.0", 
        "__shape__": "(0,)", 
        "__storage_type__": "0", 
        "__wd_mult__": "1.0"
      }, 
      "inputs": []
    }, 
    {
      "op": "BatchNorm", 
      "name": "cifar10_pydmobilenet56_0.25_plus/stg0/blk4/btl_in/batchnorm1_fwd", 
      "attrs": {
        "axis": "1", 
        "eps": "1e-05", 
        "fix_gamma": "False", 
        "momentum": "0.9", 
        "use_global_stats": "False"
      }, 
      "inputs": [[159, 0, 0], [160, 0, 0], [161, 0, 0], [162, 0, 1], [163, 0, 1]]
    }, 
    {
      "op": "Activation", 
      "name": "cifar10_pydmobilenet56_0.25_plus/stg0/blk4/btl_in/relu1_fwd", 
      "attrs": {"act_type": "relu"}, 
      "inputs": [[164, 0, 0]]
    }, 
    {
      "op": "null", 
      "name": "cifar10_pydmobilenet56_0.25_plus/stg0/blk4/conv3/conv0_weight", 
      "attrs": {
        "__dtype__": "0", 
        "__lr_mult__": "1.0", 
        "__shape__": "(8, 0, 3, 3)", 
        "__storage_type__": "0", 
        "__wd_mult__": "1.0"
      }, 
      "inputs": []
    }, 
    {
      "op": "Convolution", 
      "name": "cifar10_pydmobilenet56_0.25_plus/stg0/blk4/conv3/conv0_fwd", 
      "attrs": {
        "dilate": "(1, 1)", 
        "kernel": "(3, 3)", 
        "layout": "NCHW", 
        "no_bias": "True", 
        "num_filter": "8", 
        "num_group": "8", 
        "pad": "(1, 1)", 
        "stride": "(1, 1)"
      }, 
      "inputs": [[165, 0, 0], [166, 0, 0]]
    }, 
    {
      "op": "null", 
      "name": "cifar10_pydmobilenet56_0.25_plus/stg0/blk4/conv5/conv0_weight", 
      "attrs": {
        "__dtype__": "0", 
        "__lr_mult__": "1.0", 
        "__shape__": "(8, 0, 5, 5)", 
        "__storage_type__": "0", 
        "__wd_mult__": "1.0"
      }, 
      "inputs": []
    }, 
    {
      "op": "Convolution", 
      "name": "cifar10_pydmobilenet56_0.25_plus/stg0/blk4/conv5/conv0_fwd", 
      "attrs": {
        "dilate": "(1, 1)", 
        "kernel": "(5, 5)", 
        "layout": "NCHW", 
        "no_bias": "True", 
        "num_filter": "8", 
        "num_group": "8", 
        "pad": "(2, 2)", 
        "stride": "(1, 1)"
      }, 
      "inputs": [[165, 0, 0], [168, 0, 0]]
    }, 
    {
      "op": "elemwise_add", 
      "name": "cifar10_pydmobilenet56_0.25_plus/stg0/blk4/_plus0", 
      "inputs": [[167, 0, 0], [169, 0, 0]]
    }, 
    {
      "op": "null", 
      "name": "cifar10_pydmobilenet56_0.25_plus/stg0/blk4/conv7/conv0_weight", 
      "attrs": {
        "__dtype__": "0", 
        "__lr_mult__": "1.0", 
        "__shape__": "(8, 0, 7, 7)", 
        "__storage_type__": "0", 
        "__wd_mult__": "1.0"
      }, 
      "inputs": []
    }, 
    {
      "op": "Convolution", 
      "name": "cifar10_pydmobilenet56_0.25_plus/stg0/blk4/conv7/conv0_fwd", 
      "attrs": {
        "dilate": "(1, 1)", 
        "kernel": "(7, 7)", 
        "layout": "NCHW", 
        "no_bias": "True", 
        "num_filter": "8", 
        "num_group": "8", 
        "pad": "(3, 3)", 
        "stride": "(1, 1)"
      }, 
      "inputs": [[165, 0, 0], [171, 0, 0]]
    }, 
    {
      "op": "elemwise_add", 
      "name": "cifar10_pydmobilenet56_0.25_plus/stg0/blk4/_plus1", 
      "inputs": [[170, 0, 0], [172, 0, 0]]
    }, 
    {
      "op": "null", 
      "name": "cifar10_pydmobilenet56_0.25_plus/stg0/blk4/btl_out/batchnorm0_gamma", 
      "attrs": {
        "__dtype__": "0", 
        "__init__": "ones", 
        "__lr_mult__": "1.0", 
        "__shape__": "(0,)", 
        "__storage_type__": "0", 
        "__wd_mult__": "1.0"
      }, 
      "inputs": []
    }, 
    {
      "op": "null", 
      "name": "cifar10_pydmobilenet56_0.25_plus/stg0/blk4/btl_out/batchnorm0_beta", 
      "attrs": {
        "__dtype__": "0", 
        "__init__": "zeros", 
        "__lr_mult__": "1.0", 
        "__shape__": "(0,)", 
        "__storage_type__": "0", 
        "__wd_mult__": "1.0"
      }, 
      "inputs": []
    }, 
    {
      "op": "null", 
      "name": "cifar10_pydmobilenet56_0.25_plus/stg0/blk4/btl_out/batchnorm0_running_mean", 
      "attrs": {
        "__dtype__": "0", 
        "__init__": "zeros", 
        "__lr_mult__": "1.0", 
        "__shape__": "(0,)", 
        "__storage_type__": "0", 
        "__wd_mult__": "1.0"
      }, 
      "inputs": []
    }, 
    {
      "op": "null", 
      "name": "cifar10_pydmobilenet56_0.25_plus/stg0/blk4/btl_out/batchnorm0_running_var", 
      "attrs": {
        "__dtype__": "0", 
        "__init__": "ones", 
        "__lr_mult__": "1.0", 
        "__shape__": "(0,)", 
        "__storage_type__": "0", 
        "__wd_mult__": "1.0"
      }, 
      "inputs": []
    }, 
    {
      "op": "BatchNorm", 
      "name": "cifar10_pydmobilenet56_0.25_plus/stg0/blk4/btl_out/batchnorm0_fwd", 
      "attrs": {
        "axis": "1", 
        "eps": "1e-05", 
        "fix_gamma": "False", 
        "momentum": "0.9", 
        "use_global_stats": "False"
      }, 
      "inputs": [[173, 0, 0], [174, 0, 0], [175, 0, 0], [176, 0, 1], [177, 0, 1]]
    }, 
    {
      "op": "Activation", 
      "name": "cifar10_pydmobilenet56_0.25_plus/stg0/blk4/btl_out/relu0_fwd", 
      "attrs": {"act_type": "relu"}, 
      "inputs": [[178, 0, 0]]
    }, 
    {
      "op": "null", 
      "name": "cifar10_pydmobilenet56_0.25_plus/stg0/blk4/btl_out/conv0_weight", 
      "attrs": {
        "__dtype__": "0", 
        "__lr_mult__": "1.0", 
        "__shape__": "(32, 0, 1, 1)", 
        "__storage_type__": "0", 
        "__wd_mult__": "1.0"
      }, 
      "inputs": []
    }, 
    {
      "op": "Convolution", 
      "name": "cifar10_pydmobilenet56_0.25_plus/stg0/blk4/btl_out/conv0_fwd", 
      "attrs": {
        "dilate": "(1, 1)", 
        "kernel": "(1, 1)", 
        "layout": "NCHW", 
        "no_bias": "True", 
        "num_filter": "32", 
        "num_group": "1", 
        "pad": "(0, 0)", 
        "stride": "(1, 1)"
      }, 
      "inputs": [[179, 0, 0], [180, 0, 0]]
    }, 
    {
      "op": "null", 
      "name": "cifar10_pydmobilenet56_0.25_plus/stg0/blk4/btl_out/batchnorm1_gamma", 
      "attrs": {
        "__dtype__": "0", 
        "__init__": "ones", 
        "__lr_mult__": "1.0", 
        "__shape__": "(0,)", 
        "__storage_type__": "0", 
        "__wd_mult__": "1.0"
      }, 
      "inputs": []
    }, 
    {
      "op": "null", 
      "name": "cifar10_pydmobilenet56_0.25_plus/stg0/blk4/btl_out/batchnorm1_beta", 
      "attrs": {
        "__dtype__": "0", 
        "__init__": "zeros", 
        "__lr_mult__": "1.0", 
        "__shape__": "(0,)", 
        "__storage_type__": "0", 
        "__wd_mult__": "1.0"
      }, 
      "inputs": []
    }, 
    {
      "op": "null", 
      "name": "cifar10_pydmobilenet56_0.25_plus/stg0/blk4/btl_out/batchnorm1_running_mean", 
      "attrs": {
        "__dtype__": "0", 
        "__init__": "zeros", 
        "__lr_mult__": "1.0", 
        "__shape__": "(0,)", 
        "__storage_type__": "0", 
        "__wd_mult__": "1.0"
      }, 
      "inputs": []
    }, 
    {
      "op": "null", 
      "name": "cifar10_pydmobilenet56_0.25_plus/stg0/blk4/btl_out/batchnorm1_running_var", 
      "attrs": {
        "__dtype__": "0", 
        "__init__": "ones", 
        "__lr_mult__": "1.0", 
        "__shape__": "(0,)", 
        "__storage_type__": "0", 
        "__wd_mult__": "1.0"
      }, 
      "inputs": []
    }, 
    {
      "op": "BatchNorm", 
      "name": "cifar10_pydmobilenet56_0.25_plus/stg0/blk4/btl_out/batchnorm1_fwd", 
      "attrs": {
        "axis": "1", 
        "eps": "1e-05", 
        "fix_gamma": "False", 
        "momentum": "0.9", 
        "use_global_stats": "False"
      }, 
      "inputs": [[181, 0, 0], [182, 0, 0], [183, 0, 0], [184, 0, 1], [185, 0, 1]]
    }, 
    {
      "op": "elemwise_add", 
      "name": "cifar10_pydmobilenet56_0.25_plus/stg0/blk4/_plus2", 
      "inputs": [[186, 0, 0], [151, 0, 0]]
    }, 
    {
      "op": "null", 
      "name": "cifar10_pydmobilenet56_0.25_plus/stg0/blk5/btl_in/batchnorm0_gamma", 
      "attrs": {
        "__dtype__": "0", 
        "__init__": "ones", 
        "__lr_mult__": "1.0", 
        "__shape__": "(0,)", 
        "__storage_type__": "0", 
        "__wd_mult__": "1.0"
      }, 
      "inputs": []
    }, 
    {
      "op": "null", 
      "name": "cifar10_pydmobilenet56_0.25_plus/stg0/blk5/btl_in/batchnorm0_beta", 
      "attrs": {
        "__dtype__": "0", 
        "__init__": "zeros", 
        "__lr_mult__": "1.0", 
        "__shape__": "(0,)", 
        "__storage_type__": "0", 
        "__wd_mult__": "1.0"
      }, 
      "inputs": []
    }, 
    {
      "op": "null", 
      "name": "cifar10_pydmobilenet56_0.25_plus/stg0/blk5/btl_in/batchnorm0_running_mean", 
      "attrs": {
        "__dtype__": "0", 
        "__init__": "zeros", 
        "__lr_mult__": "1.0", 
        "__shape__": "(0,)", 
        "__storage_type__": "0", 
        "__wd_mult__": "1.0"
      }, 
      "inputs": []
    }, 
    {
      "op": "null", 
      "name": "cifar10_pydmobilenet56_0.25_plus/stg0/blk5/btl_in/batchnorm0_running_var", 
      "attrs": {
        "__dtype__": "0", 
        "__init__": "ones", 
        "__lr_mult__": "1.0", 
        "__shape__": "(0,)", 
        "__storage_type__": "0", 
        "__wd_mult__": "1.0"
      }, 
      "inputs": []
    }, 
    {
      "op": "BatchNorm", 
      "name": "cifar10_pydmobilenet56_0.25_plus/stg0/blk5/btl_in/batchnorm0_fwd", 
      "attrs": {
        "axis": "1", 
        "eps": "1e-05", 
        "fix_gamma": "False", 
        "momentum": "0.9", 
        "use_global_stats": "False"
      }, 
      "inputs": [[187, 0, 0], [188, 0, 0], [189, 0, 0], [190, 0, 1], [191, 0, 1]]
    }, 
    {
      "op": "Activation", 
      "name": "cifar10_pydmobilenet56_0.25_plus/stg0/blk5/btl_in/relu0_fwd", 
      "attrs": {"act_type": "relu"}, 
      "inputs": [[192, 0, 0]]
    }, 
    {
      "op": "null", 
      "name": "cifar10_pydmobilenet56_0.25_plus/stg0/blk5/btl_in/conv0_weight", 
      "attrs": {
        "__dtype__": "0", 
        "__lr_mult__": "1.0", 
        "__shape__": "(8, 0, 1, 1)", 
        "__storage_type__": "0", 
        "__wd_mult__": "1.0"
      }, 
      "inputs": []
    }, 
    {
      "op": "Convolution", 
      "name": "cifar10_pydmobilenet56_0.25_plus/stg0/blk5/btl_in/conv0_fwd", 
      "attrs": {
        "dilate": "(1, 1)", 
        "kernel": "(1, 1)", 
        "layout": "NCHW", 
        "no_bias": "True", 
        "num_filter": "8", 
        "num_group": "1", 
        "pad": "(0, 0)", 
        "stride": "(1, 1)"
      }, 
      "inputs": [[193, 0, 0], [194, 0, 0]]
    }, 
    {
      "op": "null", 
      "name": "cifar10_pydmobilenet56_0.25_plus/stg0/blk5/btl_in/batchnorm1_gamma", 
      "attrs": {
        "__dtype__": "0", 
        "__init__": "ones", 
        "__lr_mult__": "1.0", 
        "__shape__": "(0,)", 
        "__storage_type__": "0", 
        "__wd_mult__": "1.0"
      }, 
      "inputs": []
    }, 
    {
      "op": "null", 
      "name": "cifar10_pydmobilenet56_0.25_plus/stg0/blk5/btl_in/batchnorm1_beta", 
      "attrs": {
        "__dtype__": "0", 
        "__init__": "zeros", 
        "__lr_mult__": "1.0", 
        "__shape__": "(0,)", 
        "__storage_type__": "0", 
        "__wd_mult__": "1.0"
      }, 
      "inputs": []
    }, 
    {
      "op": "null", 
      "name": "cifar10_pydmobilenet56_0.25_plus/stg0/blk5/btl_in/batchnorm1_running_mean", 
      "attrs": {
        "__dtype__": "0", 
        "__init__": "zeros", 
        "__lr_mult__": "1.0", 
        "__shape__": "(0,)", 
        "__storage_type__": "0", 
        "__wd_mult__": "1.0"
      }, 
      "inputs": []
    }, 
    {
      "op": "null", 
      "name": "cifar10_pydmobilenet56_0.25_plus/stg0/blk5/btl_in/batchnorm1_running_var", 
      "attrs": {
        "__dtype__": "0", 
        "__init__": "ones", 
        "__lr_mult__": "1.0", 
        "__shape__": "(0,)", 
        "__storage_type__": "0", 
        "__wd_mult__": "1.0"
      }, 
      "inputs": []
    }, 
    {
      "op": "BatchNorm", 
      "name": "cifar10_pydmobilenet56_0.25_plus/stg0/blk5/btl_in/batchnorm1_fwd", 
      "attrs": {
        "axis": "1", 
        "eps": "1e-05", 
        "fix_gamma": "False", 
        "momentum": "0.9", 
        "use_global_stats": "False"
      }, 
      "inputs": [[195, 0, 0], [196, 0, 0], [197, 0, 0], [198, 0, 1], [199, 0, 1]]
    }, 
    {
      "op": "Activation", 
      "name": "cifar10_pydmobilenet56_0.25_plus/stg0/blk5/btl_in/relu1_fwd", 
      "attrs": {"act_type": "relu"}, 
      "inputs": [[200, 0, 0]]
    }, 
    {
      "op": "null", 
      "name": "cifar10_pydmobilenet56_0.25_plus/stg0/blk5/conv3/conv0_weight", 
      "attrs": {
        "__dtype__": "0", 
        "__lr_mult__": "1.0", 
        "__shape__": "(8, 0, 3, 3)", 
        "__storage_type__": "0", 
        "__wd_mult__": "1.0"
      }, 
      "inputs": []
    }, 
    {
      "op": "Convolution", 
      "name": "cifar10_pydmobilenet56_0.25_plus/stg0/blk5/conv3/conv0_fwd", 
      "attrs": {
        "dilate": "(1, 1)", 
        "kernel": "(3, 3)", 
        "layout": "NCHW", 
        "no_bias": "True", 
        "num_filter": "8", 
        "num_group": "8", 
        "pad": "(1, 1)", 
        "stride": "(1, 1)"
      }, 
      "inputs": [[201, 0, 0], [202, 0, 0]]
    }, 
    {
      "op": "null", 
      "name": "cifar10_pydmobilenet56_0.25_plus/stg0/blk5/conv5/conv0_weight", 
      "attrs": {
        "__dtype__": "0", 
        "__lr_mult__": "1.0", 
        "__shape__": "(8, 0, 5, 5)", 
        "__storage_type__": "0", 
        "__wd_mult__": "1.0"
      }, 
      "inputs": []
    }, 
    {
      "op": "Convolution", 
      "name": "cifar10_pydmobilenet56_0.25_plus/stg0/blk5/conv5/conv0_fwd", 
      "attrs": {
        "dilate": "(1, 1)", 
        "kernel": "(5, 5)", 
        "layout": "NCHW", 
        "no_bias": "True", 
        "num_filter": "8", 
        "num_group": "8", 
        "pad": "(2, 2)", 
        "stride": "(1, 1)"
      }, 
      "inputs": [[201, 0, 0], [204, 0, 0]]
    }, 
    {
      "op": "elemwise_add", 
      "name": "cifar10_pydmobilenet56_0.25_plus/stg0/blk5/_plus0", 
      "inputs": [[203, 0, 0], [205, 0, 0]]
    }, 
    {
      "op": "null", 
      "name": "cifar10_pydmobilenet56_0.25_plus/stg0/blk5/conv7/conv0_weight", 
      "attrs": {
        "__dtype__": "0", 
        "__lr_mult__": "1.0", 
        "__shape__": "(8, 0, 7, 7)", 
        "__storage_type__": "0", 
        "__wd_mult__": "1.0"
      }, 
      "inputs": []
    }, 
    {
      "op": "Convolution", 
      "name": "cifar10_pydmobilenet56_0.25_plus/stg0/blk5/conv7/conv0_fwd", 
      "attrs": {
        "dilate": "(1, 1)", 
        "kernel": "(7, 7)", 
        "layout": "NCHW", 
        "no_bias": "True", 
        "num_filter": "8", 
        "num_group": "8", 
        "pad": "(3, 3)", 
        "stride": "(1, 1)"
      }, 
      "inputs": [[201, 0, 0], [207, 0, 0]]
    }, 
    {
      "op": "elemwise_add", 
      "name": "cifar10_pydmobilenet56_0.25_plus/stg0/blk5/_plus1", 
      "inputs": [[206, 0, 0], [208, 0, 0]]
    }, 
    {
      "op": "null", 
      "name": "cifar10_pydmobilenet56_0.25_plus/stg0/blk5/btl_out/batchnorm0_gamma", 
      "attrs": {
        "__dtype__": "0", 
        "__init__": "ones", 
        "__lr_mult__": "1.0", 
        "__shape__": "(0,)", 
        "__storage_type__": "0", 
        "__wd_mult__": "1.0"
      }, 
      "inputs": []
    }, 
    {
      "op": "null", 
      "name": "cifar10_pydmobilenet56_0.25_plus/stg0/blk5/btl_out/batchnorm0_beta", 
      "attrs": {
        "__dtype__": "0", 
        "__init__": "zeros", 
        "__lr_mult__": "1.0", 
        "__shape__": "(0,)", 
        "__storage_type__": "0", 
        "__wd_mult__": "1.0"
      }, 
      "inputs": []
    }, 
    {
      "op": "null", 
      "name": "cifar10_pydmobilenet56_0.25_plus/stg0/blk5/btl_out/batchnorm0_running_mean", 
      "attrs": {
        "__dtype__": "0", 
        "__init__": "zeros", 
        "__lr_mult__": "1.0", 
        "__shape__": "(0,)", 
        "__storage_type__": "0", 
        "__wd_mult__": "1.0"
      }, 
      "inputs": []
    }, 
    {
      "op": "null", 
      "name": "cifar10_pydmobilenet56_0.25_plus/stg0/blk5/btl_out/batchnorm0_running_var", 
      "attrs": {
        "__dtype__": "0", 
        "__init__": "ones", 
        "__lr_mult__": "1.0", 
        "__shape__": "(0,)", 
        "__storage_type__": "0", 
        "__wd_mult__": "1.0"
      }, 
      "inputs": []
    }, 
    {
      "op": "BatchNorm", 
      "name": "cifar10_pydmobilenet56_0.25_plus/stg0/blk5/btl_out/batchnorm0_fwd", 
      "attrs": {
        "axis": "1", 
        "eps": "1e-05", 
        "fix_gamma": "False", 
        "momentum": "0.9", 
        "use_global_stats": "False"
      }, 
      "inputs": [[209, 0, 0], [210, 0, 0], [211, 0, 0], [212, 0, 1], [213, 0, 1]]
    }, 
    {
      "op": "Activation", 
      "name": "cifar10_pydmobilenet56_0.25_plus/stg0/blk5/btl_out/relu0_fwd", 
      "attrs": {"act_type": "relu"}, 
      "inputs": [[214, 0, 0]]
    }, 
    {
      "op": "null", 
      "name": "cifar10_pydmobilenet56_0.25_plus/stg0/blk5/btl_out/conv0_weight", 
      "attrs": {
        "__dtype__": "0", 
        "__lr_mult__": "1.0", 
        "__shape__": "(32, 0, 1, 1)", 
        "__storage_type__": "0", 
        "__wd_mult__": "1.0"
      }, 
      "inputs": []
    }, 
    {
      "op": "Convolution", 
      "name": "cifar10_pydmobilenet56_0.25_plus/stg0/blk5/btl_out/conv0_fwd", 
      "attrs": {
        "dilate": "(1, 1)", 
        "kernel": "(1, 1)", 
        "layout": "NCHW", 
        "no_bias": "True", 
        "num_filter": "32", 
        "num_group": "1", 
        "pad": "(0, 0)", 
        "stride": "(1, 1)"
      }, 
      "inputs": [[215, 0, 0], [216, 0, 0]]
    }, 
    {
      "op": "null", 
      "name": "cifar10_pydmobilenet56_0.25_plus/stg0/blk5/btl_out/batchnorm1_gamma", 
      "attrs": {
        "__dtype__": "0", 
        "__init__": "ones", 
        "__lr_mult__": "1.0", 
        "__shape__": "(0,)", 
        "__storage_type__": "0", 
        "__wd_mult__": "1.0"
      }, 
      "inputs": []
    }, 
    {
      "op": "null", 
      "name": "cifar10_pydmobilenet56_0.25_plus/stg0/blk5/btl_out/batchnorm1_beta", 
      "attrs": {
        "__dtype__": "0", 
        "__init__": "zeros", 
        "__lr_mult__": "1.0", 
        "__shape__": "(0,)", 
        "__storage_type__": "0", 
        "__wd_mult__": "1.0"
      }, 
      "inputs": []
    }, 
    {
      "op": "null", 
      "name": "cifar10_pydmobilenet56_0.25_plus/stg0/blk5/btl_out/batchnorm1_running_mean", 
      "attrs": {
        "__dtype__": "0", 
        "__init__": "zeros", 
        "__lr_mult__": "1.0", 
        "__shape__": "(0,)", 
        "__storage_type__": "0", 
        "__wd_mult__": "1.0"
      }, 
      "inputs": []
    }, 
    {
      "op": "null", 
      "name": "cifar10_pydmobilenet56_0.25_plus/stg0/blk5/btl_out/batchnorm1_running_var", 
      "attrs": {
        "__dtype__": "0", 
        "__init__": "ones", 
        "__lr_mult__": "1.0", 
        "__shape__": "(0,)", 
        "__storage_type__": "0", 
        "__wd_mult__": "1.0"
      }, 
      "inputs": []
    }, 
    {
      "op": "BatchNorm", 
      "name": "cifar10_pydmobilenet56_0.25_plus/stg0/blk5/btl_out/batchnorm1_fwd", 
      "attrs": {
        "axis": "1", 
        "eps": "1e-05", 
        "fix_gamma": "False", 
        "momentum": "0.9", 
        "use_global_stats": "False"
      }, 
      "inputs": [[217, 0, 0], [218, 0, 0], [219, 0, 0], [220, 0, 1], [221, 0, 1]]
    }, 
    {
      "op": "elemwise_add", 
      "name": "cifar10_pydmobilenet56_0.25_plus/stg0/blk5/_plus2", 
      "inputs": [[222, 0, 0], [187, 0, 0]]
    }, 
    {
      "op": "null", 
      "name": "cifar10_pydmobilenet56_0.25_plus/stg1/blk0/btl_in/batchnorm0_gamma", 
      "attrs": {
        "__dtype__": "0", 
        "__init__": "ones", 
        "__lr_mult__": "1.0", 
        "__shape__": "(0,)", 
        "__storage_type__": "0", 
        "__wd_mult__": "1.0"
      }, 
      "inputs": []
    }, 
    {
      "op": "null", 
      "name": "cifar10_pydmobilenet56_0.25_plus/stg1/blk0/btl_in/batchnorm0_beta", 
      "attrs": {
        "__dtype__": "0", 
        "__init__": "zeros", 
        "__lr_mult__": "1.0", 
        "__shape__": "(0,)", 
        "__storage_type__": "0", 
        "__wd_mult__": "1.0"
      }, 
      "inputs": []
    }, 
    {
      "op": "null", 
      "name": "cifar10_pydmobilenet56_0.25_plus/stg1/blk0/btl_in/batchnorm0_running_mean", 
      "attrs": {
        "__dtype__": "0", 
        "__init__": "zeros", 
        "__lr_mult__": "1.0", 
        "__shape__": "(0,)", 
        "__storage_type__": "0", 
        "__wd_mult__": "1.0"
      }, 
      "inputs": []
    }, 
    {
      "op": "null", 
      "name": "cifar10_pydmobilenet56_0.25_plus/stg1/blk0/btl_in/batchnorm0_running_var", 
      "attrs": {
        "__dtype__": "0", 
        "__init__": "ones", 
        "__lr_mult__": "1.0", 
        "__shape__": "(0,)", 
        "__storage_type__": "0", 
        "__wd_mult__": "1.0"
      }, 
      "inputs": []
    }, 
    {
      "op": "BatchNorm", 
      "name": "cifar10_pydmobilenet56_0.25_plus/stg1/blk0/btl_in/batchnorm0_fwd", 
      "attrs": {
        "axis": "1", 
        "eps": "1e-05", 
        "fix_gamma": "False", 
        "momentum": "0.9", 
        "use_global_stats": "False"
      }, 
      "inputs": [[223, 0, 0], [224, 0, 0], [225, 0, 0], [226, 0, 1], [227, 0, 1]]
    }, 
    {
      "op": "Activation", 
      "name": "cifar10_pydmobilenet56_0.25_plus/stg1/blk0/btl_in/relu0_fwd", 
      "attrs": {"act_type": "relu"}, 
      "inputs": [[228, 0, 0]]
    }, 
    {
      "op": "null", 
      "name": "cifar10_pydmobilenet56_0.25_plus/stg1/blk0/btl_in/conv0_weight", 
      "attrs": {
        "__dtype__": "0", 
        "__lr_mult__": "1.0", 
        "__shape__": "(16, 0, 1, 1)", 
        "__storage_type__": "0", 
        "__wd_mult__": "1.0"
      }, 
      "inputs": []
    }, 
    {
      "op": "Convolution", 
      "name": "cifar10_pydmobilenet56_0.25_plus/stg1/blk0/btl_in/conv0_fwd", 
      "attrs": {
        "dilate": "(1, 1)", 
        "kernel": "(1, 1)", 
        "layout": "NCHW", 
        "no_bias": "True", 
        "num_filter": "16", 
        "num_group": "1", 
        "pad": "(0, 0)", 
        "stride": "(1, 1)"
      }, 
      "inputs": [[229, 0, 0], [230, 0, 0]]
    }, 
    {
      "op": "null", 
      "name": "cifar10_pydmobilenet56_0.25_plus/stg1/blk0/btl_in/batchnorm1_gamma", 
      "attrs": {
        "__dtype__": "0", 
        "__init__": "ones", 
        "__lr_mult__": "1.0", 
        "__shape__": "(0,)", 
        "__storage_type__": "0", 
        "__wd_mult__": "1.0"
      }, 
      "inputs": []
    }, 
    {
      "op": "null", 
      "name": "cifar10_pydmobilenet56_0.25_plus/stg1/blk0/btl_in/batchnorm1_beta", 
      "attrs": {
        "__dtype__": "0", 
        "__init__": "zeros", 
        "__lr_mult__": "1.0", 
        "__shape__": "(0,)", 
        "__storage_type__": "0", 
        "__wd_mult__": "1.0"
      }, 
      "inputs": []
    }, 
    {
      "op": "null", 
      "name": "cifar10_pydmobilenet56_0.25_plus/stg1/blk0/btl_in/batchnorm1_running_mean", 
      "attrs": {
        "__dtype__": "0", 
        "__init__": "zeros", 
        "__lr_mult__": "1.0", 
        "__shape__": "(0,)", 
        "__storage_type__": "0", 
        "__wd_mult__": "1.0"
      }, 
      "inputs": []
    }, 
    {
      "op": "null", 
      "name": "cifar10_pydmobilenet56_0.25_plus/stg1/blk0/btl_in/batchnorm1_running_var", 
      "attrs": {
        "__dtype__": "0", 
        "__init__": "ones", 
        "__lr_mult__": "1.0", 
        "__shape__": "(0,)", 
        "__storage_type__": "0", 
        "__wd_mult__": "1.0"
      }, 
      "inputs": []
    }, 
    {
      "op": "BatchNorm", 
      "name": "cifar10_pydmobilenet56_0.25_plus/stg1/blk0/btl_in/batchnorm1_fwd", 
      "attrs": {
        "axis": "1", 
        "eps": "1e-05", 
        "fix_gamma": "False", 
        "momentum": "0.9", 
        "use_global_stats": "False"
      }, 
      "inputs": [[231, 0, 0], [232, 0, 0], [233, 0, 0], [234, 0, 1], [235, 0, 1]]
    }, 
    {
      "op": "Activation", 
      "name": "cifar10_pydmobilenet56_0.25_plus/stg1/blk0/btl_in/relu1_fwd", 
      "attrs": {"act_type": "relu"}, 
      "inputs": [[236, 0, 0]]
    }, 
    {
      "op": "null", 
      "name": "cifar10_pydmobilenet56_0.25_plus/stg1/blk0/conv3/conv0_weight", 
      "attrs": {
        "__dtype__": "0", 
        "__lr_mult__": "1.0", 
        "__shape__": "(16, 0, 3, 3)", 
        "__storage_type__": "0", 
        "__wd_mult__": "1.0"
      }, 
      "inputs": []
    }, 
    {
      "op": "Convolution", 
      "name": "cifar10_pydmobilenet56_0.25_plus/stg1/blk0/conv3/conv0_fwd", 
      "attrs": {
        "dilate": "(1, 1)", 
        "kernel": "(3, 3)", 
        "layout": "NCHW", 
        "no_bias": "True", 
        "num_filter": "16", 
        "num_group": "16", 
        "pad": "(1, 1)", 
        "stride": "(2, 2)"
      }, 
      "inputs": [[237, 0, 0], [238, 0, 0]]
    }, 
    {
      "op": "null", 
      "name": "cifar10_pydmobilenet56_0.25_plus/stg1/blk0/conv5/conv0_weight", 
      "attrs": {
        "__dtype__": "0", 
        "__lr_mult__": "1.0", 
        "__shape__": "(16, 0, 5, 5)", 
        "__storage_type__": "0", 
        "__wd_mult__": "1.0"
      }, 
      "inputs": []
    }, 
    {
      "op": "Convolution", 
      "name": "cifar10_pydmobilenet56_0.25_plus/stg1/blk0/conv5/conv0_fwd", 
      "attrs": {
        "dilate": "(1, 1)", 
        "kernel": "(5, 5)", 
        "layout": "NCHW", 
        "no_bias": "True", 
        "num_filter": "16", 
        "num_group": "16", 
        "pad": "(2, 2)", 
        "stride": "(2, 2)"
      }, 
      "inputs": [[237, 0, 0], [240, 0, 0]]
    }, 
    {
      "op": "elemwise_add", 
      "name": "cifar10_pydmobilenet56_0.25_plus/stg1/blk0/_plus0", 
      "inputs": [[239, 0, 0], [241, 0, 0]]
    }, 
    {
      "op": "null", 
      "name": "cifar10_pydmobilenet56_0.25_plus/stg1/blk0/conv7/conv0_weight", 
      "attrs": {
        "__dtype__": "0", 
        "__lr_mult__": "1.0", 
        "__shape__": "(16, 0, 7, 7)", 
        "__storage_type__": "0", 
        "__wd_mult__": "1.0"
      }, 
      "inputs": []
    }, 
    {
      "op": "Convolution", 
      "name": "cifar10_pydmobilenet56_0.25_plus/stg1/blk0/conv7/conv0_fwd", 
      "attrs": {
        "dilate": "(1, 1)", 
        "kernel": "(7, 7)", 
        "layout": "NCHW", 
        "no_bias": "True", 
        "num_filter": "16", 
        "num_group": "16", 
        "pad": "(3, 3)", 
        "stride": "(2, 2)"
      }, 
      "inputs": [[237, 0, 0], [243, 0, 0]]
    }, 
    {
      "op": "elemwise_add", 
      "name": "cifar10_pydmobilenet56_0.25_plus/stg1/blk0/_plus1", 
      "inputs": [[242, 0, 0], [244, 0, 0]]
    }, 
    {
      "op": "null", 
      "name": "cifar10_pydmobilenet56_0.25_plus/stg1/blk0/btl_out/batchnorm0_gamma", 
      "attrs": {
        "__dtype__": "0", 
        "__init__": "ones", 
        "__lr_mult__": "1.0", 
        "__shape__": "(0,)", 
        "__storage_type__": "0", 
        "__wd_mult__": "1.0"
      }, 
      "inputs": []
    }, 
    {
      "op": "null", 
      "name": "cifar10_pydmobilenet56_0.25_plus/stg1/blk0/btl_out/batchnorm0_beta", 
      "attrs": {
        "__dtype__": "0", 
        "__init__": "zeros", 
        "__lr_mult__": "1.0", 
        "__shape__": "(0,)", 
        "__storage_type__": "0", 
        "__wd_mult__": "1.0"
      }, 
      "inputs": []
    }, 
    {
      "op": "null", 
      "name": "cifar10_pydmobilenet56_0.25_plus/stg1/blk0/btl_out/batchnorm0_running_mean", 
      "attrs": {
        "__dtype__": "0", 
        "__init__": "zeros", 
        "__lr_mult__": "1.0", 
        "__shape__": "(0,)", 
        "__storage_type__": "0", 
        "__wd_mult__": "1.0"
      }, 
      "inputs": []
    }, 
    {
      "op": "null", 
      "name": "cifar10_pydmobilenet56_0.25_plus/stg1/blk0/btl_out/batchnorm0_running_var", 
      "attrs": {
        "__dtype__": "0", 
        "__init__": "ones", 
        "__lr_mult__": "1.0", 
        "__shape__": "(0,)", 
        "__storage_type__": "0", 
        "__wd_mult__": "1.0"
      }, 
      "inputs": []
    }, 
    {
      "op": "BatchNorm", 
      "name": "cifar10_pydmobilenet56_0.25_plus/stg1/blk0/btl_out/batchnorm0_fwd", 
      "attrs": {
        "axis": "1", 
        "eps": "1e-05", 
        "fix_gamma": "False", 
        "momentum": "0.9", 
        "use_global_stats": "False"
      }, 
      "inputs": [[245, 0, 0], [246, 0, 0], [247, 0, 0], [248, 0, 1], [249, 0, 1]]
    }, 
    {
      "op": "Activation", 
      "name": "cifar10_pydmobilenet56_0.25_plus/stg1/blk0/btl_out/relu0_fwd", 
      "attrs": {"act_type": "relu"}, 
      "inputs": [[250, 0, 0]]
    }, 
    {
      "op": "null", 
      "name": "cifar10_pydmobilenet56_0.25_plus/stg1/blk0/btl_out/conv0_weight", 
      "attrs": {
        "__dtype__": "0", 
        "__lr_mult__": "1.0", 
        "__shape__": "(64, 0, 1, 1)", 
        "__storage_type__": "0", 
        "__wd_mult__": "1.0"
      }, 
      "inputs": []
    }, 
    {
      "op": "Convolution", 
      "name": "cifar10_pydmobilenet56_0.25_plus/stg1/blk0/btl_out/conv0_fwd", 
      "attrs": {
        "dilate": "(1, 1)", 
        "kernel": "(1, 1)", 
        "layout": "NCHW", 
        "no_bias": "True", 
        "num_filter": "64", 
        "num_group": "1", 
        "pad": "(0, 0)", 
        "stride": "(1, 1)"
      }, 
      "inputs": [[251, 0, 0], [252, 0, 0]]
    }, 
    {
      "op": "null", 
      "name": "cifar10_pydmobilenet56_0.25_plus/stg1/blk0/btl_out/batchnorm1_gamma", 
      "attrs": {
        "__dtype__": "0", 
        "__init__": "ones", 
        "__lr_mult__": "1.0", 
        "__shape__": "(0,)", 
        "__storage_type__": "0", 
        "__wd_mult__": "1.0"
      }, 
      "inputs": []
    }, 
    {
      "op": "null", 
      "name": "cifar10_pydmobilenet56_0.25_plus/stg1/blk0/btl_out/batchnorm1_beta", 
      "attrs": {
        "__dtype__": "0", 
        "__init__": "zeros", 
        "__lr_mult__": "1.0", 
        "__shape__": "(0,)", 
        "__storage_type__": "0", 
        "__wd_mult__": "1.0"
      }, 
      "inputs": []
    }, 
    {
      "op": "null", 
      "name": "cifar10_pydmobilenet56_0.25_plus/stg1/blk0/btl_out/batchnorm1_running_mean", 
      "attrs": {
        "__dtype__": "0", 
        "__init__": "zeros", 
        "__lr_mult__": "1.0", 
        "__shape__": "(0,)", 
        "__storage_type__": "0", 
        "__wd_mult__": "1.0"
      }, 
      "inputs": []
    }, 
    {
      "op": "null", 
      "name": "cifar10_pydmobilenet56_0.25_plus/stg1/blk0/btl_out/batchnorm1_running_var", 
      "attrs": {
        "__dtype__": "0", 
        "__init__": "ones", 
        "__lr_mult__": "1.0", 
        "__shape__": "(0,)", 
        "__storage_type__": "0", 
        "__wd_mult__": "1.0"
      }, 
      "inputs": []
    }, 
    {
      "op": "BatchNorm", 
      "name": "cifar10_pydmobilenet56_0.25_plus/stg1/blk0/btl_out/batchnorm1_fwd", 
      "attrs": {
        "axis": "1", 
        "eps": "1e-05", 
        "fix_gamma": "False", 
        "momentum": "0.9", 
        "use_global_stats": "False"
      }, 
      "inputs": [[253, 0, 0], [254, 0, 0], [255, 0, 0], [256, 0, 1], [257, 0, 1]]
    }, 
    {
      "op": "null", 
      "name": "cifar10_pydmobilenet56_0.25_plus/stg1/blk0/conv0_weight", 
      "attrs": {
        "__dtype__": "0", 
        "__lr_mult__": "1.0", 
        "__shape__": "(64, 0, 1, 1)", 
        "__storage_type__": "0", 
        "__wd_mult__": "1.0"
      }, 
      "inputs": []
    }, 
    {
      "op": "Convolution", 
      "name": "cifar10_pydmobilenet56_0.25_plus/stg1/blk0/conv0_fwd", 
      "attrs": {
        "dilate": "(1, 1)", 
        "kernel": "(1, 1)", 
        "layout": "NCHW", 
        "no_bias": "True", 
        "num_filter": "64", 
        "num_group": "1", 
        "pad": "(0, 0)", 
        "stride": "(2, 2)"
      }, 
      "inputs": [[223, 0, 0], [259, 0, 0]]
    }, 
    {
      "op": "null", 
      "name": "cifar10_pydmobilenet56_0.25_plus/stg1/blk0/batchnorm0_gamma", 
      "attrs": {
        "__dtype__": "0", 
        "__init__": "ones", 
        "__lr_mult__": "1.0", 
        "__shape__": "(0,)", 
        "__storage_type__": "0", 
        "__wd_mult__": "1.0"
      }, 
      "inputs": []
    }, 
    {
      "op": "null", 
      "name": "cifar10_pydmobilenet56_0.25_plus/stg1/blk0/batchnorm0_beta", 
      "attrs": {
        "__dtype__": "0", 
        "__init__": "zeros", 
        "__lr_mult__": "1.0", 
        "__shape__": "(0,)", 
        "__storage_type__": "0", 
        "__wd_mult__": "1.0"
      }, 
      "inputs": []
    }, 
    {
      "op": "null", 
      "name": "cifar10_pydmobilenet56_0.25_plus/stg1/blk0/batchnorm0_running_mean", 
      "attrs": {
        "__dtype__": "0", 
        "__init__": "zeros", 
        "__lr_mult__": "1.0", 
        "__shape__": "(0,)", 
        "__storage_type__": "0", 
        "__wd_mult__": "1.0"
      }, 
      "inputs": []
    }, 
    {
      "op": "null", 
      "name": "cifar10_pydmobilenet56_0.25_plus/stg1/blk0/batchnorm0_running_var", 
      "attrs": {
        "__dtype__": "0", 
        "__init__": "ones", 
        "__lr_mult__": "1.0", 
        "__shape__": "(0,)", 
        "__storage_type__": "0", 
        "__wd_mult__": "1.0"
      }, 
      "inputs": []
    }, 
    {
      "op": "BatchNorm", 
      "name": "cifar10_pydmobilenet56_0.25_plus/stg1/blk0/batchnorm0_fwd", 
      "attrs": {
        "axis": "1", 
        "eps": "1e-05", 
        "fix_gamma": "False", 
        "momentum": "0.9", 
        "use_global_stats": "False"
      }, 
      "inputs": [[260, 0, 0], [261, 0, 0], [262, 0, 0], [263, 0, 1], [264, 0, 1]]
    }, 
    {
      "op": "elemwise_add", 
      "name": "cifar10_pydmobilenet56_0.25_plus/stg1/blk0/_plus2", 
      "inputs": [[258, 0, 0], [265, 0, 0]]
    }, 
    {
      "op": "null", 
      "name": "cifar10_pydmobilenet56_0.25_plus/stg1/blk1/btl_in/batchnorm0_gamma", 
      "attrs": {
        "__dtype__": "0", 
        "__init__": "ones", 
        "__lr_mult__": "1.0", 
        "__shape__": "(0,)", 
        "__storage_type__": "0", 
        "__wd_mult__": "1.0"
      }, 
      "inputs": []
    }, 
    {
      "op": "null", 
      "name": "cifar10_pydmobilenet56_0.25_plus/stg1/blk1/btl_in/batchnorm0_beta", 
      "attrs": {
        "__dtype__": "0", 
        "__init__": "zeros", 
        "__lr_mult__": "1.0", 
        "__shape__": "(0,)", 
        "__storage_type__": "0", 
        "__wd_mult__": "1.0"
      }, 
      "inputs": []
    }, 
    {
      "op": "null", 
      "name": "cifar10_pydmobilenet56_0.25_plus/stg1/blk1/btl_in/batchnorm0_running_mean", 
      "attrs": {
        "__dtype__": "0", 
        "__init__": "zeros", 
        "__lr_mult__": "1.0", 
        "__shape__": "(0,)", 
        "__storage_type__": "0", 
        "__wd_mult__": "1.0"
      }, 
      "inputs": []
    }, 
    {
      "op": "null", 
      "name": "cifar10_pydmobilenet56_0.25_plus/stg1/blk1/btl_in/batchnorm0_running_var", 
      "attrs": {
        "__dtype__": "0", 
        "__init__": "ones", 
        "__lr_mult__": "1.0", 
        "__shape__": "(0,)", 
        "__storage_type__": "0", 
        "__wd_mult__": "1.0"
      }, 
      "inputs": []
    }, 
    {
      "op": "BatchNorm", 
      "name": "cifar10_pydmobilenet56_0.25_plus/stg1/blk1/btl_in/batchnorm0_fwd", 
      "attrs": {
        "axis": "1", 
        "eps": "1e-05", 
        "fix_gamma": "False", 
        "momentum": "0.9", 
        "use_global_stats": "False"
      }, 
      "inputs": [[266, 0, 0], [267, 0, 0], [268, 0, 0], [269, 0, 1], [270, 0, 1]]
    }, 
    {
      "op": "Activation", 
      "name": "cifar10_pydmobilenet56_0.25_plus/stg1/blk1/btl_in/relu0_fwd", 
      "attrs": {"act_type": "relu"}, 
      "inputs": [[271, 0, 0]]
    }, 
    {
      "op": "null", 
      "name": "cifar10_pydmobilenet56_0.25_plus/stg1/blk1/btl_in/conv0_weight", 
      "attrs": {
        "__dtype__": "0", 
        "__lr_mult__": "1.0", 
        "__shape__": "(16, 0, 1, 1)", 
        "__storage_type__": "0", 
        "__wd_mult__": "1.0"
      }, 
      "inputs": []
    }, 
    {
      "op": "Convolution", 
      "name": "cifar10_pydmobilenet56_0.25_plus/stg1/blk1/btl_in/conv0_fwd", 
      "attrs": {
        "dilate": "(1, 1)", 
        "kernel": "(1, 1)", 
        "layout": "NCHW", 
        "no_bias": "True", 
        "num_filter": "16", 
        "num_group": "1", 
        "pad": "(0, 0)", 
        "stride": "(1, 1)"
      }, 
      "inputs": [[272, 0, 0], [273, 0, 0]]
    }, 
    {
      "op": "null", 
      "name": "cifar10_pydmobilenet56_0.25_plus/stg1/blk1/btl_in/batchnorm1_gamma", 
      "attrs": {
        "__dtype__": "0", 
        "__init__": "ones", 
        "__lr_mult__": "1.0", 
        "__shape__": "(0,)", 
        "__storage_type__": "0", 
        "__wd_mult__": "1.0"
      }, 
      "inputs": []
    }, 
    {
      "op": "null", 
      "name": "cifar10_pydmobilenet56_0.25_plus/stg1/blk1/btl_in/batchnorm1_beta", 
      "attrs": {
        "__dtype__": "0", 
        "__init__": "zeros", 
        "__lr_mult__": "1.0", 
        "__shape__": "(0,)", 
        "__storage_type__": "0", 
        "__wd_mult__": "1.0"
      }, 
      "inputs": []
    }, 
    {
      "op": "null", 
      "name": "cifar10_pydmobilenet56_0.25_plus/stg1/blk1/btl_in/batchnorm1_running_mean", 
      "attrs": {
        "__dtype__": "0", 
        "__init__": "zeros", 
        "__lr_mult__": "1.0", 
        "__shape__": "(0,)", 
        "__storage_type__": "0", 
        "__wd_mult__": "1.0"
      }, 
      "inputs": []
    }, 
    {
      "op": "null", 
      "name": "cifar10_pydmobilenet56_0.25_plus/stg1/blk1/btl_in/batchnorm1_running_var", 
      "attrs": {
        "__dtype__": "0", 
        "__init__": "ones", 
        "__lr_mult__": "1.0", 
        "__shape__": "(0,)", 
        "__storage_type__": "0", 
        "__wd_mult__": "1.0"
      }, 
      "inputs": []
    }, 
    {
      "op": "BatchNorm", 
      "name": "cifar10_pydmobilenet56_0.25_plus/stg1/blk1/btl_in/batchnorm1_fwd", 
      "attrs": {
        "axis": "1", 
        "eps": "1e-05", 
        "fix_gamma": "False", 
        "momentum": "0.9", 
        "use_global_stats": "False"
      }, 
      "inputs": [[274, 0, 0], [275, 0, 0], [276, 0, 0], [277, 0, 1], [278, 0, 1]]
    }, 
    {
      "op": "Activation", 
      "name": "cifar10_pydmobilenet56_0.25_plus/stg1/blk1/btl_in/relu1_fwd", 
      "attrs": {"act_type": "relu"}, 
      "inputs": [[279, 0, 0]]
    }, 
    {
      "op": "null", 
      "name": "cifar10_pydmobilenet56_0.25_plus/stg1/blk1/conv3/conv0_weight", 
      "attrs": {
        "__dtype__": "0", 
        "__lr_mult__": "1.0", 
        "__shape__": "(16, 0, 3, 3)", 
        "__storage_type__": "0", 
        "__wd_mult__": "1.0"
      }, 
      "inputs": []
    }, 
    {
      "op": "Convolution", 
      "name": "cifar10_pydmobilenet56_0.25_plus/stg1/blk1/conv3/conv0_fwd", 
      "attrs": {
        "dilate": "(1, 1)", 
        "kernel": "(3, 3)", 
        "layout": "NCHW", 
        "no_bias": "True", 
        "num_filter": "16", 
        "num_group": "16", 
        "pad": "(1, 1)", 
        "stride": "(1, 1)"
      }, 
      "inputs": [[280, 0, 0], [281, 0, 0]]
    }, 
    {
      "op": "null", 
      "name": "cifar10_pydmobilenet56_0.25_plus/stg1/blk1/conv5/conv0_weight", 
      "attrs": {
        "__dtype__": "0", 
        "__lr_mult__": "1.0", 
        "__shape__": "(16, 0, 5, 5)", 
        "__storage_type__": "0", 
        "__wd_mult__": "1.0"
      }, 
      "inputs": []
    }, 
    {
      "op": "Convolution", 
      "name": "cifar10_pydmobilenet56_0.25_plus/stg1/blk1/conv5/conv0_fwd", 
      "attrs": {
        "dilate": "(1, 1)", 
        "kernel": "(5, 5)", 
        "layout": "NCHW", 
        "no_bias": "True", 
        "num_filter": "16", 
        "num_group": "16", 
        "pad": "(2, 2)", 
        "stride": "(1, 1)"
      }, 
      "inputs": [[280, 0, 0], [283, 0, 0]]
    }, 
    {
      "op": "elemwise_add", 
      "name": "cifar10_pydmobilenet56_0.25_plus/stg1/blk1/_plus0", 
      "inputs": [[282, 0, 0], [284, 0, 0]]
    }, 
    {
      "op": "null", 
      "name": "cifar10_pydmobilenet56_0.25_plus/stg1/blk1/conv7/conv0_weight", 
      "attrs": {
        "__dtype__": "0", 
        "__lr_mult__": "1.0", 
        "__shape__": "(16, 0, 7, 7)", 
        "__storage_type__": "0", 
        "__wd_mult__": "1.0"
      }, 
      "inputs": []
    }, 
    {
      "op": "Convolution", 
      "name": "cifar10_pydmobilenet56_0.25_plus/stg1/blk1/conv7/conv0_fwd", 
      "attrs": {
        "dilate": "(1, 1)", 
        "kernel": "(7, 7)", 
        "layout": "NCHW", 
        "no_bias": "True", 
        "num_filter": "16", 
        "num_group": "16", 
        "pad": "(3, 3)", 
        "stride": "(1, 1)"
      }, 
      "inputs": [[280, 0, 0], [286, 0, 0]]
    }, 
    {
      "op": "elemwise_add", 
      "name": "cifar10_pydmobilenet56_0.25_plus/stg1/blk1/_plus1", 
      "inputs": [[285, 0, 0], [287, 0, 0]]
    }, 
    {
      "op": "null", 
      "name": "cifar10_pydmobilenet56_0.25_plus/stg1/blk1/btl_out/batchnorm0_gamma", 
      "attrs": {
        "__dtype__": "0", 
        "__init__": "ones", 
        "__lr_mult__": "1.0", 
        "__shape__": "(0,)", 
        "__storage_type__": "0", 
        "__wd_mult__": "1.0"
      }, 
      "inputs": []
    }, 
    {
      "op": "null", 
      "name": "cifar10_pydmobilenet56_0.25_plus/stg1/blk1/btl_out/batchnorm0_beta", 
      "attrs": {
        "__dtype__": "0", 
        "__init__": "zeros", 
        "__lr_mult__": "1.0", 
        "__shape__": "(0,)", 
        "__storage_type__": "0", 
        "__wd_mult__": "1.0"
      }, 
      "inputs": []
    }, 
    {
      "op": "null", 
      "name": "cifar10_pydmobilenet56_0.25_plus/stg1/blk1/btl_out/batchnorm0_running_mean", 
      "attrs": {
        "__dtype__": "0", 
        "__init__": "zeros", 
        "__lr_mult__": "1.0", 
        "__shape__": "(0,)", 
        "__storage_type__": "0", 
        "__wd_mult__": "1.0"
      }, 
      "inputs": []
    }, 
    {
      "op": "null", 
      "name": "cifar10_pydmobilenet56_0.25_plus/stg1/blk1/btl_out/batchnorm0_running_var", 
      "attrs": {
        "__dtype__": "0", 
        "__init__": "ones", 
        "__lr_mult__": "1.0", 
        "__shape__": "(0,)", 
        "__storage_type__": "0", 
        "__wd_mult__": "1.0"
      }, 
      "inputs": []
    }, 
    {
      "op": "BatchNorm", 
      "name": "cifar10_pydmobilenet56_0.25_plus/stg1/blk1/btl_out/batchnorm0_fwd", 
      "attrs": {
        "axis": "1", 
        "eps": "1e-05", 
        "fix_gamma": "False", 
        "momentum": "0.9", 
        "use_global_stats": "False"
      }, 
      "inputs": [[288, 0, 0], [289, 0, 0], [290, 0, 0], [291, 0, 1], [292, 0, 1]]
    }, 
    {
      "op": "Activation", 
      "name": "cifar10_pydmobilenet56_0.25_plus/stg1/blk1/btl_out/relu0_fwd", 
      "attrs": {"act_type": "relu"}, 
      "inputs": [[293, 0, 0]]
    }, 
    {
      "op": "null", 
      "name": "cifar10_pydmobilenet56_0.25_plus/stg1/blk1/btl_out/conv0_weight", 
      "attrs": {
        "__dtype__": "0", 
        "__lr_mult__": "1.0", 
        "__shape__": "(64, 0, 1, 1)", 
        "__storage_type__": "0", 
        "__wd_mult__": "1.0"
      }, 
      "inputs": []
    }, 
    {
      "op": "Convolution", 
      "name": "cifar10_pydmobilenet56_0.25_plus/stg1/blk1/btl_out/conv0_fwd", 
      "attrs": {
        "dilate": "(1, 1)", 
        "kernel": "(1, 1)", 
        "layout": "NCHW", 
        "no_bias": "True", 
        "num_filter": "64", 
        "num_group": "1", 
        "pad": "(0, 0)", 
        "stride": "(1, 1)"
      }, 
      "inputs": [[294, 0, 0], [295, 0, 0]]
    }, 
    {
      "op": "null", 
      "name": "cifar10_pydmobilenet56_0.25_plus/stg1/blk1/btl_out/batchnorm1_gamma", 
      "attrs": {
        "__dtype__": "0", 
        "__init__": "ones", 
        "__lr_mult__": "1.0", 
        "__shape__": "(0,)", 
        "__storage_type__": "0", 
        "__wd_mult__": "1.0"
      }, 
      "inputs": []
    }, 
    {
      "op": "null", 
      "name": "cifar10_pydmobilenet56_0.25_plus/stg1/blk1/btl_out/batchnorm1_beta", 
      "attrs": {
        "__dtype__": "0", 
        "__init__": "zeros", 
        "__lr_mult__": "1.0", 
        "__shape__": "(0,)", 
        "__storage_type__": "0", 
        "__wd_mult__": "1.0"
      }, 
      "inputs": []
    }, 
    {
      "op": "null", 
      "name": "cifar10_pydmobilenet56_0.25_plus/stg1/blk1/btl_out/batchnorm1_running_mean", 
      "attrs": {
        "__dtype__": "0", 
        "__init__": "zeros", 
        "__lr_mult__": "1.0", 
        "__shape__": "(0,)", 
        "__storage_type__": "0", 
        "__wd_mult__": "1.0"
      }, 
      "inputs": []
    }, 
    {
      "op": "null", 
      "name": "cifar10_pydmobilenet56_0.25_plus/stg1/blk1/btl_out/batchnorm1_running_var", 
      "attrs": {
        "__dtype__": "0", 
        "__init__": "ones", 
        "__lr_mult__": "1.0", 
        "__shape__": "(0,)", 
        "__storage_type__": "0", 
        "__wd_mult__": "1.0"
      }, 
      "inputs": []
    }, 
    {
      "op": "BatchNorm", 
      "name": "cifar10_pydmobilenet56_0.25_plus/stg1/blk1/btl_out/batchnorm1_fwd", 
      "attrs": {
        "axis": "1", 
        "eps": "1e-05", 
        "fix_gamma": "False", 
        "momentum": "0.9", 
        "use_global_stats": "False"
      }, 
      "inputs": [[296, 0, 0], [297, 0, 0], [298, 0, 0], [299, 0, 1], [300, 0, 1]]
    }, 
    {
      "op": "elemwise_add", 
      "name": "cifar10_pydmobilenet56_0.25_plus/stg1/blk1/_plus2", 
      "inputs": [[301, 0, 0], [266, 0, 0]]
    }, 
    {
      "op": "null", 
      "name": "cifar10_pydmobilenet56_0.25_plus/stg1/blk2/btl_in/batchnorm0_gamma", 
      "attrs": {
        "__dtype__": "0", 
        "__init__": "ones", 
        "__lr_mult__": "1.0", 
        "__shape__": "(0,)", 
        "__storage_type__": "0", 
        "__wd_mult__": "1.0"
      }, 
      "inputs": []
    }, 
    {
      "op": "null", 
      "name": "cifar10_pydmobilenet56_0.25_plus/stg1/blk2/btl_in/batchnorm0_beta", 
      "attrs": {
        "__dtype__": "0", 
        "__init__": "zeros", 
        "__lr_mult__": "1.0", 
        "__shape__": "(0,)", 
        "__storage_type__": "0", 
        "__wd_mult__": "1.0"
      }, 
      "inputs": []
    }, 
    {
      "op": "null", 
      "name": "cifar10_pydmobilenet56_0.25_plus/stg1/blk2/btl_in/batchnorm0_running_mean", 
      "attrs": {
        "__dtype__": "0", 
        "__init__": "zeros", 
        "__lr_mult__": "1.0", 
        "__shape__": "(0,)", 
        "__storage_type__": "0", 
        "__wd_mult__": "1.0"
      }, 
      "inputs": []
    }, 
    {
      "op": "null", 
      "name": "cifar10_pydmobilenet56_0.25_plus/stg1/blk2/btl_in/batchnorm0_running_var", 
      "attrs": {
        "__dtype__": "0", 
        "__init__": "ones", 
        "__lr_mult__": "1.0", 
        "__shape__": "(0,)", 
        "__storage_type__": "0", 
        "__wd_mult__": "1.0"
      }, 
      "inputs": []
    }, 
    {
      "op": "BatchNorm", 
      "name": "cifar10_pydmobilenet56_0.25_plus/stg1/blk2/btl_in/batchnorm0_fwd", 
      "attrs": {
        "axis": "1", 
        "eps": "1e-05", 
        "fix_gamma": "False", 
        "momentum": "0.9", 
        "use_global_stats": "False"
      }, 
      "inputs": [[302, 0, 0], [303, 0, 0], [304, 0, 0], [305, 0, 1], [306, 0, 1]]
    }, 
    {
      "op": "Activation", 
      "name": "cifar10_pydmobilenet56_0.25_plus/stg1/blk2/btl_in/relu0_fwd", 
      "attrs": {"act_type": "relu"}, 
      "inputs": [[307, 0, 0]]
    }, 
    {
      "op": "null", 
      "name": "cifar10_pydmobilenet56_0.25_plus/stg1/blk2/btl_in/conv0_weight", 
      "attrs": {
        "__dtype__": "0", 
        "__lr_mult__": "1.0", 
        "__shape__": "(16, 0, 1, 1)", 
        "__storage_type__": "0", 
        "__wd_mult__": "1.0"
      }, 
      "inputs": []
    }, 
    {
      "op": "Convolution", 
      "name": "cifar10_pydmobilenet56_0.25_plus/stg1/blk2/btl_in/conv0_fwd", 
      "attrs": {
        "dilate": "(1, 1)", 
        "kernel": "(1, 1)", 
        "layout": "NCHW", 
        "no_bias": "True", 
        "num_filter": "16", 
        "num_group": "1", 
        "pad": "(0, 0)", 
        "stride": "(1, 1)"
      }, 
      "inputs": [[308, 0, 0], [309, 0, 0]]
    }, 
    {
      "op": "null", 
      "name": "cifar10_pydmobilenet56_0.25_plus/stg1/blk2/btl_in/batchnorm1_gamma", 
      "attrs": {
        "__dtype__": "0", 
        "__init__": "ones", 
        "__lr_mult__": "1.0", 
        "__shape__": "(0,)", 
        "__storage_type__": "0", 
        "__wd_mult__": "1.0"
      }, 
      "inputs": []
    }, 
    {
      "op": "null", 
      "name": "cifar10_pydmobilenet56_0.25_plus/stg1/blk2/btl_in/batchnorm1_beta", 
      "attrs": {
        "__dtype__": "0", 
        "__init__": "zeros", 
        "__lr_mult__": "1.0", 
        "__shape__": "(0,)", 
        "__storage_type__": "0", 
        "__wd_mult__": "1.0"
      }, 
      "inputs": []
    }, 
    {
      "op": "null", 
      "name": "cifar10_pydmobilenet56_0.25_plus/stg1/blk2/btl_in/batchnorm1_running_mean", 
      "attrs": {
        "__dtype__": "0", 
        "__init__": "zeros", 
        "__lr_mult__": "1.0", 
        "__shape__": "(0,)", 
        "__storage_type__": "0", 
        "__wd_mult__": "1.0"
      }, 
      "inputs": []
    }, 
    {
      "op": "null", 
      "name": "cifar10_pydmobilenet56_0.25_plus/stg1/blk2/btl_in/batchnorm1_running_var", 
      "attrs": {
        "__dtype__": "0", 
        "__init__": "ones", 
        "__lr_mult__": "1.0", 
        "__shape__": "(0,)", 
        "__storage_type__": "0", 
        "__wd_mult__": "1.0"
      }, 
      "inputs": []
    }, 
    {
      "op": "BatchNorm", 
      "name": "cifar10_pydmobilenet56_0.25_plus/stg1/blk2/btl_in/batchnorm1_fwd", 
      "attrs": {
        "axis": "1", 
        "eps": "1e-05", 
        "fix_gamma": "False", 
        "momentum": "0.9", 
        "use_global_stats": "False"
      }, 
      "inputs": [[310, 0, 0], [311, 0, 0], [312, 0, 0], [313, 0, 1], [314, 0, 1]]
    }, 
    {
      "op": "Activation", 
      "name": "cifar10_pydmobilenet56_0.25_plus/stg1/blk2/btl_in/relu1_fwd", 
      "attrs": {"act_type": "relu"}, 
      "inputs": [[315, 0, 0]]
    }, 
    {
      "op": "null", 
      "name": "cifar10_pydmobilenet56_0.25_plus/stg1/blk2/conv3/conv0_weight", 
      "attrs": {
        "__dtype__": "0", 
        "__lr_mult__": "1.0", 
        "__shape__": "(16, 0, 3, 3)", 
        "__storage_type__": "0", 
        "__wd_mult__": "1.0"
      }, 
      "inputs": []
    }, 
    {
      "op": "Convolution", 
      "name": "cifar10_pydmobilenet56_0.25_plus/stg1/blk2/conv3/conv0_fwd", 
      "attrs": {
        "dilate": "(1, 1)", 
        "kernel": "(3, 3)", 
        "layout": "NCHW", 
        "no_bias": "True", 
        "num_filter": "16", 
        "num_group": "16", 
        "pad": "(1, 1)", 
        "stride": "(1, 1)"
      }, 
      "inputs": [[316, 0, 0], [317, 0, 0]]
    }, 
    {
      "op": "null", 
      "name": "cifar10_pydmobilenet56_0.25_plus/stg1/blk2/conv5/conv0_weight", 
      "attrs": {
        "__dtype__": "0", 
        "__lr_mult__": "1.0", 
        "__shape__": "(16, 0, 5, 5)", 
        "__storage_type__": "0", 
        "__wd_mult__": "1.0"
      }, 
      "inputs": []
    }, 
    {
      "op": "Convolution", 
      "name": "cifar10_pydmobilenet56_0.25_plus/stg1/blk2/conv5/conv0_fwd", 
      "attrs": {
        "dilate": "(1, 1)", 
        "kernel": "(5, 5)", 
        "layout": "NCHW", 
        "no_bias": "True", 
        "num_filter": "16", 
        "num_group": "16", 
        "pad": "(2, 2)", 
        "stride": "(1, 1)"
      }, 
      "inputs": [[316, 0, 0], [319, 0, 0]]
    }, 
    {
      "op": "elemwise_add", 
      "name": "cifar10_pydmobilenet56_0.25_plus/stg1/blk2/_plus0", 
      "inputs": [[318, 0, 0], [320, 0, 0]]
    }, 
    {
      "op": "null", 
      "name": "cifar10_pydmobilenet56_0.25_plus/stg1/blk2/conv7/conv0_weight", 
      "attrs": {
        "__dtype__": "0", 
        "__lr_mult__": "1.0", 
        "__shape__": "(16, 0, 7, 7)", 
        "__storage_type__": "0", 
        "__wd_mult__": "1.0"
      }, 
      "inputs": []
    }, 
    {
      "op": "Convolution", 
      "name": "cifar10_pydmobilenet56_0.25_plus/stg1/blk2/conv7/conv0_fwd", 
      "attrs": {
        "dilate": "(1, 1)", 
        "kernel": "(7, 7)", 
        "layout": "NCHW", 
        "no_bias": "True", 
        "num_filter": "16", 
        "num_group": "16", 
        "pad": "(3, 3)", 
        "stride": "(1, 1)"
      }, 
      "inputs": [[316, 0, 0], [322, 0, 0]]
    }, 
    {
      "op": "elemwise_add", 
      "name": "cifar10_pydmobilenet56_0.25_plus/stg1/blk2/_plus1", 
      "inputs": [[321, 0, 0], [323, 0, 0]]
    }, 
    {
      "op": "null", 
      "name": "cifar10_pydmobilenet56_0.25_plus/stg1/blk2/btl_out/batchnorm0_gamma", 
      "attrs": {
        "__dtype__": "0", 
        "__init__": "ones", 
        "__lr_mult__": "1.0", 
        "__shape__": "(0,)", 
        "__storage_type__": "0", 
        "__wd_mult__": "1.0"
      }, 
      "inputs": []
    }, 
    {
      "op": "null", 
      "name": "cifar10_pydmobilenet56_0.25_plus/stg1/blk2/btl_out/batchnorm0_beta", 
      "attrs": {
        "__dtype__": "0", 
        "__init__": "zeros", 
        "__lr_mult__": "1.0", 
        "__shape__": "(0,)", 
        "__storage_type__": "0", 
        "__wd_mult__": "1.0"
      }, 
      "inputs": []
    }, 
    {
      "op": "null", 
      "name": "cifar10_pydmobilenet56_0.25_plus/stg1/blk2/btl_out/batchnorm0_running_mean", 
      "attrs": {
        "__dtype__": "0", 
        "__init__": "zeros", 
        "__lr_mult__": "1.0", 
        "__shape__": "(0,)", 
        "__storage_type__": "0", 
        "__wd_mult__": "1.0"
      }, 
      "inputs": []
    }, 
    {
      "op": "null", 
      "name": "cifar10_pydmobilenet56_0.25_plus/stg1/blk2/btl_out/batchnorm0_running_var", 
      "attrs": {
        "__dtype__": "0", 
        "__init__": "ones", 
        "__lr_mult__": "1.0", 
        "__shape__": "(0,)", 
        "__storage_type__": "0", 
        "__wd_mult__": "1.0"
      }, 
      "inputs": []
    }, 
    {
      "op": "BatchNorm", 
      "name": "cifar10_pydmobilenet56_0.25_plus/stg1/blk2/btl_out/batchnorm0_fwd", 
      "attrs": {
        "axis": "1", 
        "eps": "1e-05", 
        "fix_gamma": "False", 
        "momentum": "0.9", 
        "use_global_stats": "False"
      }, 
      "inputs": [[324, 0, 0], [325, 0, 0], [326, 0, 0], [327, 0, 1], [328, 0, 1]]
    }, 
    {
      "op": "Activation", 
      "name": "cifar10_pydmobilenet56_0.25_plus/stg1/blk2/btl_out/relu0_fwd", 
      "attrs": {"act_type": "relu"}, 
      "inputs": [[329, 0, 0]]
    }, 
    {
      "op": "null", 
      "name": "cifar10_pydmobilenet56_0.25_plus/stg1/blk2/btl_out/conv0_weight", 
      "attrs": {
        "__dtype__": "0", 
        "__lr_mult__": "1.0", 
        "__shape__": "(64, 0, 1, 1)", 
        "__storage_type__": "0", 
        "__wd_mult__": "1.0"
      }, 
      "inputs": []
    }, 
    {
      "op": "Convolution", 
      "name": "cifar10_pydmobilenet56_0.25_plus/stg1/blk2/btl_out/conv0_fwd", 
      "attrs": {
        "dilate": "(1, 1)", 
        "kernel": "(1, 1)", 
        "layout": "NCHW", 
        "no_bias": "True", 
        "num_filter": "64", 
        "num_group": "1", 
        "pad": "(0, 0)", 
        "stride": "(1, 1)"
      }, 
      "inputs": [[330, 0, 0], [331, 0, 0]]
    }, 
    {
      "op": "null", 
      "name": "cifar10_pydmobilenet56_0.25_plus/stg1/blk2/btl_out/batchnorm1_gamma", 
      "attrs": {
        "__dtype__": "0", 
        "__init__": "ones", 
        "__lr_mult__": "1.0", 
        "__shape__": "(0,)", 
        "__storage_type__": "0", 
        "__wd_mult__": "1.0"
      }, 
      "inputs": []
    }, 
    {
      "op": "null", 
      "name": "cifar10_pydmobilenet56_0.25_plus/stg1/blk2/btl_out/batchnorm1_beta", 
      "attrs": {
        "__dtype__": "0", 
        "__init__": "zeros", 
        "__lr_mult__": "1.0", 
        "__shape__": "(0,)", 
        "__storage_type__": "0", 
        "__wd_mult__": "1.0"
      }, 
      "inputs": []
    }, 
    {
      "op": "null", 
      "name": "cifar10_pydmobilenet56_0.25_plus/stg1/blk2/btl_out/batchnorm1_running_mean", 
      "attrs": {
        "__dtype__": "0", 
        "__init__": "zeros", 
        "__lr_mult__": "1.0", 
        "__shape__": "(0,)", 
        "__storage_type__": "0", 
        "__wd_mult__": "1.0"
      }, 
      "inputs": []
    }, 
    {
      "op": "null", 
      "name": "cifar10_pydmobilenet56_0.25_plus/stg1/blk2/btl_out/batchnorm1_running_var", 
      "attrs": {
        "__dtype__": "0", 
        "__init__": "ones", 
        "__lr_mult__": "1.0", 
        "__shape__": "(0,)", 
        "__storage_type__": "0", 
        "__wd_mult__": "1.0"
      }, 
      "inputs": []
    }, 
    {
      "op": "BatchNorm", 
      "name": "cifar10_pydmobilenet56_0.25_plus/stg1/blk2/btl_out/batchnorm1_fwd", 
      "attrs": {
        "axis": "1", 
        "eps": "1e-05", 
        "fix_gamma": "False", 
        "momentum": "0.9", 
        "use_global_stats": "False"
      }, 
      "inputs": [[332, 0, 0], [333, 0, 0], [334, 0, 0], [335, 0, 1], [336, 0, 1]]
    }, 
    {
      "op": "elemwise_add", 
      "name": "cifar10_pydmobilenet56_0.25_plus/stg1/blk2/_plus2", 
      "inputs": [[337, 0, 0], [302, 0, 0]]
    }, 
    {
      "op": "null", 
      "name": "cifar10_pydmobilenet56_0.25_plus/stg1/blk3/btl_in/batchnorm0_gamma", 
      "attrs": {
        "__dtype__": "0", 
        "__init__": "ones", 
        "__lr_mult__": "1.0", 
        "__shape__": "(0,)", 
        "__storage_type__": "0", 
        "__wd_mult__": "1.0"
      }, 
      "inputs": []
    }, 
    {
      "op": "null", 
      "name": "cifar10_pydmobilenet56_0.25_plus/stg1/blk3/btl_in/batchnorm0_beta", 
      "attrs": {
        "__dtype__": "0", 
        "__init__": "zeros", 
        "__lr_mult__": "1.0", 
        "__shape__": "(0,)", 
        "__storage_type__": "0", 
        "__wd_mult__": "1.0"
      }, 
      "inputs": []
    }, 
    {
      "op": "null", 
      "name": "cifar10_pydmobilenet56_0.25_plus/stg1/blk3/btl_in/batchnorm0_running_mean", 
      "attrs": {
        "__dtype__": "0", 
        "__init__": "zeros", 
        "__lr_mult__": "1.0", 
        "__shape__": "(0,)", 
        "__storage_type__": "0", 
        "__wd_mult__": "1.0"
      }, 
      "inputs": []
    }, 
    {
      "op": "null", 
      "name": "cifar10_pydmobilenet56_0.25_plus/stg1/blk3/btl_in/batchnorm0_running_var", 
      "attrs": {
        "__dtype__": "0", 
        "__init__": "ones", 
        "__lr_mult__": "1.0", 
        "__shape__": "(0,)", 
        "__storage_type__": "0", 
        "__wd_mult__": "1.0"
      }, 
      "inputs": []
    }, 
    {
      "op": "BatchNorm", 
      "name": "cifar10_pydmobilenet56_0.25_plus/stg1/blk3/btl_in/batchnorm0_fwd", 
      "attrs": {
        "axis": "1", 
        "eps": "1e-05", 
        "fix_gamma": "False", 
        "momentum": "0.9", 
        "use_global_stats": "False"
      }, 
      "inputs": [[338, 0, 0], [339, 0, 0], [340, 0, 0], [341, 0, 1], [342, 0, 1]]
    }, 
    {
      "op": "Activation", 
      "name": "cifar10_pydmobilenet56_0.25_plus/stg1/blk3/btl_in/relu0_fwd", 
      "attrs": {"act_type": "relu"}, 
      "inputs": [[343, 0, 0]]
    }, 
    {
      "op": "null", 
      "name": "cifar10_pydmobilenet56_0.25_plus/stg1/blk3/btl_in/conv0_weight", 
      "attrs": {
        "__dtype__": "0", 
        "__lr_mult__": "1.0", 
        "__shape__": "(16, 0, 1, 1)", 
        "__storage_type__": "0", 
        "__wd_mult__": "1.0"
      }, 
      "inputs": []
    }, 
    {
      "op": "Convolution", 
      "name": "cifar10_pydmobilenet56_0.25_plus/stg1/blk3/btl_in/conv0_fwd", 
      "attrs": {
        "dilate": "(1, 1)", 
        "kernel": "(1, 1)", 
        "layout": "NCHW", 
        "no_bias": "True", 
        "num_filter": "16", 
        "num_group": "1", 
        "pad": "(0, 0)", 
        "stride": "(1, 1)"
      }, 
      "inputs": [[344, 0, 0], [345, 0, 0]]
    }, 
    {
      "op": "null", 
      "name": "cifar10_pydmobilenet56_0.25_plus/stg1/blk3/btl_in/batchnorm1_gamma", 
      "attrs": {
        "__dtype__": "0", 
        "__init__": "ones", 
        "__lr_mult__": "1.0", 
        "__shape__": "(0,)", 
        "__storage_type__": "0", 
        "__wd_mult__": "1.0"
      }, 
      "inputs": []
    }, 
    {
      "op": "null", 
      "name": "cifar10_pydmobilenet56_0.25_plus/stg1/blk3/btl_in/batchnorm1_beta", 
      "attrs": {
        "__dtype__": "0", 
        "__init__": "zeros", 
        "__lr_mult__": "1.0", 
        "__shape__": "(0,)", 
        "__storage_type__": "0", 
        "__wd_mult__": "1.0"
      }, 
      "inputs": []
    }, 
    {
      "op": "null", 
      "name": "cifar10_pydmobilenet56_0.25_plus/stg1/blk3/btl_in/batchnorm1_running_mean", 
      "attrs": {
        "__dtype__": "0", 
        "__init__": "zeros", 
        "__lr_mult__": "1.0", 
        "__shape__": "(0,)", 
        "__storage_type__": "0", 
        "__wd_mult__": "1.0"
      }, 
      "inputs": []
    }, 
    {
      "op": "null", 
      "name": "cifar10_pydmobilenet56_0.25_plus/stg1/blk3/btl_in/batchnorm1_running_var", 
      "attrs": {
        "__dtype__": "0", 
        "__init__": "ones", 
        "__lr_mult__": "1.0", 
        "__shape__": "(0,)", 
        "__storage_type__": "0", 
        "__wd_mult__": "1.0"
      }, 
      "inputs": []
    }, 
    {
      "op": "BatchNorm", 
      "name": "cifar10_pydmobilenet56_0.25_plus/stg1/blk3/btl_in/batchnorm1_fwd", 
      "attrs": {
        "axis": "1", 
        "eps": "1e-05", 
        "fix_gamma": "False", 
        "momentum": "0.9", 
        "use_global_stats": "False"
      }, 
      "inputs": [[346, 0, 0], [347, 0, 0], [348, 0, 0], [349, 0, 1], [350, 0, 1]]
    }, 
    {
      "op": "Activation", 
      "name": "cifar10_pydmobilenet56_0.25_plus/stg1/blk3/btl_in/relu1_fwd", 
      "attrs": {"act_type": "relu"}, 
      "inputs": [[351, 0, 0]]
    }, 
    {
      "op": "null", 
      "name": "cifar10_pydmobilenet56_0.25_plus/stg1/blk3/conv3/conv0_weight", 
      "attrs": {
        "__dtype__": "0", 
        "__lr_mult__": "1.0", 
        "__shape__": "(16, 0, 3, 3)", 
        "__storage_type__": "0", 
        "__wd_mult__": "1.0"
      }, 
      "inputs": []
    }, 
    {
      "op": "Convolution", 
      "name": "cifar10_pydmobilenet56_0.25_plus/stg1/blk3/conv3/conv0_fwd", 
      "attrs": {
        "dilate": "(1, 1)", 
        "kernel": "(3, 3)", 
        "layout": "NCHW", 
        "no_bias": "True", 
        "num_filter": "16", 
        "num_group": "16", 
        "pad": "(1, 1)", 
        "stride": "(1, 1)"
      }, 
      "inputs": [[352, 0, 0], [353, 0, 0]]
    }, 
    {
      "op": "null", 
      "name": "cifar10_pydmobilenet56_0.25_plus/stg1/blk3/conv5/conv0_weight", 
      "attrs": {
        "__dtype__": "0", 
        "__lr_mult__": "1.0", 
        "__shape__": "(16, 0, 5, 5)", 
        "__storage_type__": "0", 
        "__wd_mult__": "1.0"
      }, 
      "inputs": []
    }, 
    {
      "op": "Convolution", 
      "name": "cifar10_pydmobilenet56_0.25_plus/stg1/blk3/conv5/conv0_fwd", 
      "attrs": {
        "dilate": "(1, 1)", 
        "kernel": "(5, 5)", 
        "layout": "NCHW", 
        "no_bias": "True", 
        "num_filter": "16", 
        "num_group": "16", 
        "pad": "(2, 2)", 
        "stride": "(1, 1)"
      }, 
      "inputs": [[352, 0, 0], [355, 0, 0]]
    }, 
    {
      "op": "elemwise_add", 
      "name": "cifar10_pydmobilenet56_0.25_plus/stg1/blk3/_plus0", 
      "inputs": [[354, 0, 0], [356, 0, 0]]
    }, 
    {
      "op": "null", 
      "name": "cifar10_pydmobilenet56_0.25_plus/stg1/blk3/conv7/conv0_weight", 
      "attrs": {
        "__dtype__": "0", 
        "__lr_mult__": "1.0", 
        "__shape__": "(16, 0, 7, 7)", 
        "__storage_type__": "0", 
        "__wd_mult__": "1.0"
      }, 
      "inputs": []
    }, 
    {
      "op": "Convolution", 
      "name": "cifar10_pydmobilenet56_0.25_plus/stg1/blk3/conv7/conv0_fwd", 
      "attrs": {
        "dilate": "(1, 1)", 
        "kernel": "(7, 7)", 
        "layout": "NCHW", 
        "no_bias": "True", 
        "num_filter": "16", 
        "num_group": "16", 
        "pad": "(3, 3)", 
        "stride": "(1, 1)"
      }, 
      "inputs": [[352, 0, 0], [358, 0, 0]]
    }, 
    {
      "op": "elemwise_add", 
      "name": "cifar10_pydmobilenet56_0.25_plus/stg1/blk3/_plus1", 
      "inputs": [[357, 0, 0], [359, 0, 0]]
    }, 
    {
      "op": "null", 
      "name": "cifar10_pydmobilenet56_0.25_plus/stg1/blk3/btl_out/batchnorm0_gamma", 
      "attrs": {
        "__dtype__": "0", 
        "__init__": "ones", 
        "__lr_mult__": "1.0", 
        "__shape__": "(0,)", 
        "__storage_type__": "0", 
        "__wd_mult__": "1.0"
      }, 
      "inputs": []
    }, 
    {
      "op": "null", 
      "name": "cifar10_pydmobilenet56_0.25_plus/stg1/blk3/btl_out/batchnorm0_beta", 
      "attrs": {
        "__dtype__": "0", 
        "__init__": "zeros", 
        "__lr_mult__": "1.0", 
        "__shape__": "(0,)", 
        "__storage_type__": "0", 
        "__wd_mult__": "1.0"
      }, 
      "inputs": []
    }, 
    {
      "op": "null", 
      "name": "cifar10_pydmobilenet56_0.25_plus/stg1/blk3/btl_out/batchnorm0_running_mean", 
      "attrs": {
        "__dtype__": "0", 
        "__init__": "zeros", 
        "__lr_mult__": "1.0", 
        "__shape__": "(0,)", 
        "__storage_type__": "0", 
        "__wd_mult__": "1.0"
      }, 
      "inputs": []
    }, 
    {
      "op": "null", 
      "name": "cifar10_pydmobilenet56_0.25_plus/stg1/blk3/btl_out/batchnorm0_running_var", 
      "attrs": {
        "__dtype__": "0", 
        "__init__": "ones", 
        "__lr_mult__": "1.0", 
        "__shape__": "(0,)", 
        "__storage_type__": "0", 
        "__wd_mult__": "1.0"
      }, 
      "inputs": []
    }, 
    {
      "op": "BatchNorm", 
      "name": "cifar10_pydmobilenet56_0.25_plus/stg1/blk3/btl_out/batchnorm0_fwd", 
      "attrs": {
        "axis": "1", 
        "eps": "1e-05", 
        "fix_gamma": "False", 
        "momentum": "0.9", 
        "use_global_stats": "False"
      }, 
      "inputs": [[360, 0, 0], [361, 0, 0], [362, 0, 0], [363, 0, 1], [364, 0, 1]]
    }, 
    {
      "op": "Activation", 
      "name": "cifar10_pydmobilenet56_0.25_plus/stg1/blk3/btl_out/relu0_fwd", 
      "attrs": {"act_type": "relu"}, 
      "inputs": [[365, 0, 0]]
    }, 
    {
      "op": "null", 
      "name": "cifar10_pydmobilenet56_0.25_plus/stg1/blk3/btl_out/conv0_weight", 
      "attrs": {
        "__dtype__": "0", 
        "__lr_mult__": "1.0", 
        "__shape__": "(64, 0, 1, 1)", 
        "__storage_type__": "0", 
        "__wd_mult__": "1.0"
      }, 
      "inputs": []
    }, 
    {
      "op": "Convolution", 
      "name": "cifar10_pydmobilenet56_0.25_plus/stg1/blk3/btl_out/conv0_fwd", 
      "attrs": {
        "dilate": "(1, 1)", 
        "kernel": "(1, 1)", 
        "layout": "NCHW", 
        "no_bias": "True", 
        "num_filter": "64", 
        "num_group": "1", 
        "pad": "(0, 0)", 
        "stride": "(1, 1)"
      }, 
      "inputs": [[366, 0, 0], [367, 0, 0]]
    }, 
    {
      "op": "null", 
      "name": "cifar10_pydmobilenet56_0.25_plus/stg1/blk3/btl_out/batchnorm1_gamma", 
      "attrs": {
        "__dtype__": "0", 
        "__init__": "ones", 
        "__lr_mult__": "1.0", 
        "__shape__": "(0,)", 
        "__storage_type__": "0", 
        "__wd_mult__": "1.0"
      }, 
      "inputs": []
    }, 
    {
      "op": "null", 
      "name": "cifar10_pydmobilenet56_0.25_plus/stg1/blk3/btl_out/batchnorm1_beta", 
      "attrs": {
        "__dtype__": "0", 
        "__init__": "zeros", 
        "__lr_mult__": "1.0", 
        "__shape__": "(0,)", 
        "__storage_type__": "0", 
        "__wd_mult__": "1.0"
      }, 
      "inputs": []
    }, 
    {
      "op": "null", 
      "name": "cifar10_pydmobilenet56_0.25_plus/stg1/blk3/btl_out/batchnorm1_running_mean", 
      "attrs": {
        "__dtype__": "0", 
        "__init__": "zeros", 
        "__lr_mult__": "1.0", 
        "__shape__": "(0,)", 
        "__storage_type__": "0", 
        "__wd_mult__": "1.0"
      }, 
      "inputs": []
    }, 
    {
      "op": "null", 
      "name": "cifar10_pydmobilenet56_0.25_plus/stg1/blk3/btl_out/batchnorm1_running_var", 
      "attrs": {
        "__dtype__": "0", 
        "__init__": "ones", 
        "__lr_mult__": "1.0", 
        "__shape__": "(0,)", 
        "__storage_type__": "0", 
        "__wd_mult__": "1.0"
      }, 
      "inputs": []
    }, 
    {
      "op": "BatchNorm", 
      "name": "cifar10_pydmobilenet56_0.25_plus/stg1/blk3/btl_out/batchnorm1_fwd", 
      "attrs": {
        "axis": "1", 
        "eps": "1e-05", 
        "fix_gamma": "False", 
        "momentum": "0.9", 
        "use_global_stats": "False"
      }, 
      "inputs": [[368, 0, 0], [369, 0, 0], [370, 0, 0], [371, 0, 1], [372, 0, 1]]
    }, 
    {
      "op": "elemwise_add", 
      "name": "cifar10_pydmobilenet56_0.25_plus/stg1/blk3/_plus2", 
      "inputs": [[373, 0, 0], [338, 0, 0]]
    }, 
    {
      "op": "null", 
      "name": "cifar10_pydmobilenet56_0.25_plus/stg1/blk4/btl_in/batchnorm0_gamma", 
      "attrs": {
        "__dtype__": "0", 
        "__init__": "ones", 
        "__lr_mult__": "1.0", 
        "__shape__": "(0,)", 
        "__storage_type__": "0", 
        "__wd_mult__": "1.0"
      }, 
      "inputs": []
    }, 
    {
      "op": "null", 
      "name": "cifar10_pydmobilenet56_0.25_plus/stg1/blk4/btl_in/batchnorm0_beta", 
      "attrs": {
        "__dtype__": "0", 
        "__init__": "zeros", 
        "__lr_mult__": "1.0", 
        "__shape__": "(0,)", 
        "__storage_type__": "0", 
        "__wd_mult__": "1.0"
      }, 
      "inputs": []
    }, 
    {
      "op": "null", 
      "name": "cifar10_pydmobilenet56_0.25_plus/stg1/blk4/btl_in/batchnorm0_running_mean", 
      "attrs": {
        "__dtype__": "0", 
        "__init__": "zeros", 
        "__lr_mult__": "1.0", 
        "__shape__": "(0,)", 
        "__storage_type__": "0", 
        "__wd_mult__": "1.0"
      }, 
      "inputs": []
    }, 
    {
      "op": "null", 
      "name": "cifar10_pydmobilenet56_0.25_plus/stg1/blk4/btl_in/batchnorm0_running_var", 
      "attrs": {
        "__dtype__": "0", 
        "__init__": "ones", 
        "__lr_mult__": "1.0", 
        "__shape__": "(0,)", 
        "__storage_type__": "0", 
        "__wd_mult__": "1.0"
      }, 
      "inputs": []
    }, 
    {
      "op": "BatchNorm", 
      "name": "cifar10_pydmobilenet56_0.25_plus/stg1/blk4/btl_in/batchnorm0_fwd", 
      "attrs": {
        "axis": "1", 
        "eps": "1e-05", 
        "fix_gamma": "False", 
        "momentum": "0.9", 
        "use_global_stats": "False"
      }, 
      "inputs": [[374, 0, 0], [375, 0, 0], [376, 0, 0], [377, 0, 1], [378, 0, 1]]
    }, 
    {
      "op": "Activation", 
      "name": "cifar10_pydmobilenet56_0.25_plus/stg1/blk4/btl_in/relu0_fwd", 
      "attrs": {"act_type": "relu"}, 
      "inputs": [[379, 0, 0]]
    }, 
    {
      "op": "null", 
      "name": "cifar10_pydmobilenet56_0.25_plus/stg1/blk4/btl_in/conv0_weight", 
      "attrs": {
        "__dtype__": "0", 
        "__lr_mult__": "1.0", 
        "__shape__": "(16, 0, 1, 1)", 
        "__storage_type__": "0", 
        "__wd_mult__": "1.0"
      }, 
      "inputs": []
    }, 
    {
      "op": "Convolution", 
      "name": "cifar10_pydmobilenet56_0.25_plus/stg1/blk4/btl_in/conv0_fwd", 
      "attrs": {
        "dilate": "(1, 1)", 
        "kernel": "(1, 1)", 
        "layout": "NCHW", 
        "no_bias": "True", 
        "num_filter": "16", 
        "num_group": "1", 
        "pad": "(0, 0)", 
        "stride": "(1, 1)"
      }, 
      "inputs": [[380, 0, 0], [381, 0, 0]]
    }, 
    {
      "op": "null", 
      "name": "cifar10_pydmobilenet56_0.25_plus/stg1/blk4/btl_in/batchnorm1_gamma", 
      "attrs": {
        "__dtype__": "0", 
        "__init__": "ones", 
        "__lr_mult__": "1.0", 
        "__shape__": "(0,)", 
        "__storage_type__": "0", 
        "__wd_mult__": "1.0"
      }, 
      "inputs": []
    }, 
    {
      "op": "null", 
      "name": "cifar10_pydmobilenet56_0.25_plus/stg1/blk4/btl_in/batchnorm1_beta", 
      "attrs": {
        "__dtype__": "0", 
        "__init__": "zeros", 
        "__lr_mult__": "1.0", 
        "__shape__": "(0,)", 
        "__storage_type__": "0", 
        "__wd_mult__": "1.0"
      }, 
      "inputs": []
    }, 
    {
      "op": "null", 
      "name": "cifar10_pydmobilenet56_0.25_plus/stg1/blk4/btl_in/batchnorm1_running_mean", 
      "attrs": {
        "__dtype__": "0", 
        "__init__": "zeros", 
        "__lr_mult__": "1.0", 
        "__shape__": "(0,)", 
        "__storage_type__": "0", 
        "__wd_mult__": "1.0"
      }, 
      "inputs": []
    }, 
    {
      "op": "null", 
      "name": "cifar10_pydmobilenet56_0.25_plus/stg1/blk4/btl_in/batchnorm1_running_var", 
      "attrs": {
        "__dtype__": "0", 
        "__init__": "ones", 
        "__lr_mult__": "1.0", 
        "__shape__": "(0,)", 
        "__storage_type__": "0", 
        "__wd_mult__": "1.0"
      }, 
      "inputs": []
    }, 
    {
      "op": "BatchNorm", 
      "name": "cifar10_pydmobilenet56_0.25_plus/stg1/blk4/btl_in/batchnorm1_fwd", 
      "attrs": {
        "axis": "1", 
        "eps": "1e-05", 
        "fix_gamma": "False", 
        "momentum": "0.9", 
        "use_global_stats": "False"
      }, 
      "inputs": [[382, 0, 0], [383, 0, 0], [384, 0, 0], [385, 0, 1], [386, 0, 1]]
    }, 
    {
      "op": "Activation", 
      "name": "cifar10_pydmobilenet56_0.25_plus/stg1/blk4/btl_in/relu1_fwd", 
      "attrs": {"act_type": "relu"}, 
      "inputs": [[387, 0, 0]]
    }, 
    {
      "op": "null", 
      "name": "cifar10_pydmobilenet56_0.25_plus/stg1/blk4/conv3/conv0_weight", 
      "attrs": {
        "__dtype__": "0", 
        "__lr_mult__": "1.0", 
        "__shape__": "(16, 0, 3, 3)", 
        "__storage_type__": "0", 
        "__wd_mult__": "1.0"
      }, 
      "inputs": []
    }, 
    {
      "op": "Convolution", 
      "name": "cifar10_pydmobilenet56_0.25_plus/stg1/blk4/conv3/conv0_fwd", 
      "attrs": {
        "dilate": "(1, 1)", 
        "kernel": "(3, 3)", 
        "layout": "NCHW", 
        "no_bias": "True", 
        "num_filter": "16", 
        "num_group": "16", 
        "pad": "(1, 1)", 
        "stride": "(1, 1)"
      }, 
      "inputs": [[388, 0, 0], [389, 0, 0]]
    }, 
    {
      "op": "null", 
      "name": "cifar10_pydmobilenet56_0.25_plus/stg1/blk4/conv5/conv0_weight", 
      "attrs": {
        "__dtype__": "0", 
        "__lr_mult__": "1.0", 
        "__shape__": "(16, 0, 5, 5)", 
        "__storage_type__": "0", 
        "__wd_mult__": "1.0"
      }, 
      "inputs": []
    }, 
    {
      "op": "Convolution", 
      "name": "cifar10_pydmobilenet56_0.25_plus/stg1/blk4/conv5/conv0_fwd", 
      "attrs": {
        "dilate": "(1, 1)", 
        "kernel": "(5, 5)", 
        "layout": "NCHW", 
        "no_bias": "True", 
        "num_filter": "16", 
        "num_group": "16", 
        "pad": "(2, 2)", 
        "stride": "(1, 1)"
      }, 
      "inputs": [[388, 0, 0], [391, 0, 0]]
    }, 
    {
      "op": "elemwise_add", 
      "name": "cifar10_pydmobilenet56_0.25_plus/stg1/blk4/_plus0", 
      "inputs": [[390, 0, 0], [392, 0, 0]]
    }, 
    {
      "op": "null", 
      "name": "cifar10_pydmobilenet56_0.25_plus/stg1/blk4/conv7/conv0_weight", 
      "attrs": {
        "__dtype__": "0", 
        "__lr_mult__": "1.0", 
        "__shape__": "(16, 0, 7, 7)", 
        "__storage_type__": "0", 
        "__wd_mult__": "1.0"
      }, 
      "inputs": []
    }, 
    {
      "op": "Convolution", 
      "name": "cifar10_pydmobilenet56_0.25_plus/stg1/blk4/conv7/conv0_fwd", 
      "attrs": {
        "dilate": "(1, 1)", 
        "kernel": "(7, 7)", 
        "layout": "NCHW", 
        "no_bias": "True", 
        "num_filter": "16", 
        "num_group": "16", 
        "pad": "(3, 3)", 
        "stride": "(1, 1)"
      }, 
      "inputs": [[388, 0, 0], [394, 0, 0]]
    }, 
    {
      "op": "elemwise_add", 
      "name": "cifar10_pydmobilenet56_0.25_plus/stg1/blk4/_plus1", 
      "inputs": [[393, 0, 0], [395, 0, 0]]
    }, 
    {
      "op": "null", 
      "name": "cifar10_pydmobilenet56_0.25_plus/stg1/blk4/btl_out/batchnorm0_gamma", 
      "attrs": {
        "__dtype__": "0", 
        "__init__": "ones", 
        "__lr_mult__": "1.0", 
        "__shape__": "(0,)", 
        "__storage_type__": "0", 
        "__wd_mult__": "1.0"
      }, 
      "inputs": []
    }, 
    {
      "op": "null", 
      "name": "cifar10_pydmobilenet56_0.25_plus/stg1/blk4/btl_out/batchnorm0_beta", 
      "attrs": {
        "__dtype__": "0", 
        "__init__": "zeros", 
        "__lr_mult__": "1.0", 
        "__shape__": "(0,)", 
        "__storage_type__": "0", 
        "__wd_mult__": "1.0"
      }, 
      "inputs": []
    }, 
    {
      "op": "null", 
      "name": "cifar10_pydmobilenet56_0.25_plus/stg1/blk4/btl_out/batchnorm0_running_mean", 
      "attrs": {
        "__dtype__": "0", 
        "__init__": "zeros", 
        "__lr_mult__": "1.0", 
        "__shape__": "(0,)", 
        "__storage_type__": "0", 
        "__wd_mult__": "1.0"
      }, 
      "inputs": []
    }, 
    {
      "op": "null", 
      "name": "cifar10_pydmobilenet56_0.25_plus/stg1/blk4/btl_out/batchnorm0_running_var", 
      "attrs": {
        "__dtype__": "0", 
        "__init__": "ones", 
        "__lr_mult__": "1.0", 
        "__shape__": "(0,)", 
        "__storage_type__": "0", 
        "__wd_mult__": "1.0"
      }, 
      "inputs": []
    }, 
    {
      "op": "BatchNorm", 
      "name": "cifar10_pydmobilenet56_0.25_plus/stg1/blk4/btl_out/batchnorm0_fwd", 
      "attrs": {
        "axis": "1", 
        "eps": "1e-05", 
        "fix_gamma": "False", 
        "momentum": "0.9", 
        "use_global_stats": "False"
      }, 
      "inputs": [[396, 0, 0], [397, 0, 0], [398, 0, 0], [399, 0, 1], [400, 0, 1]]
    }, 
    {
      "op": "Activation", 
      "name": "cifar10_pydmobilenet56_0.25_plus/stg1/blk4/btl_out/relu0_fwd", 
      "attrs": {"act_type": "relu"}, 
      "inputs": [[401, 0, 0]]
    }, 
    {
      "op": "null", 
      "name": "cifar10_pydmobilenet56_0.25_plus/stg1/blk4/btl_out/conv0_weight", 
      "attrs": {
        "__dtype__": "0", 
        "__lr_mult__": "1.0", 
        "__shape__": "(64, 0, 1, 1)", 
        "__storage_type__": "0", 
        "__wd_mult__": "1.0"
      }, 
      "inputs": []
    }, 
    {
      "op": "Convolution", 
      "name": "cifar10_pydmobilenet56_0.25_plus/stg1/blk4/btl_out/conv0_fwd", 
      "attrs": {
        "dilate": "(1, 1)", 
        "kernel": "(1, 1)", 
        "layout": "NCHW", 
        "no_bias": "True", 
        "num_filter": "64", 
        "num_group": "1", 
        "pad": "(0, 0)", 
        "stride": "(1, 1)"
      }, 
      "inputs": [[402, 0, 0], [403, 0, 0]]
    }, 
    {
      "op": "null", 
      "name": "cifar10_pydmobilenet56_0.25_plus/stg1/blk4/btl_out/batchnorm1_gamma", 
      "attrs": {
        "__dtype__": "0", 
        "__init__": "ones", 
        "__lr_mult__": "1.0", 
        "__shape__": "(0,)", 
        "__storage_type__": "0", 
        "__wd_mult__": "1.0"
      }, 
      "inputs": []
    }, 
    {
      "op": "null", 
      "name": "cifar10_pydmobilenet56_0.25_plus/stg1/blk4/btl_out/batchnorm1_beta", 
      "attrs": {
        "__dtype__": "0", 
        "__init__": "zeros", 
        "__lr_mult__": "1.0", 
        "__shape__": "(0,)", 
        "__storage_type__": "0", 
        "__wd_mult__": "1.0"
      }, 
      "inputs": []
    }, 
    {
      "op": "null", 
      "name": "cifar10_pydmobilenet56_0.25_plus/stg1/blk4/btl_out/batchnorm1_running_mean", 
      "attrs": {
        "__dtype__": "0", 
        "__init__": "zeros", 
        "__lr_mult__": "1.0", 
        "__shape__": "(0,)", 
        "__storage_type__": "0", 
        "__wd_mult__": "1.0"
      }, 
      "inputs": []
    }, 
    {
      "op": "null", 
      "name": "cifar10_pydmobilenet56_0.25_plus/stg1/blk4/btl_out/batchnorm1_running_var", 
      "attrs": {
        "__dtype__": "0", 
        "__init__": "ones", 
        "__lr_mult__": "1.0", 
        "__shape__": "(0,)", 
        "__storage_type__": "0", 
        "__wd_mult__": "1.0"
      }, 
      "inputs": []
    }, 
    {
      "op": "BatchNorm", 
      "name": "cifar10_pydmobilenet56_0.25_plus/stg1/blk4/btl_out/batchnorm1_fwd", 
      "attrs": {
        "axis": "1", 
        "eps": "1e-05", 
        "fix_gamma": "False", 
        "momentum": "0.9", 
        "use_global_stats": "False"
      }, 
      "inputs": [[404, 0, 0], [405, 0, 0], [406, 0, 0], [407, 0, 1], [408, 0, 1]]
    }, 
    {
      "op": "elemwise_add", 
      "name": "cifar10_pydmobilenet56_0.25_plus/stg1/blk4/_plus2", 
      "inputs": [[409, 0, 0], [374, 0, 0]]
    }, 
    {
      "op": "null", 
      "name": "cifar10_pydmobilenet56_0.25_plus/stg1/blk5/btl_in/batchnorm0_gamma", 
      "attrs": {
        "__dtype__": "0", 
        "__init__": "ones", 
        "__lr_mult__": "1.0", 
        "__shape__": "(0,)", 
        "__storage_type__": "0", 
        "__wd_mult__": "1.0"
      }, 
      "inputs": []
    }, 
    {
      "op": "null", 
      "name": "cifar10_pydmobilenet56_0.25_plus/stg1/blk5/btl_in/batchnorm0_beta", 
      "attrs": {
        "__dtype__": "0", 
        "__init__": "zeros", 
        "__lr_mult__": "1.0", 
        "__shape__": "(0,)", 
        "__storage_type__": "0", 
        "__wd_mult__": "1.0"
      }, 
      "inputs": []
    }, 
    {
      "op": "null", 
      "name": "cifar10_pydmobilenet56_0.25_plus/stg1/blk5/btl_in/batchnorm0_running_mean", 
      "attrs": {
        "__dtype__": "0", 
        "__init__": "zeros", 
        "__lr_mult__": "1.0", 
        "__shape__": "(0,)", 
        "__storage_type__": "0", 
        "__wd_mult__": "1.0"
      }, 
      "inputs": []
    }, 
    {
      "op": "null", 
      "name": "cifar10_pydmobilenet56_0.25_plus/stg1/blk5/btl_in/batchnorm0_running_var", 
      "attrs": {
        "__dtype__": "0", 
        "__init__": "ones", 
        "__lr_mult__": "1.0", 
        "__shape__": "(0,)", 
        "__storage_type__": "0", 
        "__wd_mult__": "1.0"
      }, 
      "inputs": []
    }, 
    {
      "op": "BatchNorm", 
      "name": "cifar10_pydmobilenet56_0.25_plus/stg1/blk5/btl_in/batchnorm0_fwd", 
      "attrs": {
        "axis": "1", 
        "eps": "1e-05", 
        "fix_gamma": "False", 
        "momentum": "0.9", 
        "use_global_stats": "False"
      }, 
      "inputs": [[410, 0, 0], [411, 0, 0], [412, 0, 0], [413, 0, 1], [414, 0, 1]]
    }, 
    {
      "op": "Activation", 
      "name": "cifar10_pydmobilenet56_0.25_plus/stg1/blk5/btl_in/relu0_fwd", 
      "attrs": {"act_type": "relu"}, 
      "inputs": [[415, 0, 0]]
    }, 
    {
      "op": "null", 
      "name": "cifar10_pydmobilenet56_0.25_plus/stg1/blk5/btl_in/conv0_weight", 
      "attrs": {
        "__dtype__": "0", 
        "__lr_mult__": "1.0", 
        "__shape__": "(16, 0, 1, 1)", 
        "__storage_type__": "0", 
        "__wd_mult__": "1.0"
      }, 
      "inputs": []
    }, 
    {
      "op": "Convolution", 
      "name": "cifar10_pydmobilenet56_0.25_plus/stg1/blk5/btl_in/conv0_fwd", 
      "attrs": {
        "dilate": "(1, 1)", 
        "kernel": "(1, 1)", 
        "layout": "NCHW", 
        "no_bias": "True", 
        "num_filter": "16", 
        "num_group": "1", 
        "pad": "(0, 0)", 
        "stride": "(1, 1)"
      }, 
      "inputs": [[416, 0, 0], [417, 0, 0]]
    }, 
    {
      "op": "null", 
      "name": "cifar10_pydmobilenet56_0.25_plus/stg1/blk5/btl_in/batchnorm1_gamma", 
      "attrs": {
        "__dtype__": "0", 
        "__init__": "ones", 
        "__lr_mult__": "1.0", 
        "__shape__": "(0,)", 
        "__storage_type__": "0", 
        "__wd_mult__": "1.0"
      }, 
      "inputs": []
    }, 
    {
      "op": "null", 
      "name": "cifar10_pydmobilenet56_0.25_plus/stg1/blk5/btl_in/batchnorm1_beta", 
      "attrs": {
        "__dtype__": "0", 
        "__init__": "zeros", 
        "__lr_mult__": "1.0", 
        "__shape__": "(0,)", 
        "__storage_type__": "0", 
        "__wd_mult__": "1.0"
      }, 
      "inputs": []
    }, 
    {
      "op": "null", 
      "name": "cifar10_pydmobilenet56_0.25_plus/stg1/blk5/btl_in/batchnorm1_running_mean", 
      "attrs": {
        "__dtype__": "0", 
        "__init__": "zeros", 
        "__lr_mult__": "1.0", 
        "__shape__": "(0,)", 
        "__storage_type__": "0", 
        "__wd_mult__": "1.0"
      }, 
      "inputs": []
    }, 
    {
      "op": "null", 
      "name": "cifar10_pydmobilenet56_0.25_plus/stg1/blk5/btl_in/batchnorm1_running_var", 
      "attrs": {
        "__dtype__": "0", 
        "__init__": "ones", 
        "__lr_mult__": "1.0", 
        "__shape__": "(0,)", 
        "__storage_type__": "0", 
        "__wd_mult__": "1.0"
      }, 
      "inputs": []
    }, 
    {
      "op": "BatchNorm", 
      "name": "cifar10_pydmobilenet56_0.25_plus/stg1/blk5/btl_in/batchnorm1_fwd", 
      "attrs": {
        "axis": "1", 
        "eps": "1e-05", 
        "fix_gamma": "False", 
        "momentum": "0.9", 
        "use_global_stats": "False"
      }, 
      "inputs": [[418, 0, 0], [419, 0, 0], [420, 0, 0], [421, 0, 1], [422, 0, 1]]
    }, 
    {
      "op": "Activation", 
      "name": "cifar10_pydmobilenet56_0.25_plus/stg1/blk5/btl_in/relu1_fwd", 
      "attrs": {"act_type": "relu"}, 
      "inputs": [[423, 0, 0]]
    }, 
    {
      "op": "null", 
      "name": "cifar10_pydmobilenet56_0.25_plus/stg1/blk5/conv3/conv0_weight", 
      "attrs": {
        "__dtype__": "0", 
        "__lr_mult__": "1.0", 
        "__shape__": "(16, 0, 3, 3)", 
        "__storage_type__": "0", 
        "__wd_mult__": "1.0"
      }, 
      "inputs": []
    }, 
    {
      "op": "Convolution", 
      "name": "cifar10_pydmobilenet56_0.25_plus/stg1/blk5/conv3/conv0_fwd", 
      "attrs": {
        "dilate": "(1, 1)", 
        "kernel": "(3, 3)", 
        "layout": "NCHW", 
        "no_bias": "True", 
        "num_filter": "16", 
        "num_group": "16", 
        "pad": "(1, 1)", 
        "stride": "(1, 1)"
      }, 
      "inputs": [[424, 0, 0], [425, 0, 0]]
    }, 
    {
      "op": "null", 
      "name": "cifar10_pydmobilenet56_0.25_plus/stg1/blk5/conv5/conv0_weight", 
      "attrs": {
        "__dtype__": "0", 
        "__lr_mult__": "1.0", 
        "__shape__": "(16, 0, 5, 5)", 
        "__storage_type__": "0", 
        "__wd_mult__": "1.0"
      }, 
      "inputs": []
    }, 
    {
      "op": "Convolution", 
      "name": "cifar10_pydmobilenet56_0.25_plus/stg1/blk5/conv5/conv0_fwd", 
      "attrs": {
        "dilate": "(1, 1)", 
        "kernel": "(5, 5)", 
        "layout": "NCHW", 
        "no_bias": "True", 
        "num_filter": "16", 
        "num_group": "16", 
        "pad": "(2, 2)", 
        "stride": "(1, 1)"
      }, 
      "inputs": [[424, 0, 0], [427, 0, 0]]
    }, 
    {
      "op": "elemwise_add", 
      "name": "cifar10_pydmobilenet56_0.25_plus/stg1/blk5/_plus0", 
      "inputs": [[426, 0, 0], [428, 0, 0]]
    }, 
    {
      "op": "null", 
      "name": "cifar10_pydmobilenet56_0.25_plus/stg1/blk5/conv7/conv0_weight", 
      "attrs": {
        "__dtype__": "0", 
        "__lr_mult__": "1.0", 
        "__shape__": "(16, 0, 7, 7)", 
        "__storage_type__": "0", 
        "__wd_mult__": "1.0"
      }, 
      "inputs": []
    }, 
    {
      "op": "Convolution", 
      "name": "cifar10_pydmobilenet56_0.25_plus/stg1/blk5/conv7/conv0_fwd", 
      "attrs": {
        "dilate": "(1, 1)", 
        "kernel": "(7, 7)", 
        "layout": "NCHW", 
        "no_bias": "True", 
        "num_filter": "16", 
        "num_group": "16", 
        "pad": "(3, 3)", 
        "stride": "(1, 1)"
      }, 
      "inputs": [[424, 0, 0], [430, 0, 0]]
    }, 
    {
      "op": "elemwise_add", 
      "name": "cifar10_pydmobilenet56_0.25_plus/stg1/blk5/_plus1", 
      "inputs": [[429, 0, 0], [431, 0, 0]]
    }, 
    {
      "op": "null", 
      "name": "cifar10_pydmobilenet56_0.25_plus/stg1/blk5/btl_out/batchnorm0_gamma", 
      "attrs": {
        "__dtype__": "0", 
        "__init__": "ones", 
        "__lr_mult__": "1.0", 
        "__shape__": "(0,)", 
        "__storage_type__": "0", 
        "__wd_mult__": "1.0"
      }, 
      "inputs": []
    }, 
    {
      "op": "null", 
      "name": "cifar10_pydmobilenet56_0.25_plus/stg1/blk5/btl_out/batchnorm0_beta", 
      "attrs": {
        "__dtype__": "0", 
        "__init__": "zeros", 
        "__lr_mult__": "1.0", 
        "__shape__": "(0,)", 
        "__storage_type__": "0", 
        "__wd_mult__": "1.0"
      }, 
      "inputs": []
    }, 
    {
      "op": "null", 
      "name": "cifar10_pydmobilenet56_0.25_plus/stg1/blk5/btl_out/batchnorm0_running_mean", 
      "attrs": {
        "__dtype__": "0", 
        "__init__": "zeros", 
        "__lr_mult__": "1.0", 
        "__shape__": "(0,)", 
        "__storage_type__": "0", 
        "__wd_mult__": "1.0"
      }, 
      "inputs": []
    }, 
    {
      "op": "null", 
      "name": "cifar10_pydmobilenet56_0.25_plus/stg1/blk5/btl_out/batchnorm0_running_var", 
      "attrs": {
        "__dtype__": "0", 
        "__init__": "ones", 
        "__lr_mult__": "1.0", 
        "__shape__": "(0,)", 
        "__storage_type__": "0", 
        "__wd_mult__": "1.0"
      }, 
      "inputs": []
    }, 
    {
      "op": "BatchNorm", 
      "name": "cifar10_pydmobilenet56_0.25_plus/stg1/blk5/btl_out/batchnorm0_fwd", 
      "attrs": {
        "axis": "1", 
        "eps": "1e-05", 
        "fix_gamma": "False", 
        "momentum": "0.9", 
        "use_global_stats": "False"
      }, 
      "inputs": [[432, 0, 0], [433, 0, 0], [434, 0, 0], [435, 0, 1], [436, 0, 1]]
    }, 
    {
      "op": "Activation", 
      "name": "cifar10_pydmobilenet56_0.25_plus/stg1/blk5/btl_out/relu0_fwd", 
      "attrs": {"act_type": "relu"}, 
      "inputs": [[437, 0, 0]]
    }, 
    {
      "op": "null", 
      "name": "cifar10_pydmobilenet56_0.25_plus/stg1/blk5/btl_out/conv0_weight", 
      "attrs": {
        "__dtype__": "0", 
        "__lr_mult__": "1.0", 
        "__shape__": "(64, 0, 1, 1)", 
        "__storage_type__": "0", 
        "__wd_mult__": "1.0"
      }, 
      "inputs": []
    }, 
    {
      "op": "Convolution", 
      "name": "cifar10_pydmobilenet56_0.25_plus/stg1/blk5/btl_out/conv0_fwd", 
      "attrs": {
        "dilate": "(1, 1)", 
        "kernel": "(1, 1)", 
        "layout": "NCHW", 
        "no_bias": "True", 
        "num_filter": "64", 
        "num_group": "1", 
        "pad": "(0, 0)", 
        "stride": "(1, 1)"
      }, 
      "inputs": [[438, 0, 0], [439, 0, 0]]
    }, 
    {
      "op": "null", 
      "name": "cifar10_pydmobilenet56_0.25_plus/stg1/blk5/btl_out/batchnorm1_gamma", 
      "attrs": {
        "__dtype__": "0", 
        "__init__": "ones", 
        "__lr_mult__": "1.0", 
        "__shape__": "(0,)", 
        "__storage_type__": "0", 
        "__wd_mult__": "1.0"
      }, 
      "inputs": []
    }, 
    {
      "op": "null", 
      "name": "cifar10_pydmobilenet56_0.25_plus/stg1/blk5/btl_out/batchnorm1_beta", 
      "attrs": {
        "__dtype__": "0", 
        "__init__": "zeros", 
        "__lr_mult__": "1.0", 
        "__shape__": "(0,)", 
        "__storage_type__": "0", 
        "__wd_mult__": "1.0"
      }, 
      "inputs": []
    }, 
    {
      "op": "null", 
      "name": "cifar10_pydmobilenet56_0.25_plus/stg1/blk5/btl_out/batchnorm1_running_mean", 
      "attrs": {
        "__dtype__": "0", 
        "__init__": "zeros", 
        "__lr_mult__": "1.0", 
        "__shape__": "(0,)", 
        "__storage_type__": "0", 
        "__wd_mult__": "1.0"
      }, 
      "inputs": []
    }, 
    {
      "op": "null", 
      "name": "cifar10_pydmobilenet56_0.25_plus/stg1/blk5/btl_out/batchnorm1_running_var", 
      "attrs": {
        "__dtype__": "0", 
        "__init__": "ones", 
        "__lr_mult__": "1.0", 
        "__shape__": "(0,)", 
        "__storage_type__": "0", 
        "__wd_mult__": "1.0"
      }, 
      "inputs": []
    }, 
    {
      "op": "BatchNorm", 
      "name": "cifar10_pydmobilenet56_0.25_plus/stg1/blk5/btl_out/batchnorm1_fwd", 
      "attrs": {
        "axis": "1", 
        "eps": "1e-05", 
        "fix_gamma": "False", 
        "momentum": "0.9", 
        "use_global_stats": "False"
      }, 
      "inputs": [[440, 0, 0], [441, 0, 0], [442, 0, 0], [443, 0, 1], [444, 0, 1]]
    }, 
    {
      "op": "elemwise_add", 
      "name": "cifar10_pydmobilenet56_0.25_plus/stg1/blk5/_plus2", 
      "inputs": [[445, 0, 0], [410, 0, 0]]
    }, 
    {
      "op": "null", 
      "name": "cifar10_pydmobilenet56_0.25_plus/stg2/blk0/btl_in/batchnorm0_gamma", 
      "attrs": {
        "__dtype__": "0", 
        "__init__": "ones", 
        "__lr_mult__": "1.0", 
        "__shape__": "(0,)", 
        "__storage_type__": "0", 
        "__wd_mult__": "1.0"
      }, 
      "inputs": []
    }, 
    {
      "op": "null", 
      "name": "cifar10_pydmobilenet56_0.25_plus/stg2/blk0/btl_in/batchnorm0_beta", 
      "attrs": {
        "__dtype__": "0", 
        "__init__": "zeros", 
        "__lr_mult__": "1.0", 
        "__shape__": "(0,)", 
        "__storage_type__": "0", 
        "__wd_mult__": "1.0"
      }, 
      "inputs": []
    }, 
    {
      "op": "null", 
      "name": "cifar10_pydmobilenet56_0.25_plus/stg2/blk0/btl_in/batchnorm0_running_mean", 
      "attrs": {
        "__dtype__": "0", 
        "__init__": "zeros", 
        "__lr_mult__": "1.0", 
        "__shape__": "(0,)", 
        "__storage_type__": "0", 
        "__wd_mult__": "1.0"
      }, 
      "inputs": []
    }, 
    {
      "op": "null", 
      "name": "cifar10_pydmobilenet56_0.25_plus/stg2/blk0/btl_in/batchnorm0_running_var", 
      "attrs": {
        "__dtype__": "0", 
        "__init__": "ones", 
        "__lr_mult__": "1.0", 
        "__shape__": "(0,)", 
        "__storage_type__": "0", 
        "__wd_mult__": "1.0"
      }, 
      "inputs": []
    }, 
    {
      "op": "BatchNorm", 
      "name": "cifar10_pydmobilenet56_0.25_plus/stg2/blk0/btl_in/batchnorm0_fwd", 
      "attrs": {
        "axis": "1", 
        "eps": "1e-05", 
        "fix_gamma": "False", 
        "momentum": "0.9", 
        "use_global_stats": "False"
      }, 
      "inputs": [[446, 0, 0], [447, 0, 0], [448, 0, 0], [449, 0, 1], [450, 0, 1]]
    }, 
    {
      "op": "Activation", 
      "name": "cifar10_pydmobilenet56_0.25_plus/stg2/blk0/btl_in/relu0_fwd", 
      "attrs": {"act_type": "relu"}, 
      "inputs": [[451, 0, 0]]
    }, 
    {
      "op": "null", 
      "name": "cifar10_pydmobilenet56_0.25_plus/stg2/blk0/btl_in/conv0_weight", 
      "attrs": {
        "__dtype__": "0", 
        "__lr_mult__": "1.0", 
        "__shape__": "(32, 0, 1, 1)", 
        "__storage_type__": "0", 
        "__wd_mult__": "1.0"
      }, 
      "inputs": []
    }, 
    {
      "op": "Convolution", 
      "name": "cifar10_pydmobilenet56_0.25_plus/stg2/blk0/btl_in/conv0_fwd", 
      "attrs": {
        "dilate": "(1, 1)", 
        "kernel": "(1, 1)", 
        "layout": "NCHW", 
        "no_bias": "True", 
        "num_filter": "32", 
        "num_group": "1", 
        "pad": "(0, 0)", 
        "stride": "(1, 1)"
      }, 
      "inputs": [[452, 0, 0], [453, 0, 0]]
    }, 
    {
      "op": "null", 
      "name": "cifar10_pydmobilenet56_0.25_plus/stg2/blk0/btl_in/batchnorm1_gamma", 
      "attrs": {
        "__dtype__": "0", 
        "__init__": "ones", 
        "__lr_mult__": "1.0", 
        "__shape__": "(0,)", 
        "__storage_type__": "0", 
        "__wd_mult__": "1.0"
      }, 
      "inputs": []
    }, 
    {
      "op": "null", 
      "name": "cifar10_pydmobilenet56_0.25_plus/stg2/blk0/btl_in/batchnorm1_beta", 
      "attrs": {
        "__dtype__": "0", 
        "__init__": "zeros", 
        "__lr_mult__": "1.0", 
        "__shape__": "(0,)", 
        "__storage_type__": "0", 
        "__wd_mult__": "1.0"
      }, 
      "inputs": []
    }, 
    {
      "op": "null", 
      "name": "cifar10_pydmobilenet56_0.25_plus/stg2/blk0/btl_in/batchnorm1_running_mean", 
      "attrs": {
        "__dtype__": "0", 
        "__init__": "zeros", 
        "__lr_mult__": "1.0", 
        "__shape__": "(0,)", 
        "__storage_type__": "0", 
        "__wd_mult__": "1.0"
      }, 
…
    {
      "op": "null", 
      "name": "cifar10_pydmobilenet56_0.25_plus/stg2/blk2/btl_out/conv0_weight", 
      "attrs": {
        "__dtype__": "0", 
        "__lr_mult__": "1.0", 
        "__shape__": "(128, 0, 1, 1)", 
        "__storage_type__": "0", 
        "__wd_mult__": "1.0"
      }, 
      "inputs": []
    }, 
    {
      "op": "Convolution", 
      "name": "cifar10_pydmobilenet56_0.25_plus/stg2/blk2/btl_out/conv0_fwd", 
      "attrs": {
        "dilate": "(1, 1)", 
        "kernel": "(1, 1)", 
        "layout": "NCHW", 
        "no_bias": "True", 
        "num_filter": "128", 
        "num_group": "1", 
        "pad": "(0, 0)", 
        "stride": "(1, 1)"
      }, 
      "inputs": [[553, 0, 0], [554, 0, 0]]
    }, 
    {
      "op": "null", 
      "name": "cifar10_pydmobilenet56_0.25_plus/stg2/blk2/btl_out/batchnorm1_gamma", 
      "attrs": {
        "__dtype__": "0", 
        "__init__": "ones", 
        "__lr_mult__": "1.0", 
        "__shape__": "(0,)", 
        "__storage_type__": "0", 
        "__wd_mult__": "1.0"
      }, 
      "inputs": []
    }, 
    {
      "op": "null", 
      "name": "cifar10_pydmobilenet56_0.25_plus/stg2/blk2/btl_out/batchnorm1_beta", 
      "attrs": {
        "__dtype__": "0", 
        "__init__": "zeros", 
        "__lr_mult__": "1.0", 
        "__shape__": "(0,)", 
        "__storage_type__": "0", 
        "__wd_mult__": "1.0"
      }, 
      "inputs": []
    }, 
    {
      "op": "null", 
      "name": "cifar10_pydmobilenet56_0.25_plus/stg2/blk2/btl_out/batchnorm1_running_mean", 
      "attrs": {
        "__dtype__": "0", 
        "__init__": "zeros", 
        "__lr_mult__": "1.0", 
        "__shape__": "(0,)", 
        "__storage_type__": "0", 
        "__wd_mult__": "1.0"
      }, 
      "inputs": []
    }, 
    {
      "op": "null", 
      "name": "cifar10_pydmobilenet56_0.25_plus/stg2/blk2/btl_out/batchnorm1_running_var", 
      "attrs": {
        "__dtype__": "0", 
        "__init__": "ones", 
        "__lr_mult__": "1.0", 
        "__shape__": "(0,)", 
        "__storage_type__": "0", 
        "__wd_mult__": "1.0"
      }, 
      "inputs": []
    }, 
    {
      "op": "BatchNorm", 
      "name": "cifar10_pydmobilenet56_0.25_plus/stg2/blk2/btl_out/batchnorm1_fwd", 
      "attrs": {
        "axis": "1", 
        "eps": "1e-05", 
        "fix_gamma": "False", 
        "momentum": "0.9", 
        "use_global_stats": "False"
      }, 
      "inputs": [[555, 0, 0], [556, 0, 0], [557, 0, 0], [558, 0, 1], [559, 0, 1]]
    }, 
    {
      "op": "elemwise_add", 
      "name": "cifar10_pydmobilenet56_0.25_plus/stg2/blk2/_plus2", 
      "inputs": [[560, 0, 0], [525, 0, 0]]
    }, 
    {
      "op": "null", 
      "name": "cifar10_pydmobilenet56_0.25_plus/stg2/blk3/btl_in/batchnorm0_gamma", 
      "attrs": {
        "__dtype__": "0", 
        "__init__": "ones", 
        "__lr_mult__": "1.0", 
        "__shape__": "(0,)", 
        "__storage_type__": "0", 
        "__wd_mult__": "1.0"
      }, 
      "inputs": []
    }, 
    {
      "op": "null", 
      "name": "cifar10_pydmobilenet56_0.25_plus/stg2/blk3/btl_in/batchnorm0_beta", 
      "attrs": {
        "__dtype__": "0", 
        "__init__": "zeros", 
        "__lr_mult__": "1.0", 
        "__shape__": "(0,)", 
        "__storage_type__": "0", 
        "__wd_mult__": "1.0"
      }, 
      "inputs": []
    }, 
    {
      "op": "null", 
      "name": "cifar10_pydmobilenet56_0.25_plus/stg2/blk3/btl_in/batchnorm0_running_mean", 
      "attrs": {
        "__dtype__": "0", 
        "__init__": "zeros", 
        "__lr_mult__": "1.0", 
        "__shape__": "(0,)", 
        "__storage_type__": "0", 
        "__wd_mult__": "1.0"
      }, 
      "inputs": []
    }, 
    {
      "op": "null", 
      "name": "cifar10_pydmobilenet56_0.25_plus/stg2/blk3/btl_in/batchnorm0_running_var", 
      "attrs": {
        "__dtype__": "0", 
        "__init__": "ones", 
        "__lr_mult__": "1.0", 
        "__shape__": "(0,)", 
        "__storage_type__": "0", 
        "__wd_mult__": "1.0"
      }, 
      "inputs": []
    }, 
    {
      "op": "BatchNorm", 
      "name": "cifar10_pydmobilenet56_0.25_plus/stg2/blk3/btl_in/batchnorm0_fwd", 
      "attrs": {
        "axis": "1", 
        "eps": "1e-05", 
        "fix_gamma": "False", 
        "momentum": "0.9", 
        "use_global_stats": "False"
      }, 
      "inputs": [[561, 0, 0], [562, 0, 0], [563, 0, 0], [564, 0, 1], [565, 0, 1]]
    }, 
    {
      "op": "Activation", 
      "name": "cifar10_pydmobilenet56_0.25_plus/stg2/blk3/btl_in/relu0_fwd", 
      "attrs": {"act_type": "relu"}, 
      "inputs": [[566, 0, 0]]
    }, 
    {
      "op": "null", 
      "name": "cifar10_pydmobilenet56_0.25_plus/stg2/blk3/btl_in/conv0_weight", 
      "attrs": {
        "__dtype__": "0", 
        "__lr_mult__": "1.0", 
        "__shape__": "(32, 0, 1, 1)", 
        "__storage_type__": "0", 
        "__wd_mult__": "1.0"
      }, 
      "inputs": []
    }, 
    {
      "op": "Convolution", 
      "name": "cifar10_pydmobilenet56_0.25_plus/stg2/blk3/btl_in/conv0_fwd", 
      "attrs": {
        "dilate": "(1, 1)", 
        "kernel": "(1, 1)", 
        "layout": "NCHW", 
        "no_bias": "True", 
        "num_filter": "32", 
        "num_group": "1", 
        "pad": "(0, 0)", 
        "stride": "(1, 1)"
      }, 
      "inputs": [[567, 0, 0], [568, 0, 0]]
    }, 
    {
      "op": "null", 
      "name": "cifar10_pydmobilenet56_0.25_plus/stg2/blk3/btl_in/batchnorm1_gamma", 
      "attrs": {
        "__dtype__": "0", 
        "__init__": "ones", 
        "__lr_mult__": "1.0", 
        "__shape__": "(0,)", 
        "__storage_type__": "0", 
        "__wd_mult__": "1.0"
      }, 
      "inputs": []
    }, 
    {
      "op": "null", 
      "name": "cifar10_pydmobilenet56_0.25_plus/stg2/blk3/btl_in/batchnorm1_beta", 
      "attrs": {
        "__dtype__": "0", 
        "__init__": "zeros", 
        "__lr_mult__": "1.0", 
        "__shape__": "(0,)", 
        "__storage_type__": "0", 
        "__wd_mult__": "1.0"
      }, 
      "inputs": []
    }, 
    {
      "op": "null", 
      "name": "cifar10_pydmobilenet56_0.25_plus/stg2/blk3/btl_in/batchnorm1_running_mean", 
      "attrs": {
        "__dtype__": "0", 
        "__init__": "zeros", 
        "__lr_mult__": "1.0", 
        "__shape__": "(0,)", 
        "__storage_type__": "0", 
        "__wd_mult__": "1.0"
      }, 
      "inputs": []
    }, 
    {
      "op": "null", 
      "name": "cifar10_pydmobilenet56_0.25_plus/stg2/blk3/btl_in/batchnorm1_running_var", 
      "attrs": {
        "__dtype__": "0", 
        "__init__": "ones", 
        "__lr_mult__": "1.0", 
        "__shape__": "(0,)", 
        "__storage_type__": "0", 
        "__wd_mult__": "1.0"
      }, 
      "inputs": []
    }, 
    {
      "op": "BatchNorm", 
      "name": "cifar10_pydmobilenet56_0.25_plus/stg2/blk3/btl_in/batchnorm1_fwd", 
      "attrs": {
        "axis": "1", 
        "eps": "1e-05", 
        "fix_gamma": "False", 
        "momentum": "0.9", 
        "use_global_stats": "False"
      }, 
      "inputs": [[569, 0, 0], [570, 0, 0], [571, 0, 0], [572, 0, 1], [573, 0, 1]]
    }, 
    {
      "op": "Activation", 
      "name": "cifar10_pydmobilenet56_0.25_plus/stg2/blk3/btl_in/relu1_fwd", 
      "attrs": {"act_type": "relu"}, 
      "inputs": [[574, 0, 0]]
    }, 
    {
      "op": "null", 
      "name": "cifar10_pydmobilenet56_0.25_plus/stg2/blk3/conv3/conv0_weight", 
      "attrs": {
        "__dtype__": "0", 
        "__lr_mult__": "1.0", 
        "__shape__": "(32, 0, 3, 3)", 
        "__storage_type__": "0", 
        "__wd_mult__": "1.0"
      }, 
      "inputs": []
    }, 
    {
      "op": "Convolution", 
      "name": "cifar10_pydmobilenet56_0.25_plus/stg2/blk3/conv3/conv0_fwd", 
      "attrs": {
        "dilate": "(1, 1)", 
        "kernel": "(3, 3)", 
        "layout": "NCHW", 
        "no_bias": "True", 
        "num_filter": "32", 
        "num_group": "32", 
        "pad": "(1, 1)", 
        "stride": "(1, 1)"
      }, 
      "inputs": [[575, 0, 0], [576, 0, 0]]
    }, 
    {
      "op": "null", 
      "name": "cifar10_pydmobilenet56_0.25_plus/stg2/blk3/conv5/conv0_weight", 
      "attrs": {
        "__dtype__": "0", 
        "__lr_mult__": "1.0", 
        "__shape__": "(32, 0, 5, 5)", 
        "__storage_type__": "0", 
        "__wd_mult__": "1.0"
      }, 
      "inputs": []
    }, 
    {
      "op": "Convolution", 
      "name": "cifar10_pydmobilenet56_0.25_plus/stg2/blk3/conv5/conv0_fwd", 
      "attrs": {
        "dilate": "(1, 1)", 
        "kernel": "(5, 5)", 
        "layout": "NCHW", 
        "no_bias": "True", 
        "num_filter": "32", 
        "num_group": "32", 
        "pad": "(2, 2)", 
        "stride": "(1, 1)"
      }, 
      "inputs": [[575, 0, 0], [578, 0, 0]]
    }, 
    {
      "op": "elemwise_add", 
      "name": "cifar10_pydmobilenet56_0.25_plus/stg2/blk3/_plus0", 
      "inputs": [[577, 0, 0], [579, 0, 0]]
    }, 
    {
      "op": "null", 
      "name": "cifar10_pydmobilenet56_0.25_plus/stg2/blk3/conv7/conv0_weight", 
      "attrs": {
        "__dtype__": "0", 
        "__lr_mult__": "1.0", 
        "__shape__": "(32, 0, 7, 7)", 
        "__storage_type__": "0", 
        "__wd_mult__": "1.0"
      }, 
      "inputs": []
    }, 
    {
      "op": "Convolution", 
      "name": "cifar10_pydmobilenet56_0.25_plus/stg2/blk3/conv7/conv0_fwd", 
      "attrs": {
        "dilate": "(1, 1)", 
        "kernel": "(7, 7)", 
        "layout": "NCHW", 
        "no_bias": "True", 
        "num_filter": "32", 
        "num_group": "32", 
        "pad": "(3, 3)", 
        "stride": "(1, 1)"
      }, 
      "inputs": [[575, 0, 0], [581, 0, 0]]
    }, 
    {
      "op": "elemwise_add", 
      "name": "cifar10_pydmobilenet56_0.25_plus/stg2/blk3/_plus1", 
      "inputs": [[580, 0, 0], [582, 0, 0]]
    }, 
    {
      "op": "null", 
      "name": "cifar10_pydmobilenet56_0.25_plus/stg2/blk3/btl_out/batchnorm0_gamma", 
      "attrs": {
        "__dtype__": "0", 
        "__init__": "ones", 
        "__lr_mult__": "1.0", 
        "__shape__": "(0,)", 
        "__storage_type__": "0", 
        "__wd_mult__": "1.0"
      }, 
      "inputs": []
    }, 
    {
      "op": "null", 
      "name": "cifar10_pydmobilenet56_0.25_plus/stg2/blk3/btl_out/batchnorm0_beta", 
      "attrs": {
        "__dtype__": "0", 
        "__init__": "zeros", 
        "__lr_mult__": "1.0", 
        "__shape__": "(0,)", 
        "__storage_type__": "0", 
        "__wd_mult__": "1.0"
      }, 
      "inputs": []
    }, 
    {
      "op": "null", 
      "name": "cifar10_pydmobilenet56_0.25_plus/stg2/blk3/btl_out/batchnorm0_running_mean", 
      "attrs": {
        "__dtype__": "0", 
        "__init__": "zeros", 
        "__lr_mult__": "1.0", 
        "__shape__": "(0,)", 
        "__storage_type__": "0", 
        "__wd_mult__": "1.0"
      }, 
      "inputs": []
    }, 
    {
      "op": "null", 
      "name": "cifar10_pydmobilenet56_0.25_plus/stg2/blk3/btl_out/batchnorm0_running_var", 
      "attrs": {
        "__dtype__": "0", 
        "__init__": "ones", 
        "__lr_mult__": "1.0", 
        "__shape__": "(0,)", 
        "__storage_type__": "0", 
        "__wd_mult__": "1.0"
      }, 
      "inputs": []
    }, 
    {
      "op": "BatchNorm", 
      "name": "cifar10_pydmobilenet56_0.25_plus/stg2/blk3/btl_out/batchnorm0_fwd", 
      "attrs": {
        "axis": "1", 
        "eps": "1e-05", 
        "fix_gamma": "False", 
        "momentum": "0.9", 
        "use_global_stats": "False"
      }, 
      "inputs": [[583, 0, 0], [584, 0, 0], [585, 0, 0], [586, 0, 1], [587, 0, 1]]
    }, 
    {
      "op": "Activation", 
      "name": "cifar10_pydmobilenet56_0.25_plus/stg2/blk3/btl_out/relu0_fwd", 
      "attrs": {"act_type": "relu"}, 
      "inputs": [[588, 0, 0]]
    }, 
    {
      "op": "null", 
      "name": "cifar10_pydmobilenet56_0.25_plus/stg2/blk3/btl_out/conv0_weight", 
      "attrs": {
        "__dtype__": "0", 
        "__lr_mult__": "1.0", 
        "__shape__": "(128, 0, 1, 1)", 
        "__storage_type__": "0", 
        "__wd_mult__": "1.0"
      }, 
      "inputs": []
    }, 
    {
      "op": "Convolution", 
      "name": "cifar10_pydmobilenet56_0.25_plus/stg2/blk3/btl_out/conv0_fwd", 
      "attrs": {
        "dilate": "(1, 1)", 
        "kernel": "(1, 1)", 
        "layout": "NCHW", 
        "no_bias": "True", 
        "num_filter": "128", 
        "num_group": "1", 
        "pad": "(0, 0)", 
        "stride": "(1, 1)"
      }, 
      "inputs": [[589, 0, 0], [590, 0, 0]]
    }, 
    {
      "op": "null", 
      "name": "cifar10_pydmobilenet56_0.25_plus/stg2/blk3/btl_out/batchnorm1_gamma", 
      "attrs": {
        "__dtype__": "0", 
        "__init__": "ones", 
        "__lr_mult__": "1.0", 
        "__shape__": "(0,)", 
        "__storage_type__": "0", 
        "__wd_mult__": "1.0"
      }, 
      "inputs": []
    }, 
    {
      "op": "null", 
      "name": "cifar10_pydmobilenet56_0.25_plus/stg2/blk3/btl_out/batchnorm1_beta", 
      "attrs": {
        "__dtype__": "0", 
        "__init__": "zeros", 
        "__lr_mult__": "1.0", 
        "__shape__": "(0,)", 
        "__storage_type__": "0", 
        "__wd_mult__": "1.0"
      }, 
      "inputs": []
    }, 
    {
      "op": "null", 
      "name": "cifar10_pydmobilenet56_0.25_plus/stg2/blk3/btl_out/batchnorm1_running_mean", 
      "attrs": {
        "__dtype__": "0", 
        "__init__": "zeros", 
        "__lr_mult__": "1.0", 
        "__shape__": "(0,)", 
        "__storage_type__": "0", 
        "__wd_mult__": "1.0"
      }, 
      "inputs": []
    }, 
    {
      "op": "null", 
      "name": "cifar10_pydmobilenet56_0.25_plus/stg2/blk3/btl_out/batchnorm1_running_var", 
      "attrs": {
        "__dtype__": "0", 
        "__init__": "ones", 
        "__lr_mult__": "1.0", 
        "__shape__": "(0,)", 
        "__storage_type__": "0", 
        "__wd_mult__": "1.0"
      }, 
      "inputs": []
    }, 
    {
      "op": "BatchNorm", 
      "name": "cifar10_pydmobilenet56_0.25_plus/stg2/blk3/btl_out/batchnorm1_fwd", 
      "attrs": {
        "axis": "1", 
        "eps": "1e-05", 
        "fix_gamma": "False", 
        "momentum": "0.9", 
        "use_global_stats": "False"
      }, 
      "inputs": [[591, 0, 0], [592, 0, 0], [593, 0, 0], [594, 0, 1], [595, 0, 1]]
    }, 
    {
      "op": "elemwise_add", 
      "name": "cifar10_pydmobilenet56_0.25_plus/stg2/blk3/_plus2", 
      "inputs": [[596, 0, 0], [561, 0, 0]]
    }, 
    {
      "op": "null", 
      "name": "cifar10_pydmobilenet56_0.25_plus/stg2/blk4/btl_in/batchnorm0_gamma", 
      "attrs": {
        "__dtype__": "0", 
        "__init__": "ones", 
        "__lr_mult__": "1.0", 
        "__shape__": "(0,)", 
        "__storage_type__": "0", 
        "__wd_mult__": "1.0"
      }, 
      "inputs": []
    }, 
    {
      "op": "null", 
      "name": "cifar10_pydmobilenet56_0.25_plus/stg2/blk4/btl_in/batchnorm0_beta", 
      "attrs": {
        "__dtype__": "0", 
        "__init__": "zeros", 
        "__lr_mult__": "1.0", 
        "__shape__": "(0,)", 
        "__storage_type__": "0", 
        "__wd_mult__": "1.0"
      }, 
      "inputs": []
    }, 
    {
      "op": "null", 
      "name": "cifar10_pydmobilenet56_0.25_plus/stg2/blk4/btl_in/batchnorm0_running_mean", 
      "attrs": {
        "__dtype__": "0", 
        "__init__": "zeros", 
        "__lr_mult__": "1.0", 
        "__shape__": "(0,)", 
        "__storage_type__": "0", 
        "__wd_mult__": "1.0"
      }, 
      "inputs": []
    }, 
    {
      "op": "null", 
      "name": "cifar10_pydmobilenet56_0.25_plus/stg2/blk4/btl_in/batchnorm0_running_var", 
      "attrs": {
        "__dtype__": "0", 
        "__init__": "ones", 
        "__lr_mult__": "1.0", 
        "__shape__": "(0,)", 
        "__storage_type__": "0", 
        "__wd_mult__": "1.0"
      }, 
      "inputs": []
    }, 
    {
      "op": "BatchNorm", 
      "name": "cifar10_pydmobilenet56_0.25_plus/stg2/blk4/btl_in/batchnorm0_fwd", 
      "attrs": {
        "axis": "1", 
        "eps": "1e-05", 
        "fix_gamma": "False", 
        "momentum": "0.9", 
        "use_global_stats": "False"
      }, 
      "inputs": [[597, 0, 0], [598, 0, 0], [599, 0, 0], [600, 0, 1], [601, 0, 1]]
    }, 
    {
      "op": "Activation", 
      "name": "cifar10_pydmobilenet56_0.25_plus/stg2/blk4/btl_in/relu0_fwd", 
      "attrs": {"act_type": "relu"}, 
      "inputs": [[602, 0, 0]]
    }, 
    {
      "op": "null", 
      "name": "cifar10_pydmobilenet56_0.25_plus/stg2/blk4/btl_in/conv0_weight", 
      "attrs": {
        "__dtype__": "0", 
        "__lr_mult__": "1.0", 
        "__shape__": "(32, 0, 1, 1)", 
        "__storage_type__": "0", 
        "__wd_mult__": "1.0"
      }, 
      "inputs": []
    }, 
    {
      "op": "Convolution", 
      "name": "cifar10_pydmobilenet56_0.25_plus/stg2/blk4/btl_in/conv0_fwd", 
      "attrs": {
        "dilate": "(1, 1)", 
        "kernel": "(1, 1)", 
        "layout": "NCHW", 
        "no_bias": "True", 
        "num_filter": "32", 
        "num_group": "1", 
        "pad": "(0, 0)", 
        "stride": "(1, 1)"
      }, 
      "inputs": [[603, 0, 0], [604, 0, 0]]
    }, 
    {
      "op": "null", 
      "name": "cifar10_pydmobilenet56_0.25_plus/stg2/blk4/btl_in/batchnorm1_gamma", 
      "attrs": {
        "__dtype__": "0", 
        "__init__": "ones", 
        "__lr_mult__": "1.0", 
        "__shape__": "(0,)", 
        "__storage_type__": "0", 
        "__wd_mult__": "1.0"
      }, 
      "inputs": []
    }, 
    {
      "op": "null", 
      "name": "cifar10_pydmobilenet56_0.25_plus/stg2/blk4/btl_in/batchnorm1_beta", 
      "attrs": {
        "__dtype__": "0", 
        "__init__": "zeros", 
        "__lr_mult__": "1.0", 
        "__shape__": "(0,)", 
        "__storage_type__": "0", 
        "__wd_mult__": "1.0"
      }, 
      "inputs": []
    }, 
    {
      "op": "null", 
      "name": "cifar10_pydmobilenet56_0.25_plus/stg2/blk4/btl_in/batchnorm1_running_mean", 
      "attrs": {
        "__dtype__": "0", 
        "__init__": "zeros", 
        "__lr_mult__": "1.0", 
        "__shape__": "(0,)", 
        "__storage_type__": "0", 
        "__wd_mult__": "1.0"
      }, 
      "inputs": []
    }, 
    {
      "op": "null", 
      "name": "cifar10_pydmobilenet56_0.25_plus/stg2/blk4/btl_in/batchnorm1_running_var", 
      "attrs": {
        "__dtype__": "0", 
        "__init__": "ones", 
        "__lr_mult__": "1.0", 
        "__shape__": "(0,)", 
        "__storage_type__": "0", 
        "__wd_mult__": "1.0"
      }, 
      "inputs": []
    }, 
    {
      "op": "BatchNorm", 
      "name": "cifar10_pydmobilenet56_0.25_plus/stg2/blk4/btl_in/batchnorm1_fwd", 
      "attrs": {
        "axis": "1", 
        "eps": "1e-05", 
        "fix_gamma": "False", 
        "momentum": "0.9", 
        "use_global_stats": "False"
      }, 
      "inputs": [[605, 0, 0], [606, 0, 0], [607, 0, 0], [608, 0, 1], [609, 0, 1]]
    }, 
    {
      "op": "Activation", 
      "name": "cifar10_pydmobilenet56_0.25_plus/stg2/blk4/btl_in/relu1_fwd", 
      "attrs": {"act_type": "relu"}, 
      "inputs": [[610, 0, 0]]
    }, 
    {
      "op": "null", 
      "name": "cifar10_pydmobilenet56_0.25_plus/stg2/blk4/conv3/conv0_weight", 
      "attrs": {
        "__dtype__": "0", 
        "__lr_mult__": "1.0", 
        "__shape__": "(32, 0, 3, 3)", 
        "__storage_type__": "0", 
        "__wd_mult__": "1.0"
      }, 
      "inputs": []
    }, 
    {
      "op": "Convolution", 
      "name": "cifar10_pydmobilenet56_0.25_plus/stg2/blk4/conv3/conv0_fwd", 
      "attrs": {
        "dilate": "(1, 1)", 
        "kernel": "(3, 3)", 
        "layout": "NCHW", 
        "no_bias": "True", 
        "num_filter": "32", 
        "num_group": "32", 
        "pad": "(1, 1)", 
        "stride": "(1, 1)"
      }, 
      "inputs": [[611, 0, 0], [612, 0, 0]]
    }, 
    {
      "op": "null", 
      "name": "cifar10_pydmobilenet56_0.25_plus/stg2/blk4/conv5/conv0_weight", 
      "attrs": {
        "__dtype__": "0", 
        "__lr_mult__": "1.0", 
        "__shape__": "(32, 0, 5, 5)", 
        "__storage_type__": "0", 
        "__wd_mult__": "1.0"
      }, 
      "inputs": []
    }, 
    {
      "op": "Convolution", 
      "name": "cifar10_pydmobilenet56_0.25_plus/stg2/blk4/conv5/conv0_fwd", 
      "attrs": {
        "dilate": "(1, 1)", 
        "kernel": "(5, 5)", 
        "layout": "NCHW", 
        "no_bias": "True", 
        "num_filter": "32", 
        "num_group": "32", 
        "pad": "(2, 2)", 
        "stride": "(1, 1)"
      }, 
      "inputs": [[611, 0, 0], [614, 0, 0]]
    }, 
    {
      "op": "elemwise_add", 
      "name": "cifar10_pydmobilenet56_0.25_plus/stg2/blk4/_plus0", 
      "inputs": [[613, 0, 0], [615, 0, 0]]
    }, 
    {
      "op": "null", 
      "name": "cifar10_pydmobilenet56_0.25_plus/stg2/blk4/conv7/conv0_weight", 
      "attrs": {
        "__dtype__": "0", 
        "__lr_mult__": "1.0", 
        "__shape__": "(32, 0, 7, 7)", 
        "__storage_type__": "0", 
        "__wd_mult__": "1.0"
      }, 
      "inputs": []
    }, 
    {
      "op": "Convolution", 
      "name": "cifar10_pydmobilenet56_0.25_plus/stg2/blk4/conv7/conv0_fwd", 
      "attrs": {
        "dilate": "(1, 1)", 
        "kernel": "(7, 7)", 
        "layout": "NCHW", 
        "no_bias": "True", 
        "num_filter": "32", 
        "num_group": "32", 
        "pad": "(3, 3)", 
        "stride": "(1, 1)"
      }, 
      "inputs": [[611, 0, 0], [617, 0, 0]]
    }, 
    {
      "op": "elemwise_add", 
      "name": "cifar10_pydmobilenet56_0.25_plus/stg2/blk4/_plus1", 
      "inputs": [[616, 0, 0], [618, 0, 0]]
    }, 
    {
      "op": "null", 
      "name": "cifar10_pydmobilenet56_0.25_plus/stg2/blk4/btl_out/batchnorm0_gamma", 
      "attrs": {
        "__dtype__": "0", 
        "__init__": "ones", 
        "__lr_mult__": "1.0", 
        "__shape__": "(0,)", 
        "__storage_type__": "0", 
        "__wd_mult__": "1.0"
      }, 
      "inputs": []
    }, 
    {
      "op": "null", 
      "name": "cifar10_pydmobilenet56_0.25_plus/stg2/blk4/btl_out/batchnorm0_beta", 
      "attrs": {
        "__dtype__": "0", 
        "__init__": "zeros", 
        "__lr_mult__": "1.0", 
        "__shape__": "(0,)", 
        "__storage_type__": "0", 
        "__wd_mult__": "1.0"
      }, 
      "inputs": []
    }, 
    {
      "op": "null", 
      "name": "cifar10_pydmobilenet56_0.25_plus/stg2/blk4/btl_out/batchnorm0_running_mean", 
      "attrs": {
        "__dtype__": "0", 
        "__init__": "zeros", 
        "__lr_mult__": "1.0", 
        "__shape__": "(0,)", 
        "__storage_type__": "0", 
        "__wd_mult__": "1.0"
      }, 
      "inputs": []
    }, 
    {
      "op": "null", 
      "name": "cifar10_pydmobilenet56_0.25_plus/stg2/blk4/btl_out/batchnorm0_running_var", 
      "attrs": {
        "__dtype__": "0", 
        "__init__": "ones", 
        "__lr_mult__": "1.0", 
        "__shape__": "(0,)", 
        "__storage_type__": "0", 
        "__wd_mult__": "1.0"
      }, 
      "inputs": []
    }, 
    {
      "op": "BatchNorm", 
      "name": "cifar10_pydmobilenet56_0.25_plus/stg2/blk4/btl_out/batchnorm0_fwd", 
      "attrs": {
        "axis": "1", 
        "eps": "1e-05", 
        "fix_gamma": "False", 
        "momentum": "0.9", 
        "use_global_stats": "False"
      }, 
      "inputs": [[619, 0, 0], [620, 0, 0], [621, 0, 0], [622, 0, 1], [623, 0, 1]]
    }, 
    {
      "op": "Activation", 
      "name": "cifar10_pydmobilenet56_0.25_plus/stg2/blk4/btl_out/relu0_fwd", 
      "attrs": {"act_type": "relu"}, 
      "inputs": [[624, 0, 0]]
    }, 
    {
      "op": "null", 
      "name": "cifar10_pydmobilenet56_0.25_plus/stg2/blk4/btl_out/conv0_weight", 
      "attrs": {
        "__dtype__": "0", 
        "__lr_mult__": "1.0", 
        "__shape__": "(128, 0, 1, 1)", 
        "__storage_type__": "0", 
        "__wd_mult__": "1.0"
      }, 
      "inputs": []
    }, 
    {
      "op": "Convolution", 
      "name": "cifar10_pydmobilenet56_0.25_plus/stg2/blk4/btl_out/conv0_fwd", 
      "attrs": {
        "dilate": "(1, 1)", 
        "kernel": "(1, 1)", 
        "layout": "NCHW", 
        "no_bias": "True", 
        "num_filter": "128", 
        "num_group": "1", 
        "pad": "(0, 0)", 
        "stride": "(1, 1)"
      }, 
      "inputs": [[625, 0, 0], [626, 0, 0]]
    }, 
    {
      "op": "null", 
      "name": "cifar10_pydmobilenet56_0.25_plus/stg2/blk4/btl_out/batchnorm1_gamma", 
      "attrs": {
        "__dtype__": "0", 
        "__init__": "ones", 
        "__lr_mult__": "1.0", 
        "__shape__": "(0,)", 
        "__storage_type__": "0", 
        "__wd_mult__": "1.0"
      }, 
      "inputs": []
    }, 
    {
      "op": "null", 
      "name": "cifar10_pydmobilenet56_0.25_plus/stg2/blk4/btl_out/batchnorm1_beta", 
      "attrs": {
        "__dtype__": "0", 
        "__init__": "zeros", 
        "__lr_mult__": "1.0", 
        "__shape__": "(0,)", 
        "__storage_type__": "0", 
        "__wd_mult__": "1.0"
      }, 
      "inputs": []
    }, 
    {
      "op": "null", 
      "name": "cifar10_pydmobilenet56_0.25_plus/stg2/blk4/btl_out/batchnorm1_running_mean", 
      "attrs": {
        "__dtype__": "0", 
        "__init__": "zeros", 
        "__lr_mult__": "1.0", 
        "__shape__": "(0,)", 
        "__storage_type__": "0", 
        "__wd_mult__": "1.0"
      }, 
      "inputs": []
    }, 
    {
      "op": "null", 
      "name": "cifar10_pydmobilenet56_0.25_plus/stg2/blk4/btl_out/batchnorm1_running_var", 
      "attrs": {
        "__dtype__": "0", 
        "__init__": "ones", 
        "__lr_mult__": "1.0", 
        "__shape__": "(0,)", 
        "__storage_type__": "0", 
        "__wd_mult__": "1.0"
      }, 
      "inputs": []
    }, 
    {
      "op": "BatchNorm", 
      "name": "cifar10_pydmobilenet56_0.25_plus/stg2/blk4/btl_out/batchnorm1_fwd", 
      "attrs": {
        "axis": "1", 
        "eps": "1e-05", 
        "fix_gamma": "False", 
        "momentum": "0.9", 
        "use_global_stats": "False"
      }, 
      "inputs": [[627, 0, 0], [628, 0, 0], [629, 0, 0], [630, 0, 1], [631, 0, 1]]
    }, 
    {
      "op": "elemwise_add", 
      "name": "cifar10_pydmobilenet56_0.25_plus/stg2/blk4/_plus2", 
      "inputs": [[632, 0, 0], [597, 0, 0]]
    }, 
    {
      "op": "null", 
      "name": "cifar10_pydmobilenet56_0.25_plus/stg2/blk5/btl_in/batchnorm0_gamma", 
      "attrs": {
        "__dtype__": "0", 
        "__init__": "ones", 
        "__lr_mult__": "1.0", 
        "__shape__": "(0,)", 
        "__storage_type__": "0", 
        "__wd_mult__": "1.0"
      }, 
      "inputs": []
    }, 
    {
      "op": "null", 
      "name": "cifar10_pydmobilenet56_0.25_plus/stg2/blk5/btl_in/batchnorm0_beta", 
      "attrs": {
        "__dtype__": "0", 
        "__init__": "zeros", 
        "__lr_mult__": "1.0", 
        "__shape__": "(0,)", 
        "__storage_type__": "0", 
        "__wd_mult__": "1.0"
      }, 
      "inputs": []
    }, 
    {
      "op": "null", 
      "name": "cifar10_pydmobilenet56_0.25_plus/stg2/blk5/btl_in/batchnorm0_running_mean", 
      "attrs": {
        "__dtype__": "0", 
        "__init__": "zeros", 
        "__lr_mult__": "1.0", 
        "__shape__": "(0,)", 
        "__storage_type__": "0", 
        "__wd_mult__": "1.0"
      }, 
      "inputs": []
    }, 
    {
      "op": "null", 
      "name": "cifar10_pydmobilenet56_0.25_plus/stg2/blk5/btl_in/batchnorm0_running_var", 
      "attrs": {
        "__dtype__": "0", 
        "__init__": "ones", 
        "__lr_mult__": "1.0", 
        "__shape__": "(0,)", 
        "__storage_type__": "0", 
        "__wd_mult__": "1.0"
      }, 
      "inputs": []
    }, 
    {
      "op": "BatchNorm", 
      "name": "cifar10_pydmobilenet56_0.25_plus/stg2/blk5/btl_in/batchnorm0_fwd", 
      "attrs": {
        "axis": "1", 
        "eps": "1e-05", 
        "fix_gamma": "False", 
        "momentum": "0.9", 
        "use_global_stats": "False"
      }, 
      "inputs": [[633, 0, 0], [634, 0, 0], [635, 0, 0], [636, 0, 1], [637, 0, 1]]
    }, 
    {
      "op": "Activation", 
      "name": "cifar10_pydmobilenet56_0.25_plus/stg2/blk5/btl_in/relu0_fwd", 
      "attrs": {"act_type": "relu"}, 
      "inputs": [[638, 0, 0]]
    }, 
    {
      "op": "null", 
      "name": "cifar10_pydmobilenet56_0.25_plus/stg2/blk5/btl_in/conv0_weight", 
      "attrs": {
        "__dtype__": "0", 
        "__lr_mult__": "1.0", 
        "__shape__": "(32, 0, 1, 1)", 
        "__storage_type__": "0", 
        "__wd_mult__": "1.0"
      }, 
      "inputs": []
    }, 
    {
      "op": "Convolution", 
      "name": "cifar10_pydmobilenet56_0.25_plus/stg2/blk5/btl_in/conv0_fwd", 
      "attrs": {
        "dilate": "(1, 1)", 
        "kernel": "(1, 1)", 
        "layout": "NCHW", 
        "no_bias": "True", 
        "num_filter": "32", 
        "num_group": "1", 
        "pad": "(0, 0)", 
        "stride": "(1, 1)"
      }, 
      "inputs": [[639, 0, 0], [640, 0, 0]]
    }, 
    {
      "op": "null", 
      "name": "cifar10_pydmobilenet56_0.25_plus/stg2/blk5/btl_in/batchnorm1_gamma", 
      "attrs": {
        "__dtype__": "0", 
        "__init__": "ones", 
        "__lr_mult__": "1.0", 
        "__shape__": "(0,)", 
        "__storage_type__": "0", 
        "__wd_mult__": "1.0"
      }, 
      "inputs": []
    }, 
    {
      "op": "null", 
      "name": "cifar10_pydmobilenet56_0.25_plus/stg2/blk5/btl_in/batchnorm1_beta", 
      "attrs": {
        "__dtype__": "0", 
        "__init__": "zeros", 
        "__lr_mult__": "1.0", 
        "__shape__": "(0,)", 
        "__storage_type__": "0", 
        "__wd_mult__": "1.0"
      }, 
      "inputs": []
    }, 
    {
      "op": "null", 
      "name": "cifar10_pydmobilenet56_0.25_plus/stg2/blk5/btl_in/batchnorm1_running_mean", 
      "attrs": {
        "__dtype__": "0", 
        "__init__": "zeros", 
        "__lr_mult__": "1.0", 
        "__shape__": "(0,)", 
        "__storage_type__": "0", 
        "__wd_mult__": "1.0"
      }, 
      "inputs": []
    }, 
    {
      "op": "null", 
      "name": "cifar10_pydmobilenet56_0.25_plus/stg2/blk5/btl_in/batchnorm1_running_var", 
      "attrs": {
        "__dtype__": "0", 
        "__init__": "ones", 
        "__lr_mult__": "1.0", 
        "__shape__": "(0,)", 
        "__storage_type__": "0", 
        "__wd_mult__": "1.0"
      }, 
      "inputs": []
    }, 
    {
      "op": "BatchNorm", 
      "name": "cifar10_pydmobilenet56_0.25_plus/stg2/blk5/btl_in/batchnorm1_fwd", 
      "attrs": {
        "axis": "1", 
        "eps": "1e-05", 
        "fix_gamma": "False", 
        "momentum": "0.9", 
        "use_global_stats": "False"
      }, 
      "inputs": [[641, 0, 0], [642, 0, 0], [643, 0, 0], [644, 0, 1], [645, 0, 1]]
    }, 
    {
      "op": "Activation", 
      "name": "cifar10_pydmobilenet56_0.25_plus/stg2/blk5/btl_in/relu1_fwd", 
      "attrs": {"act_type": "relu"}, 
      "inputs": [[646, 0, 0]]
    }, 
    {
      "op": "null", 
      "name": "cifar10_pydmobilenet56_0.25_plus/stg2/blk5/conv3/conv0_weight", 
      "attrs": {
        "__dtype__": "0", 
        "__lr_mult__": "1.0", 
        "__shape__": "(32, 0, 3, 3)", 
        "__storage_type__": "0", 
        "__wd_mult__": "1.0"
      }, 
      "inputs": []
    }, 
    {
      "op": "Convolution", 
      "name": "cifar10_pydmobilenet56_0.25_plus/stg2/blk5/conv3/conv0_fwd", 
      "attrs": {
        "dilate": "(1, 1)", 
        "kernel": "(3, 3)", 
        "layout": "NCHW", 
        "no_bias": "True", 
        "num_filter": "32", 
        "num_group": "32", 
        "pad": "(1, 1)", 
        "stride": "(1, 1)"
      }, 
      "inputs": [[647, 0, 0], [648, 0, 0]]
    }, 
    {
      "op": "null", 
      "name": "cifar10_pydmobilenet56_0.25_plus/stg2/blk5/conv5/conv0_weight", 
      "attrs": {
        "__dtype__": "0", 
        "__lr_mult__": "1.0", 
        "__shape__": "(32, 0, 5, 5)", 
        "__storage_type__": "0", 
        "__wd_mult__": "1.0"
      }, 
      "inputs": []
    }, 
    {
      "op": "Convolution", 
      "name": "cifar10_pydmobilenet56_0.25_plus/stg2/blk5/conv5/conv0_fwd", 
      "attrs": {
        "dilate": "(1, 1)", 
        "kernel": "(5, 5)", 
        "layout": "NCHW", 
        "no_bias": "True", 
        "num_filter": "32", 
        "num_group": "32", 
        "pad": "(2, 2)", 
        "stride": "(1, 1)"
      }, 
      "inputs": [[647, 0, 0], [650, 0, 0]]
    }, 
    {
      "op": "elemwise_add", 
      "name": "cifar10_pydmobilenet56_0.25_plus/stg2/blk5/_plus0", 
      "inputs": [[649, 0, 0], [651, 0, 0]]
    }, 
    {
      "op": "null", 
      "name": "cifar10_pydmobilenet56_0.25_plus/stg2/blk5/conv7/conv0_weight", 
      "attrs": {
        "__dtype__": "0", 
        "__lr_mult__": "1.0", 
        "__shape__": "(32, 0, 7, 7)", 
        "__storage_type__": "0", 
        "__wd_mult__": "1.0"
      }, 
      "inputs": []
    }, 
    {
      "op": "Convolution", 
      "name": "cifar10_pydmobilenet56_0.25_plus/stg2/blk5/conv7/conv0_fwd", 
      "attrs": {
        "dilate": "(1, 1)", 
        "kernel": "(7, 7)", 
        "layout": "NCHW", 
        "no_bias": "True", 
        "num_filter": "32", 
        "num_group": "32", 
        "pad": "(3, 3)", 
        "stride": "(1, 1)"
      }, 
      "inputs": [[647, 0, 0], [653, 0, 0]]
    }, 
    {
      "op": "elemwise_add", 
      "name": "cifar10_pydmobilenet56_0.25_plus/stg2/blk5/_plus1", 
      "inputs": [[652, 0, 0], [654, 0, 0]]
    }, 
    {
      "op": "null", 
      "name": "cifar10_pydmobilenet56_0.25_plus/stg2/blk5/btl_out/batchnorm0_gamma", 
      "attrs": {
        "__dtype__": "0", 
        "__init__": "ones", 
        "__lr_mult__": "1.0", 
        "__shape__": "(0,)", 
        "__storage_type__": "0", 
        "__wd_mult__": "1.0"
      }, 
      "inputs": []
    }, 
    {
      "op": "null", 
      "name": "cifar10_pydmobilenet56_0.25_plus/stg2/blk5/btl_out/batchnorm0_beta", 
      "attrs": {
        "__dtype__": "0", 
        "__init__": "zeros", 
        "__lr_mult__": "1.0", 
        "__shape__": "(0,)", 
        "__storage_type__": "0", 
        "__wd_mult__": "1.0"
      }, 
      "inputs": []
    }, 
    {
      "op": "null", 
      "name": "cifar10_pydmobilenet56_0.25_plus/stg2/blk5/btl_out/batchnorm0_running_mean", 
      "attrs": {
        "__dtype__": "0", 
        "__init__": "zeros", 
        "__lr_mult__": "1.0", 
        "__shape__": "(0,)", 
        "__storage_type__": "0", 
        "__wd_mult__": "1.0"
      }, 
      "inputs": []
    }, 
    {
      "op": "null", 
      "name": "cifar10_pydmobilenet56_0.25_plus/stg2/blk5/btl_out/batchnorm0_running_var", 
      "attrs": {
        "__dtype__": "0", 
        "__init__": "ones", 
        "__lr_mult__": "1.0", 
        "__shape__": "(0,)", 
        "__storage_type__": "0", 
        "__wd_mult__": "1.0"
      }, 
      "inputs": []
    }, 
    {
      "op": "BatchNorm", 
      "name": "cifar10_pydmobilenet56_0.25_plus/stg2/blk5/btl_out/batchnorm0_fwd", 
      "attrs": {
        "axis": "1", 
        "eps": "1e-05", 
        "fix_gamma": "False", 
        "momentum": "0.9", 
        "use_global_stats": "False"
      }, 
      "inputs": [[655, 0, 0], [656, 0, 0], [657, 0, 0], [658, 0, 1], [659, 0, 1]]
    }, 
    {
      "op": "Activation", 
      "name": "cifar10_pydmobilenet56_0.25_plus/stg2/blk5/btl_out/relu0_fwd", 
      "attrs": {"act_type": "relu"}, 
      "inputs": [[660, 0, 0]]
    }, 
    {
      "op": "null", 
      "name": "cifar10_pydmobilenet56_0.25_plus/stg2/blk5/btl_out/conv0_weight", 
      "attrs": {
        "__dtype__": "0", 
        "__lr_mult__": "1.0", 
        "__shape__": "(128, 0, 1, 1)", 
        "__storage_type__": "0", 
        "__wd_mult__": "1.0"
      }, 
      "inputs": []
    }, 
    {
      "op": "Convolution", 
      "name": "cifar10_pydmobilenet56_0.25_plus/stg2/blk5/btl_out/conv0_fwd", 
      "attrs": {
        "dilate": "(1, 1)", 
        "kernel": "(1, 1)", 
        "layout": "NCHW", 
        "no_bias": "True", 
        "num_filter": "128", 
        "num_group": "1", 
        "pad": "(0, 0)", 
        "stride": "(1, 1)"
      }, 
      "inputs": [[661, 0, 0], [662, 0, 0]]
    }, 
    {
      "op": "null", 
      "name": "cifar10_pydmobilenet56_0.25_plus/stg2/blk5/btl_out/batchnorm1_gamma", 
      "attrs": {
        "__dtype__": "0", 
        "__init__": "ones", 
        "__lr_mult__": "1.0", 
        "__shape__": "(0,)", 
        "__storage_type__": "0", 
        "__wd_mult__": "1.0"
      }, 
      "inputs": []
    }, 
    {
      "op": "null", 
      "name": "cifar10_pydmobilenet56_0.25_plus/stg2/blk5/btl_out/batchnorm1_beta", 
      "attrs": {
        "__dtype__": "0", 
        "__init__": "zeros", 
        "__lr_mult__": "1.0", 
        "__shape__": "(0,)", 
        "__storage_type__": "0", 
        "__wd_mult__": "1.0"
      }, 
      "inputs": []
    }, 
    {
      "op": "null", 
      "name": "cifar10_pydmobilenet56_0.25_plus/stg2/blk5/btl_out/batchnorm1_running_mean", 
      "attrs": {
        "__dtype__": "0", 
        "__init__": "zeros", 
        "__lr_mult__": "1.0", 
        "__shape__": "(0,)", 
        "__storage_type__": "0", 
        "__wd_mult__": "1.0"
      }, 
      "inputs": []
    }, 
    {
      "op": "null", 
      "name": "cifar10_pydmobilenet56_0.25_plus/stg2/blk5/btl_out/batchnorm1_running_var", 
      "attrs": {
        "__dtype__": "0", 
        "__init__": "ones", 
        "__lr_mult__": "1.0", 
        "__shape__": "(0,)", 
        "__storage_type__": "0", 
        "__wd_mult__": "1.0"
      }, 
      "inputs": []
    }, 
    {
      "op": "BatchNorm", 
      "name": "cifar10_pydmobilenet56_0.25_plus/stg2/blk5/btl_out/batchnorm1_fwd", 
      "attrs": {
        "axis": "1", 
        "eps": "1e-05", 
        "fix_gamma": "False", 
        "momentum": "0.9", 
        "use_global_stats": "False"
      }, 
      "inputs": [[663, 0, 0], [664, 0, 0], [665, 0, 0], [666, 0, 1], [667, 0, 1]]
    }, 
    {
      "op": "elemwise_add", 
      "name": "cifar10_pydmobilenet56_0.25_plus/stg2/blk5/_plus2", 
      "inputs": [[668, 0, 0], [633, 0, 0]]
    }, 
    {
      "op": "Pooling", 
      "name": "cifar10_pydmobilenet56_0.25_plus/classifier/pool0_fwd", 
      "attrs": {
        "global_pool": "True", 
        "kernel": "(1, 1)", 
        "pad": "(0, 0)", 
        "pool_type": "avg", 
        "pooling_convention": "full", 
        "stride": "(1, 1)"
      }, 
      "inputs": [[669, 0, 0]]
    }, 
    {
      "op": "null", 
      "name": "cifar10_pydmobilenet56_0.25_plus/classifier/dense0_weight", 
      "attrs": {
        "__dtype__": "0", 
        "__lr_mult__": "1.0", 
        "__shape__": "(10, 0)", 
        "__storage_type__": "0", 
        "__wd_mult__": "1.0"
      }, 
      "inputs": []
    }, 
    {
      "op": "null", 
      "name": "cifar10_pydmobilenet56_0.25_plus/classifier/dense0_bias", 
      "attrs": {
        "__dtype__": "0", 
        "__init__": "zeros", 
        "__lr_mult__": "1.0", 
        "__shape__": "(10,)", 
        "__storage_type__": "0", 
        "__wd_mult__": "1.0"
      }, 
      "inputs": []
    }, 
    {
      "op": "FullyConnected", 
      "name": "cifar10_pydmobilenet56_0.25_plus/classifier/dense0_fwd", 
      "attrs": {
        "flatten": "True", 
        "no_bias": "False", 
        "num_hidden": "10"
      }, 
      "inputs": [[670, 0, 0], [671, 0, 0], [672, 0, 0]]
    }
  ], 
  "arg_nodes": [
    0, 
    1, 
    2, 
    3, 
    4, 
    6, 
    8, 
    9, 
    10, 
    11, 
    14, 
    16, 
    17, 
    18, 
    19, 
    22, 
    24, 
    27, 
    30, 
    31, 
    32, 
    33, 
    36, 
    38, 
    39, 
    40, 
    41, 
    44, 
    45, 
    46, 
    47, 
    50, 
    52, 
    53, 
    54, 
    55, 
    58, 
    60, 
    63, 
    66, 
    67, 
    68, 
    69, 
    72, 
    74, 
    75, 
    76, 
    77, 
    80, 
    81, 
    82, 
    83, 
    86, 
    88, 
    89, 
    90, 
    91, 
    94, 
    96, 
    99, 
    102, 
    103, 
    104, 
    105, 
    108, 
    110, 
    111, 
    112, 
    113, 
    116, 
    117, 
    118, 
    119, 
    122, 
    124, 
    125, 
    126, 
    127, 
    130, 
    132, 
    135, 
    138, 
    139, 
    140, 
    141, 
    144, 
    146, 
    147, 
    148, 
    149, 
    152, 
    153, 
    154, 
    155, 
    158, 
    160, 
    161, 
    162, 
    163, 
    166, 
    168, 
    171, 
    174, 
    175, 
    176, 
    177, 
    180, 
    182, 
    183, 
    184, 
    185, 
    188, 
    189, 
    190, 
    191, 
    194, 
    196, 
    197, 
    198, 
    199, 
    202, 
    204, 
    207, 
    210, 
    211, 
    212, 
    213, 
    216, 
    218, 
    219, 
    220, 
    221, 
    224, 
    225, 
    226, 
    227, 
    230, 
    232, 
    233, 
    234, 
    235, 
    238, 
    240, 
    243, 
    246, 
    247, 
    248, 
    249, 
    252, 
    254, 
    255, 
    256, 
    257, 
    259, 
    261, 
    262, 
    263, 
    264, 
    267, 
    268, 
    269, 
    270, 
    273, 
    275, 
    276, 
    277, 
    278, 
    281, 
    283, 
    286, 
    289, 
    290, 
    291, 
    292, 
    295, 
    297, 
    298, 
    299, 
    300, 
    303, 
    304, 
    305, 
    306, 
    309, 
    311, 
    312, 
    313, 
    314, 
    317, 
    319, 
    322, 
    325, 
    326, 
    327, 
    328, 
    331, 
    333, 
    334, 
    335, 
    336, 
    339, 
    340, 
    341, 
    342, 
    345, 
    347, 
    348, 
    349, 
    350, 
    353, 
    355, 
    358, 
    361, 
    362, 
    363, 
    364, 
    367, 
    369, 
    370, 
    371, 
    372, 
    375, 
    376, 
    377, 
    378, 
    381, 
    383, 
    384, 
    385, 
    386, 
    389, 
    391, 
    394, 
    397, 
    398, 
    399, 
    400, 
    403, 
    405, 
    406, 
    407, 
    408, 
    411, 
    412, 
    413, 
    414, 
    417, 
    419, 
    420, 
    421, 
    422, 
    425, 
    427, 
    430, 
    433, 
    434, 
    435, 
    436, 
    439, 
    441, 
    442, 
    443, 
    444, 
    447, 
    448, 
    449, 
    450, 
    453, 
    455, 
    456, 
    457, 
    458, 
    461, 
    463, 
    466, 
    469, 
    470, 
    471, 
    472, 
    475, 
    477, 
    478, 
    479, 
    480, 
    482, 
    484, 
    485, 
    486, 
    487, 
    490, 
    491, 
    492, 
    493, 
    496, 
    498, 
    499, 
    500, 
    501, 
    504, 
    506, 
    509, 
    512, 
    513, 
    514, 
    515, 
    518, 
    520, 
    521, 
    522, 
    523, 
    526, 
    527, 
    528, 
    529, 
    532, 
    534, 
    535, 
    536, 
    537, 
    540, 
    542, 
    545, 
    548, 
    549, 
    550, 
    551, 
    554, 
    556, 
    557, 
    558, 
    559, 
    562, 
    563, 
    564, 
    565, 
    568, 
    570, 
    571, 
    572, 
    573, 
    576, 
    578, 
    581, 
    584, 
    585, 
    586, 
    587, 
    590, 
    592, 
    593, 
    594, 
    595, 
    598, 
    599, 
    600, 
    601, 
    604, 
    606, 
    607, 
    608, 
    609, 
    612, 
    614, 
    617, 
    620, 
    621, 
    622, 
    623, 
    626, 
    628, 
    629, 
    630, 
    631, 
    634, 
    635, 
    636, 
    637, 
    640, 
    642, 
    643, 
    644, 
    645, 
    648, 
    650, 
    653, 
    656, 
    657, 
    658, 
    659, 
    662, 
    664, 
    665, 
    666, 
    667, 
    671, 
    672
  ], 
  "node_row_ptr": [
    0, 
    1, 
    2, 
    3, 
    4, 
    5, 
    8, 
    9, 
    10, 
    11, 
    12, 
    13, 
    14, 
    17, 
    18, 
    19, 
    20, 
    21, 
    22, 
    23, 
    24, 
    27, 
    28, 
    29, 
    30, 
    31, 
    32, 
    33, 
    34, 
    35, 
    36, 
    37, 
    38, 
    39, 
    40, 
    43, 
    44, 
    45, 
    46, 
    47, 
    48, 
    49, 
    50, 
    53, 
    54, 
    55, 
    56, 
    57, 
    58, 
    61, 
    62, 
    63, 
    64, 
    65, 
    66, 
    67, 
    68, 
    71, 
    72, 
    73, 
    74, 
    75, 
    76, 
    77, 
    78, 
    79, 
    80, 
    81, 
    82, 
    83, 
    84, 
    87, 
    88, 
    89, 
    90, 
    91, 
    92, 
    93, 
    94, 
    97, 
    98, 
    99, 
    100, 
    101, 
    102, 
    105, 
    106, 
    107, 
    108, 
    109, 
    110, 
    111, 
    112, 
    115, 
    116, 
    117, 
    118, 
    119, 
    120, 
    121, 
    122, 
    123, 
    124, 
    125, 
    126, 
    127, 
    128, 
    131, 
    132, 
    133, 
    134, 
    135, 
    136, 
    137, 
    138, 
    141, 
    142, 
    143, 
    144, 
    145, 
    146, 
    149, 
    150, 
    151, 
    152, 
    153, 
    154, 
    155, 
    156, 
    159, 
    160, 
    161, 
    162, 
    163, 
    164, 
    165, 
    166, 
    167, 
    168, 
    169, 
    170, 
    171, 
    172, 
    175, 
    176, 
    177, 
    178, 
    179, 
    180, 
    181, 
    182, 
    185, 
    186, 
    187, 
    188, 
    189, 
    190, 
    193, 
    194, 
    195, 
    196, 
    197, 
    198, 
    199, 
    200, 
    203, 
    204, 
    205, 
    206, 
    207, 
    208, 
    209, 
    210, 
    211, 
    212, 
    213, 
    214, 
    215, 
    216, 
    219, 
    220, 
    221, 
    222, 
    223, 
    224, 
    225, 
    226, 
    229, 
    230, 
    231, 
    232, 
    233, 
    234, 
    237, 
    238, 
    239, 
    240, 
    241, 
    242, 
    243, 
    244, 
    247, 
    248, 
    249, 
    250, 
    251, 
    252, 
    253, 
    254, 
    255, 
    256, 
    257, 
    258, 
    259, 
    260, 
    263, 
    264, 
    265, 
    266, 
    267, 
    268, 
    269, 
    270, 
    273, 
    274, 
    275, 
    276, 
    277, 
    278, 
    281, 
    282, 
    283, 
    284, 
    285, 
    286, 
    287, 
    288, 
    291, 
    292, 
    293, 
    294, 
    295, 
    296, 
    297, 
    298, 
    299, 
    300, 
    301, 
    302, 
    303, 
    304, 
    307, 
    308, 
    309, 
    310, 
    311, 
    312, 
    313, 
    314, 
    317, 
    318, 
    319, 
    320, 
    321, 
    322, 
    323, 
    326, 
    327, 
    328, 
    329, 
    330, 
    331, 
    334, 
    335, 
    336, 
    337, 
    338, 
    339, 
    340, 
    341, 
    344, 
    345, 
    346, 
    347, 
    348, 
    349, 
    350, 
    351, 
    352, 
    353, 
    354, 
    355, 
    356, 
    357, 
    360, 
    361, 
    362, 
    363, 
    364, 
    365, 
    366, 
    367, 
    370, 
    371, 
    372, 
    373, 
    374, 
    375, 
    378, 
    379, 
    380, 
    381, 
    382, 
    383, 
    384, 
    385, 
    388, 
    389, 
    390, 
    391, 
    392, 
    393, 
    394, 
    395, 
    396, 
    397, 
    398, 
    399, 
    400, 
    401, 
    404, 
    405, 
    406, 
    407, 
    408, 
    409, 
    410, 
    411, 
    414, 
    415, 
    416, 
    417, 
    418, 
    419, 
    422, 
    423, 
    424, 
    425, 
    426, 
    427, 
    428, 
    429, 
    432, 
    433, 
    434, 
    435, 
    436, 
    437, 
    438, 
    439, 
    440, 
    441, 
    442, 
    443, 
    444, 
    445, 
    448, 
    449, 
    450, 
    451, 
    452, 
    453, 
    454, 
    455, 
    458, 
    459, 
    460, 
    461, 
    462, 
    463, 
    466, 
    467, 
    468, 
    469, 
    470, 
    471, 
    472, 
    473, 
    476, 
    477, 
    478, 
    479, 
    480, 
    481, 
    482, 
    483, 
    484, 
    485, 
    486, 
    487, 
    488, 
    489, 
    492, 
    493, 
    494, 
    495, 
    496, 
    497, 
    498, 
    499, 
    502, 
    503, 
    504, 
    505, 
    506, 
    507, 
    510, 
    511, 
    512, 
    513, 
    514, 
    515, 
    516, 
    517, 
    520, 
    521, 
    522, 
    523, 
    524, 
    525, 
    526, 
    527, 
    528, 
    529, 
    530, 
    531, 
    532, 
    533, 
    536, 
    537, 
    538, 
    539, 
    540, 
    541, 
    542, 
    543, 
    546, 
    547, 
    548, 
    549, 
    550, 
    551, 
    554, 
    555, 
    556, 
    557, 
    558, 
    559, 
    560, 
    561, 
    564, 
    565, 
    566, 
    567, 
    568, 
    569, 
    570, 
    571, 
    572, 
    573, 
    574, 
    575, 
    576, 
    577, 
    580, 
    581, 
    582, 
    583, 
    584, 
    585, 
    586, 
    587, 
    590, 
    591, 
    592, 
    593, 
    594, 
    595, 
    596, 
    599, 
    600, 
    601, 
    602, 
    603, 
    604, 
    607, 
    608, 
    609, 
    610, 
    611, 
    612, 
    613, 
    614, 
    617, 
    618, 
    619, 
    620, 
    621, 
    622, 
    623, 
    624, 
    625, 
    626, 
    627, 
    628, 
    629, 
    630, 
    633, 
    634, 
    635, 
    636, 
    637, 
    638, 
    639, 
    640, 
    643, 
    644, 
    645, 
    646, 
    647, 
    648, 
    651, 
    652, 
    653, 
    654, 
    655, 
    656, 
    657, 
    658, 
    661, 
    662, 
    663, 
    664, 
    665, 
    666, 
    667, 
    668, 
    669, 
    670, 
    671, 
    672, 
    673, 
    674, 
    677, 
    678, 
    679, 
    680, 
    681, 
    682, 
    683, 
    684, 
    687, 
    688, 
    689, 
    690, 
    691, 
    692, 
    695, 
    696, 
    697, 
    698, 
    699, 
    700, 
    701, 
    702, 
    705, 
    706, 
    707, 
    708, 
    709, 
    710, 
    711, 
    712, 
    713, 
    714, 
    715, 
    716, 
    717, 
    718, 
    721, 
    722, 
    723, 
    724, 
    725, 
    726, 
    727, 
    728, 
    731, 
    732, 
    733, 
    734, 
    735, 
    736, 
    739, 
    740, 
    741, 
    742, 
    743, 
    744, 
    745, 
    746, 
    749, 
    750, 
    751, 
    752, 
    753, 
    754, 
    755, 
    756, 
    757, 
    758, 
    759, 
    760, 
    761, 
    762, 
    765, 
    766, 
    767, 
    768, 
    769, 
    770, 
    771, 
    772, 
    775, 
    776, 
    777, 
    778, 
    779, 
    780, 
    783, 
    784, 
    785, 
    786, 
    787, 
    788, 
    789, 
    790, 
    793, 
    794, 
    795, 
    796, 
    797, 
    798, 
    799, 
    800, 
    801, 
    802, 
    803, 
    804, 
    805, 
    806, 
    809, 
    810, 
    811, 
    812, 
    813, 
    814, 
    815, 
    816, 
    819, 
    820, 
    821, 
    822, 
    823, 
    824
  ], 
  "heads": [[673, 0, 0]], 
  "attrs": {"mxnet_version": ["int", 10300]}
}