{
  "nodes": [
    {
      "op": "null", 
      "name": "data", 
      "inputs": []
    }, 
    {
      "op": "null", 
      "name": "cifar10_mobilenet56_0.5/conv0/batchnorm0_gamma", 
      "attrs": {
        "__dtype__": "0", 
        "__init__": "ones", 
        "__lr_mult__": "1.0", 
        "__shape__": "(0,)", 
        "__storage_type__": "0", 
        "__wd_mult__": "1.0"
      }, 
      "inputs": []
    }, 
    {
      "op": "null", 
      "name": "cifar10_mobilenet56_0.5/conv0/batchnorm0_beta", 
      "attrs": {
        "__dtype__": "0", 
        "__init__": "zeros", 
        "__lr_mult__": "1.0", 
        "__shape__": "(0,)", 
        "__storage_type__": "0", 
        "__wd_mult__": "1.0"
      }, 
      "inputs": []
    }, 
    {
      "op": "null", 
      "name": "cifar10_mobilenet56_0.5/conv0/batchnorm0_running_mean", 
      "attrs": {
        "__dtype__": "0", 
        "__init__": "zeros", 
        "__lr_mult__": "1.0", 
        "__shape__": "(0,)", 
        "__storage_type__": "0", 
        "__wd_mult__": "1.0"
      }, 
      "inputs": []
    }, 
    {
      "op": "null", 
      "name": "cifar10_mobilenet56_0.5/conv0/batchnorm0_running_var", 
      "attrs": {
        "__dtype__": "0", 
        "__init__": "ones", 
        "__lr_mult__": "1.0", 
        "__shape__": "(0,)", 
        "__storage_type__": "0", 
        "__wd_mult__": "1.0"
      }, 
      "inputs": []
    }, 
    {
      "op": "BatchNorm", 
      "name": "cifar10_mobilenet56_0.5/conv0/batchnorm0_fwd", 
      "attrs": {
        "axis": "1", 
        "eps": "1e-05", 
        "fix_gamma": "True", 
        "momentum": "0.9", 
        "use_global_stats": "False"
      }, 
      "inputs": [[0, 0, 0], [1, 0, 0], [2, 0, 0], [3, 0, 1], [4, 0, 1]]
    }, 
    {
      "op": "null", 
      "name": "cifar10_mobilenet56_0.5/conv0/conv0_weight", 
      "attrs": {
        "__dtype__": "0", 
        "__lr_mult__": "1.0", 
        "__shape__": "(32, 0, 3, 3)", 
        "__storage_type__": "0", 
        "__wd_mult__": "1.0"
      }, 
      "inputs": []
    }, 
    {
      "op": "Convolution", 
      "name": "cifar10_mobilenet56_0.5/conv0/conv0_fwd", 
      "attrs": {
        "dilate": "(1, 1)", 
        "kernel": "(3, 3)", 
        "layout": "NCHW", 
        "no_bias": "True", 
        "num_filter": "32", 
        "num_group": "1", 
        "pad": "(1, 1)", 
        "stride": "(1, 1)"
      }, 
      "inputs": [[5, 0, 0], [6, 0, 0]]
    }, 
    {
      "op": "null", 
      "name": "cifar10_mobilenet56_0.5/stg0/blk0/body/batchnorm0_gamma", 
      "attrs": {
        "__dtype__": "0", 
        "__init__": "ones", 
        "__lr_mult__": "1.0", 
        "__shape__": "(0,)", 
        "__storage_type__": "0", 
        "__wd_mult__": "1.0"
      }, 
      "inputs": []
    }, 
    {
      "op": "null", 
      "name": "cifar10_mobilenet56_0.5/stg0/blk0/body/batchnorm0_beta", 
      "attrs": {
        "__dtype__": "0", 
        "__init__": "zeros", 
        "__lr_mult__": "1.0", 
        "__shape__": "(0,)", 
        "__storage_type__": "0", 
        "__wd_mult__": "1.0"
      }, 
      "inputs": []
    }, 
    {
      "op": "null", 
      "name": "cifar10_mobilenet56_0.5/stg0/blk0/body/batchnorm0_running_mean", 
      "attrs": {
        "__dtype__": "0", 
        "__init__": "zeros", 
        "__lr_mult__": "1.0", 
        "__shape__": "(0,)", 
        "__storage_type__": "0", 
        "__wd_mult__": "1.0"
      }, 
      "inputs": []
    }, 
    {
      "op": "null", 
      "name": "cifar10_mobilenet56_0.5/stg0/blk0/body/batchnorm0_running_var", 
      "attrs": {
        "__dtype__": "0", 
        "__init__": "ones", 
        "__lr_mult__": "1.0", 
        "__shape__": "(0,)", 
        "__storage_type__": "0", 
        "__wd_mult__": "1.0"
      }, 
      "inputs": []
    }, 
    {
      "op": "BatchNorm", 
      "name": "cifar10_mobilenet56_0.5/stg0/blk0/body/batchnorm0_fwd", 
      "attrs": {
        "axis": "1", 
        "eps": "1e-05", 
        "fix_gamma": "False", 
        "momentum": "0.9", 
        "use_global_stats": "False"
      }, 
      "inputs": [[7, 0, 0], [8, 0, 0], [9, 0, 0], [10, 0, 1], [11, 0, 1]]
    }, 
    {
      "op": "Activation", 
      "name": "cifar10_mobilenet56_0.5/stg0/blk0/body/relu0_fwd", 
      "attrs": {"act_type": "relu"}, 
      "inputs": [[12, 0, 0]]
    }, 
    {
      "op": "null", 
      "name": "cifar10_mobilenet56_0.5/stg0/blk0/body/conv0_weight", 
      "attrs": {
        "__dtype__": "0", 
        "__lr_mult__": "1.0", 
        "__shape__": "(16, 0, 1, 1)", 
        "__storage_type__": "0", 
        "__wd_mult__": "1.0"
      }, 
      "inputs": []
    }, 
    {
      "op": "Convolution", 
      "name": "cifar10_mobilenet56_0.5/stg0/blk0/body/conv0_fwd", 
      "attrs": {
        "dilate": "(1, 1)", 
        "kernel": "(1, 1)", 
        "layout": "NCHW", 
        "no_bias": "True", 
        "num_filter": "16", 
        "num_group": "1", 
        "pad": "(0, 0)", 
        "stride": "(1, 1)"
      }, 
      "inputs": [[13, 0, 0], [14, 0, 0]]
    }, 
    {
      "op": "null", 
      "name": "cifar10_mobilenet56_0.5/stg0/blk0/body/batchnorm1_gamma", 
      "attrs": {
        "__dtype__": "0", 
        "__init__": "ones", 
        "__lr_mult__": "1.0", 
        "__shape__": "(0,)", 
        "__storage_type__": "0", 
        "__wd_mult__": "1.0"
      }, 
      "inputs": []
    }, 
    {
      "op": "null", 
      "name": "cifar10_mobilenet56_0.5/stg0/blk0/body/batchnorm1_beta", 
      "attrs": {
        "__dtype__": "0", 
        "__init__": "zeros", 
        "__lr_mult__": "1.0", 
        "__shape__": "(0,)", 
        "__storage_type__": "0", 
        "__wd_mult__": "1.0"
      }, 
      "inputs": []
    }, 
    {
      "op": "null", 
      "name": "cifar10_mobilenet56_0.5/stg0/blk0/body/batchnorm1_running_mean", 
      "attrs": {
        "__dtype__": "0", 
        "__init__": "zeros", 
        "__lr_mult__": "1.0", 
        "__shape__": "(0,)", 
        "__storage_type__": "0", 
        "__wd_mult__": "1.0"
      }, 
      "inputs": []
    }, 
    {
      "op": "null", 
      "name": "cifar10_mobilenet56_0.5/stg0/blk0/body/batchnorm1_running_var", 
      "attrs": {
        "__dtype__": "0", 
        "__init__": "ones", 
        "__lr_mult__": "1.0", 
        "__shape__": "(0,)", 
        "__storage_type__": "0", 
        "__wd_mult__": "1.0"
      }, 
      "inputs": []
    }, 
    {
      "op": "BatchNorm", 
      "name": "cifar10_mobilenet56_0.5/stg0/blk0/body/batchnorm1_fwd", 
      "attrs": {
        "axis": "1", 
        "eps": "1e-05", 
        "fix_gamma": "False", 
        "momentum": "0.9", 
        "use_global_stats": "False"
      }, 
      "inputs": [[15, 0, 0], [16, 0, 0], [17, 0, 0], [18, 0, 1], [19, 0, 1]]
    }, 
    {
      "op": "Activation", 
      "name": "cifar10_mobilenet56_0.5/stg0/blk0/body/relu1_fwd", 
      "attrs": {"act_type": "relu"}, 
      "inputs": [[20, 0, 0]]
    }, 
    {
      "op": "null", 
      "name": "cifar10_mobilenet56_0.5/stg0/blk0/body/conv1_weight", 
      "attrs": {
        "__dtype__": "0", 
        "__lr_mult__": "1.0", 
        "__shape__": "(16, 0, 3, 3)", 
        "__storage_type__": "0", 
        "__wd_mult__": "1.0"
      }, 
      "inputs": []
    }, 
    {
      "op": "Convolution", 
      "name": "cifar10_mobilenet56_0.5/stg0/blk0/body/conv1_fwd", 
      "attrs": {
        "dilate": "(1, 1)", 
        "kernel": "(3, 3)", 
        "layout": "NCHW", 
        "no_bias": "True", 
        "num_filter": "16", 
        "num_group": "16", 
        "pad": "(1, 1)", 
        "stride": "(1, 1)"
      }, 
      "inputs": [[21, 0, 0], [22, 0, 0]]
    }, 
    {
      "op": "null", 
      "name": "cifar10_mobilenet56_0.5/stg0/blk0/body/batchnorm2_gamma", 
      "attrs": {
        "__dtype__": "0", 
        "__init__": "ones", 
        "__lr_mult__": "1.0", 
        "__shape__": "(0,)", 
        "__storage_type__": "0", 
        "__wd_mult__": "1.0"
      }, 
      "inputs": []
    }, 
    {
      "op": "null", 
      "name": "cifar10_mobilenet56_0.5/stg0/blk0/body/batchnorm2_beta", 
      "attrs": {
        "__dtype__": "0", 
        "__init__": "zeros", 
        "__lr_mult__": "1.0", 
        "__shape__": "(0,)", 
        "__storage_type__": "0", 
        "__wd_mult__": "1.0"
      }, 
      "inputs": []
    }, 
    {
      "op": "null", 
      "name": "cifar10_mobilenet56_0.5/stg0/blk0/body/batchnorm2_running_mean", 
      "attrs": {
        "__dtype__": "0", 
        "__init__": "zeros", 
        "__lr_mult__": "1.0", 
        "__shape__": "(0,)", 
        "__storage_type__": "0", 
        "__wd_mult__": "1.0"
      }, 
      "inputs": []
    }, 
    {
      "op": "null", 
      "name": "cifar10_mobilenet56_0.5/stg0/blk0/body/batchnorm2_running_var", 
      "attrs": {
        "__dtype__": "0", 
        "__init__": "ones", 
        "__lr_mult__": "1.0", 
        "__shape__": "(0,)", 
        "__storage_type__": "0", 
        "__wd_mult__": "1.0"
      }, 
      "inputs": []
    }, 
    {
      "op": "BatchNorm", 
      "name": "cifar10_mobilenet56_0.5/stg0/blk0/body/batchnorm2_fwd", 
      "attrs": {
        "axis": "1", 
        "eps": "1e-05", 
        "fix_gamma": "False", 
        "momentum": "0.9", 
        "use_global_stats": "False"
      }, 
      "inputs": [[23, 0, 0], [24, 0, 0], [25, 0, 0], [26, 0, 1], [27, 0, 1]]
    }, 
    {
      "op": "Activation", 
      "name": "cifar10_mobilenet56_0.5/stg0/blk0/body/relu2_fwd", 
      "attrs": {"act_type": "relu"}, 
      "inputs": [[28, 0, 0]]
    }, 
    {
      "op": "null", 
      "name": "cifar10_mobilenet56_0.5/stg0/blk0/body/conv2_weight", 
      "attrs": {
        "__dtype__": "0", 
        "__lr_mult__": "1.0", 
        "__shape__": "(32, 0, 1, 1)", 
        "__storage_type__": "0", 
        "__wd_mult__": "1.0"
      }, 
      "inputs": []
    }, 
    {
      "op": "Convolution", 
      "name": "cifar10_mobilenet56_0.5/stg0/blk0/body/conv2_fwd", 
      "attrs": {
        "dilate": "(1, 1)", 
        "kernel": "(1, 1)", 
        "layout": "NCHW", 
        "no_bias": "True", 
        "num_filter": "32", 
        "num_group": "1", 
        "pad": "(0, 0)", 
        "stride": "(1, 1)"
      }, 
      "inputs": [[29, 0, 0], [30, 0, 0]]
    }, 
    {
      "op": "null", 
      "name": "cifar10_mobilenet56_0.5/stg0/blk0/body/batchnorm3_gamma", 
      "attrs": {
        "__dtype__": "0", 
        "__init__": "ones", 
        "__lr_mult__": "1.0", 
        "__shape__": "(0,)", 
        "__storage_type__": "0", 
        "__wd_mult__": "1.0"
      }, 
      "inputs": []
    }, 
    {
      "op": "null", 
      "name": "cifar10_mobilenet56_0.5/stg0/blk0/body/batchnorm3_beta", 
      "attrs": {
        "__dtype__": "0", 
        "__init__": "zeros", 
        "__lr_mult__": "1.0", 
        "__shape__": "(0,)", 
        "__storage_type__": "0", 
        "__wd_mult__": "1.0"
      }, 
      "inputs": []
    }, 
    {
      "op": "null", 
      "name": "cifar10_mobilenet56_0.5/stg0/blk0/body/batchnorm3_running_mean", 
      "attrs": {
        "__dtype__": "0", 
        "__init__": "zeros", 
        "__lr_mult__": "1.0", 
        "__shape__": "(0,)", 
        "__storage_type__": "0", 
        "__wd_mult__": "1.0"
      }, 
      "inputs": []
    }, 
    {
      "op": "null", 
      "name": "cifar10_mobilenet56_0.5/stg0/blk0/body/batchnorm3_running_var", 
      "attrs": {
        "__dtype__": "0", 
        "__init__": "ones", 
        "__lr_mult__": "1.0", 
        "__shape__": "(0,)", 
        "__storage_type__": "0", 
        "__wd_mult__": "1.0"
      }, 
      "inputs": []
    }, 
    {
      "op": "BatchNorm", 
      "name": "cifar10_mobilenet56_0.5/stg0/blk0/body/batchnorm3_fwd", 
      "attrs": {
        "axis": "1", 
        "eps": "1e-05", 
        "fix_gamma": "False", 
        "momentum": "0.9", 
        "use_global_stats": "False"
      }, 
      "inputs": [[31, 0, 0], [32, 0, 0], [33, 0, 0], [34, 0, 1], [35, 0, 1]]
    }, 
    {
      "op": "elemwise_add", 
      "name": "cifar10_mobilenet56_0.5/stg0/blk0/_plus0", 
      "inputs": [[36, 0, 0], [7, 0, 0]]
    }, 
    {
      "op": "null", 
      "name": "cifar10_mobilenet56_0.5/stg0/blk1/body/batchnorm0_gamma", 
      "attrs": {
        "__dtype__": "0", 
        "__init__": "ones", 
        "__lr_mult__": "1.0", 
        "__shape__": "(0,)", 
        "__storage_type__": "0", 
        "__wd_mult__": "1.0"
      }, 
      "inputs": []
    }, 
    {
      "op": "null", 
      "name": "cifar10_mobilenet56_0.5/stg0/blk1/body/batchnorm0_beta", 
      "attrs": {
        "__dtype__": "0", 
        "__init__": "zeros", 
        "__lr_mult__": "1.0", 
        "__shape__": "(0,)", 
        "__storage_type__": "0", 
        "__wd_mult__": "1.0"
      }, 
      "inputs": []
    }, 
    {
      "op": "null", 
      "name": "cifar10_mobilenet56_0.5/stg0/blk1/body/batchnorm0_running_mean", 
      "attrs": {
        "__dtype__": "0", 
        "__init__": "zeros", 
        "__lr_mult__": "1.0", 
        "__shape__": "(0,)", 
        "__storage_type__": "0", 
        "__wd_mult__": "1.0"
      }, 
      "inputs": []
    }, 
    {
      "op": "null", 
      "name": "cifar10_mobilenet56_0.5/stg0/blk1/body/batchnorm0_running_var", 
      "attrs": {
        "__dtype__": "0", 
        "__init__": "ones", 
        "__lr_mult__": "1.0", 
        "__shape__": "(0,)", 
        "__storage_type__": "0", 
        "__wd_mult__": "1.0"
      }, 
      "inputs": []
    }, 
    {
      "op": "BatchNorm", 
      "name": "cifar10_mobilenet56_0.5/stg0/blk1/body/batchnorm0_fwd", 
      "attrs": {
        "axis": "1", 
        "eps": "1e-05", 
        "fix_gamma": "False", 
        "momentum": "0.9", 
        "use_global_stats": "False"
      }, 
      "inputs": [[37, 0, 0], [38, 0, 0], [39, 0, 0], [40, 0, 1], [41, 0, 1]]
    }, 
    {
      "op": "Activation", 
      "name": "cifar10_mobilenet56_0.5/stg0/blk1/body/relu0_fwd", 
      "attrs": {"act_type": "relu"}, 
      "inputs": [[42, 0, 0]]
    }, 
    {
      "op": "null", 
      "name": "cifar10_mobilenet56_0.5/stg0/blk1/body/conv0_weight", 
      "attrs": {
        "__dtype__": "0", 
        "__lr_mult__": "1.0", 
        "__shape__": "(16, 0, 1, 1)", 
        "__storage_type__": "0", 
        "__wd_mult__": "1.0"
      }, 
      "inputs": []
    }, 
    {
      "op": "Convolution", 
      "name": "cifar10_mobilenet56_0.5/stg0/blk1/body/conv0_fwd", 
      "attrs": {
        "dilate": "(1, 1)", 
        "kernel": "(1, 1)", 
        "layout": "NCHW", 
        "no_bias": "True", 
        "num_filter": "16", 
        "num_group": "1", 
        "pad": "(0, 0)", 
        "stride": "(1, 1)"
      }, 
      "inputs": [[43, 0, 0], [44, 0, 0]]
    }, 
    {
      "op": "null", 
      "name": "cifar10_mobilenet56_0.5/stg0/blk1/body/batchnorm1_gamma", 
      "attrs": {
        "__dtype__": "0", 
        "__init__": "ones", 
        "__lr_mult__": "1.0", 
        "__shape__": "(0,)", 
        "__storage_type__": "0", 
        "__wd_mult__": "1.0"
      }, 
      "inputs": []
    }, 
    {
      "op": "null", 
      "name": "cifar10_mobilenet56_0.5/stg0/blk1/body/batchnorm1_beta", 
      "attrs": {
        "__dtype__": "0", 
        "__init__": "zeros", 
        "__lr_mult__": "1.0", 
        "__shape__": "(0,)", 
        "__storage_type__": "0", 
        "__wd_mult__": "1.0"
      }, 
      "inputs": []
    }, 
    {
      "op": "null", 
      "name": "cifar10_mobilenet56_0.5/stg0/blk1/body/batchnorm1_running_mean", 
      "attrs": {
        "__dtype__": "0", 
        "__init__": "zeros", 
        "__lr_mult__": "1.0", 
        "__shape__": "(0,)", 
        "__storage_type__": "0", 
        "__wd_mult__": "1.0"
      }, 
      "inputs": []
    }, 
    {
      "op": "null", 
      "name": "cifar10_mobilenet56_0.5/stg0/blk1/body/batchnorm1_running_var", 
      "attrs": {
        "__dtype__": "0", 
        "__init__": "ones", 
        "__lr_mult__": "1.0", 
        "__shape__": "(0,)", 
        "__storage_type__": "0", 
        "__wd_mult__": "1.0"
      }, 
      "inputs": []
    }, 
    {
      "op": "BatchNorm", 
      "name": "cifar10_mobilenet56_0.5/stg0/blk1/body/batchnorm1_fwd", 
      "attrs": {
        "axis": "1", 
        "eps": "1e-05", 
        "fix_gamma": "False", 
        "momentum": "0.9", 
        "use_global_stats": "False"
      }, 
      "inputs": [[45, 0, 0], [46, 0, 0], [47, 0, 0], [48, 0, 1], [49, 0, 1]]
    }, 
    {
      "op": "Activation", 
      "name": "cifar10_mobilenet56_0.5/stg0/blk1/body/relu1_fwd", 
      "attrs": {"act_type": "relu"}, 
      "inputs": [[50, 0, 0]]
    }, 
    {
      "op": "null", 
      "name": "cifar10_mobilenet56_0.5/stg0/blk1/body/conv1_weight", 
      "attrs": {
        "__dtype__": "0", 
        "__lr_mult__": "1.0", 
        "__shape__": "(16, 0, 3, 3)", 
        "__storage_type__": "0", 
        "__wd_mult__": "1.0"
      }, 
      "inputs": []
    }, 
    {
      "op": "Convolution", 
      "name": "cifar10_mobilenet56_0.5/stg0/blk1/body/conv1_fwd", 
      "attrs": {
        "dilate": "(1, 1)", 
        "kernel": "(3, 3)", 
        "layout": "NCHW", 
        "no_bias": "True", 
        "num_filter": "16", 
        "num_group": "16", 
        "pad": "(1, 1)", 
        "stride": "(1, 1)"
      }, 
      "inputs": [[51, 0, 0], [52, 0, 0]]
    }, 
    {
      "op": "null", 
      "name": "cifar10_mobilenet56_0.5/stg0/blk1/body/batchnorm2_gamma", 
      "attrs": {
        "__dtype__": "0", 
        "__init__": "ones", 
        "__lr_mult__": "1.0", 
        "__shape__": "(0,)", 
        "__storage_type__": "0", 
        "__wd_mult__": "1.0"
      }, 
      "inputs": []
    }, 
    {
      "op": "null", 
      "name": "cifar10_mobilenet56_0.5/stg0/blk1/body/batchnorm2_beta", 
      "attrs": {
        "__dtype__": "0", 
        "__init__": "zeros", 
        "__lr_mult__": "1.0", 
        "__shape__": "(0,)", 
        "__storage_type__": "0", 
        "__wd_mult__": "1.0"
      }, 
      "inputs": []
    }, 
    {
      "op": "null", 
      "name": "cifar10_mobilenet56_0.5/stg0/blk1/body/batchnorm2_running_mean", 
      "attrs": {
        "__dtype__": "0", 
        "__init__": "zeros", 
        "__lr_mult__": "1.0", 
        "__shape__": "(0,)", 
        "__storage_type__": "0", 
        "__wd_mult__": "1.0"
      }, 
      "inputs": []
    }, 
    {
      "op": "null", 
      "name": "cifar10_mobilenet56_0.5/stg0/blk1/body/batchnorm2_running_var", 
      "attrs": {
        "__dtype__": "0", 
        "__init__": "ones", 
        "__lr_mult__": "1.0", 
        "__shape__": "(0,)", 
        "__storage_type__": "0", 
        "__wd_mult__": "1.0"
      }, 
      "inputs": []
    }, 
    {
      "op": "BatchNorm", 
      "name": "cifar10_mobilenet56_0.5/stg0/blk1/body/batchnorm2_fwd", 
      "attrs": {
        "axis": "1", 
        "eps": "1e-05", 
        "fix_gamma": "False", 
        "momentum": "0.9", 
        "use_global_stats": "False"
      }, 
      "inputs": [[53, 0, 0], [54, 0, 0], [55, 0, 0], [56, 0, 1], [57, 0, 1]]
    }, 
    {
      "op": "Activation", 
      "name": "cifar10_mobilenet56_0.5/stg0/blk1/body/relu2_fwd", 
      "attrs": {"act_type": "relu"}, 
      "inputs": [[58, 0, 0]]
    }, 
    {
      "op": "null", 
      "name": "cifar10_mobilenet56_0.5/stg0/blk1/body/conv2_weight", 
      "attrs": {
        "__dtype__": "0", 
        "__lr_mult__": "1.0", 
        "__shape__": "(32, 0, 1, 1)", 
        "__storage_type__": "0", 
        "__wd_mult__": "1.0"
      }, 
      "inputs": []
    }, 
    {
      "op": "Convolution", 
      "name": "cifar10_mobilenet56_0.5/stg0/blk1/body/conv2_fwd", 
      "attrs": {
        "dilate": "(1, 1)", 
        "kernel": "(1, 1)", 
        "layout": "NCHW", 
        "no_bias": "True", 
        "num_filter": "32", 
        "num_group": "1", 
        "pad": "(0, 0)", 
        "stride": "(1, 1)"
      }, 
      "inputs": [[59, 0, 0], [60, 0, 0]]
    }, 
    {
      "op": "null", 
      "name": "cifar10_mobilenet56_0.5/stg0/blk1/body/batchnorm3_gamma", 
      "attrs": {
        "__dtype__": "0", 
        "__init__": "ones", 
        "__lr_mult__": "1.0", 
        "__shape__": "(0,)", 
        "__storage_type__": "0", 
        "__wd_mult__": "1.0"
      }, 
      "inputs": []
    }, 
    {
      "op": "null", 
      "name": "cifar10_mobilenet56_0.5/stg0/blk1/body/batchnorm3_beta", 
      "attrs": {
        "__dtype__": "0", 
        "__init__": "zeros", 
        "__lr_mult__": "1.0", 
        "__shape__": "(0,)", 
        "__storage_type__": "0", 
        "__wd_mult__": "1.0"
      }, 
      "inputs": []
    }, 
    {
      "op": "null", 
      "name": "cifar10_mobilenet56_0.5/stg0/blk1/body/batchnorm3_running_mean", 
      "attrs": {
        "__dtype__": "0", 
        "__init__": "zeros", 
        "__lr_mult__": "1.0", 
        "__shape__": "(0,)", 
        "__storage_type__": "0", 
        "__wd_mult__": "1.0"
      }, 
      "inputs": []
    }, 
    {
      "op": "null", 
      "name": "cifar10_mobilenet56_0.5/stg0/blk1/body/batchnorm3_running_var", 
      "attrs": {
        "__dtype__": "0", 
        "__init__": "ones", 
        "__lr_mult__": "1.0", 
        "__shape__": "(0,)", 
        "__storage_type__": "0", 
        "__wd_mult__": "1.0"
      }, 
      "inputs": []
    }, 
    {
      "op": "BatchNorm", 
      "name": "cifar10_mobilenet56_0.5/stg0/blk1/body/batchnorm3_fwd", 
      "attrs": {
        "axis": "1", 
        "eps": "1e-05", 
        "fix_gamma": "False", 
        "momentum": "0.9", 
        "use_global_stats": "False"
      }, 
      "inputs": [[61, 0, 0], [62, 0, 0], [63, 0, 0], [64, 0, 1], [65, 0, 1]]
    }, 
    {
      "op": "elemwise_add", 
      "name": "cifar10_mobilenet56_0.5/stg0/blk1/_plus0", 
      "inputs": [[66, 0, 0], [37, 0, 0]]
    }, 
    {
      "op": "null", 
      "name": "cifar10_mobilenet56_0.5/stg0/blk2/body/batchnorm0_gamma", 
      "attrs": {
        "__dtype__": "0", 
        "__init__": "ones", 
        "__lr_mult__": "1.0", 
        "__shape__": "(0,)", 
        "__storage_type__": "0", 
        "__wd_mult__": "1.0"
      }, 
      "inputs": []
    }, 
    {
      "op": "null", 
      "name": "cifar10_mobilenet56_0.5/stg0/blk2/body/batchnorm0_beta", 
      "attrs": {
        "__dtype__": "0", 
        "__init__": "zeros", 
        "__lr_mult__": "1.0", 
        "__shape__": "(0,)", 
        "__storage_type__": "0", 
        "__wd_mult__": "1.0"
      }, 
      "inputs": []
    }, 
    {
      "op": "null", 
      "name": "cifar10_mobilenet56_0.5/stg0/blk2/body/batchnorm0_running_mean", 
      "attrs": {
        "__dtype__": "0", 
        "__init__": "zeros", 
        "__lr_mult__": "1.0", 
        "__shape__": "(0,)", 
        "__storage_type__": "0", 
        "__wd_mult__": "1.0"
      }, 
      "inputs": []
    }, 
    {
      "op": "null", 
      "name": "cifar10_mobilenet56_0.5/stg0/blk2/body/batchnorm0_running_var", 
      "attrs": {
        "__dtype__": "0", 
        "__init__": "ones", 
        "__lr_mult__": "1.0", 
        "__shape__": "(0,)", 
        "__storage_type__": "0", 
        "__wd_mult__": "1.0"
      }, 
      "inputs": []
    }, 
    {
      "op": "BatchNorm", 
      "name": "cifar10_mobilenet56_0.5/stg0/blk2/body/batchnorm0_fwd", 
      "attrs": {
        "axis": "1", 
        "eps": "1e-05", 
        "fix_gamma": "False", 
        "momentum": "0.9", 
        "use_global_stats": "False"
      }, 
      "inputs": [[67, 0, 0], [68, 0, 0], [69, 0, 0], [70, 0, 1], [71, 0, 1]]
    }, 
    {
      "op": "Activation", 
      "name": "cifar10_mobilenet56_0.5/stg0/blk2/body/relu0_fwd", 
      "attrs": {"act_type": "relu"}, 
      "inputs": [[72, 0, 0]]
    }, 
    {
      "op": "null", 
      "name": "cifar10_mobilenet56_0.5/stg0/blk2/body/conv0_weight", 
      "attrs": {
        "__dtype__": "0", 
        "__lr_mult__": "1.0", 
        "__shape__": "(16, 0, 1, 1)", 
        "__storage_type__": "0", 
        "__wd_mult__": "1.0"
      }, 
      "inputs": []
    }, 
    {
      "op": "Convolution", 
      "name": "cifar10_mobilenet56_0.5/stg0/blk2/body/conv0_fwd", 
      "attrs": {
        "dilate": "(1, 1)", 
        "kernel": "(1, 1)", 
        "layout": "NCHW", 
        "no_bias": "True", 
        "num_filter": "16", 
        "num_group": "1", 
        "pad": "(0, 0)", 
        "stride": "(1, 1)"
      }, 
      "inputs": [[73, 0, 0], [74, 0, 0]]
    }, 
    {
      "op": "null", 
      "name": "cifar10_mobilenet56_0.5/stg0/blk2/body/batchnorm1_gamma", 
      "attrs": {
        "__dtype__": "0", 
        "__init__": "ones", 
        "__lr_mult__": "1.0", 
        "__shape__": "(0,)", 
        "__storage_type__": "0", 
        "__wd_mult__": "1.0"
      }, 
      "inputs": []
    }, 
    {
      "op": "null", 
      "name": "cifar10_mobilenet56_0.5/stg0/blk2/body/batchnorm1_beta", 
      "attrs": {
        "__dtype__": "0", 
        "__init__": "zeros", 
        "__lr_mult__": "1.0", 
        "__shape__": "(0,)", 
        "__storage_type__": "0", 
        "__wd_mult__": "1.0"
      }, 
      "inputs": []
    }, 
    {
      "op": "null", 
      "name": "cifar10_mobilenet56_0.5/stg0/blk2/body/batchnorm1_running_mean", 
      "attrs": {
        "__dtype__": "0", 
        "__init__": "zeros", 
        "__lr_mult__": "1.0", 
        "__shape__": "(0,)", 
        "__storage_type__": "0", 
        "__wd_mult__": "1.0"
      }, 
      "inputs": []
    }, 
    {
      "op": "null", 
      "name": "cifar10_mobilenet56_0.5/stg0/blk2/body/batchnorm1_running_var", 
      "attrs": {
        "__dtype__": "0", 
        "__init__": "ones", 
        "__lr_mult__": "1.0", 
        "__shape__": "(0,)", 
        "__storage_type__": "0", 
        "__wd_mult__": "1.0"
      }, 
      "inputs": []
    }, 
    {
      "op": "BatchNorm", 
      "name": "cifar10_mobilenet56_0.5/stg0/blk2/body/batchnorm1_fwd", 
      "attrs": {
        "axis": "1", 
        "eps": "1e-05", 
        "fix_gamma": "False", 
        "momentum": "0.9", 
        "use_global_stats": "False"
      }, 
      "inputs": [[75, 0, 0], [76, 0, 0], [77, 0, 0], [78, 0, 1], [79, 0, 1]]
    }, 
    {
      "op": "Activation", 
      "name": "cifar10_mobilenet56_0.5/stg0/blk2/body/relu1_fwd", 
      "attrs": {"act_type": "relu"}, 
      "inputs": [[80, 0, 0]]
    }, 
    {
      "op": "null", 
      "name": "cifar10_mobilenet56_0.5/stg0/blk2/body/conv1_weight", 
      "attrs": {
        "__dtype__": "0", 
        "__lr_mult__": "1.0", 
        "__shape__": "(16, 0, 3, 3)", 
        "__storage_type__": "0", 
        "__wd_mult__": "1.0"
      }, 
      "inputs": []
    }, 
    {
      "op": "Convolution", 
      "name": "cifar10_mobilenet56_0.5/stg0/blk2/body/conv1_fwd", 
      "attrs": {
        "dilate": "(1, 1)", 
        "kernel": "(3, 3)", 
        "layout": "NCHW", 
        "no_bias": "True", 
        "num_filter": "16", 
        "num_group": "16", 
        "pad": "(1, 1)", 
        "stride": "(1, 1)"
      }, 
      "inputs": [[81, 0, 0], [82, 0, 0]]
    }, 
    {
      "op": "null", 
      "name": "cifar10_mobilenet56_0.5/stg0/blk2/body/batchnorm2_gamma", 
      "attrs": {
        "__dtype__": "0", 
        "__init__": "ones", 
        "__lr_mult__": "1.0", 
        "__shape__": "(0,)", 
        "__storage_type__": "0", 
        "__wd_mult__": "1.0"
      }, 
      "inputs": []
    }, 
    {
      "op": "null", 
      "name": "cifar10_mobilenet56_0.5/stg0/blk2/body/batchnorm2_beta", 
      "attrs": {
        "__dtype__": "0", 
        "__init__": "zeros", 
        "__lr_mult__": "1.0", 
        "__shape__": "(0,)", 
        "__storage_type__": "0", 
        "__wd_mult__": "1.0"
      }, 
      "inputs": []
    }, 
    {
      "op": "null", 
      "name": "cifar10_mobilenet56_0.5/stg0/blk2/body/batchnorm2_running_mean", 
      "attrs": {
        "__dtype__": "0", 
        "__init__": "zeros", 
        "__lr_mult__": "1.0", 
        "__shape__": "(0,)", 
        "__storage_type__": "0", 
        "__wd_mult__": "1.0"
      }, 
      "inputs": []
    }, 
    {
      "op": "null", 
      "name": "cifar10_mobilenet56_0.5/stg0/blk2/body/batchnorm2_running_var", 
      "attrs": {
        "__dtype__": "0", 
        "__init__": "ones", 
        "__lr_mult__": "1.0", 
        "__shape__": "(0,)", 
        "__storage_type__": "0", 
        "__wd_mult__": "1.0"
      }, 
      "inputs": []
    }, 
    {
      "op": "BatchNorm", 
      "name": "cifar10_mobilenet56_0.5/stg0/blk2/body/batchnorm2_fwd", 
      "attrs": {
        "axis": "1", 
        "eps": "1e-05", 
        "fix_gamma": "False", 
        "momentum": "0.9", 
        "use_global_stats": "False"
      }, 
      "inputs": [[83, 0, 0], [84, 0, 0], [85, 0, 0], [86, 0, 1], [87, 0, 1]]
    }, 
    {
      "op": "Activation", 
      "name": "cifar10_mobilenet56_0.5/stg0/blk2/body/relu2_fwd", 
      "attrs": {"act_type": "relu"}, 
      "inputs": [[88, 0, 0]]
    }, 
    {
      "op": "null", 
      "name": "cifar10_mobilenet56_0.5/stg0/blk2/body/conv2_weight", 
      "attrs": {
        "__dtype__": "0", 
        "__lr_mult__": "1.0", 
        "__shape__": "(32, 0, 1, 1)", 
        "__storage_type__": "0", 
        "__wd_mult__": "1.0"
      }, 
      "inputs": []
    }, 
    {
      "op": "Convolution", 
      "name": "cifar10_mobilenet56_0.5/stg0/blk2/body/conv2_fwd", 
      "attrs": {
        "dilate": "(1, 1)", 
        "kernel": "(1, 1)", 
        "layout": "NCHW", 
        "no_bias": "True", 
        "num_filter": "32", 
        "num_group": "1", 
        "pad": "(0, 0)", 
        "stride": "(1, 1)"
      }, 
      "inputs": [[89, 0, 0], [90, 0, 0]]
    }, 
    {
      "op": "null", 
      "name": "cifar10_mobilenet56_0.5/stg0/blk2/body/batchnorm3_gamma", 
      "attrs": {
        "__dtype__": "0", 
        "__init__": "ones", 
        "__lr_mult__": "1.0", 
        "__shape__": "(0,)", 
        "__storage_type__": "0", 
        "__wd_mult__": "1.0"
      }, 
      "inputs": []
    }, 
    {
      "op": "null", 
      "name": "cifar10_mobilenet56_0.5/stg0/blk2/body/batchnorm3_beta", 
      "attrs": {
        "__dtype__": "0", 
        "__init__": "zeros", 
        "__lr_mult__": "1.0", 
        "__shape__": "(0,)", 
        "__storage_type__": "0", 
        "__wd_mult__": "1.0"
      }, 
      "inputs": []
    }, 
    {
      "op": "null", 
      "name": "cifar10_mobilenet56_0.5/stg0/blk2/body/batchnorm3_running_mean", 
      "attrs": {
        "__dtype__": "0", 
        "__init__": "zeros", 
        "__lr_mult__": "1.0", 
        "__shape__": "(0,)", 
        "__storage_type__": "0", 
        "__wd_mult__": "1.0"
      }, 
      "inputs": []
    }, 
    {
      "op": "null", 
      "name": "cifar10_mobilenet56_0.5/stg0/blk2/body/batchnorm3_running_var", 
      "attrs": {
        "__dtype__": "0", 
        "__init__": "ones", 
        "__lr_mult__": "1.0", 
        "__shape__": "(0,)", 
        "__storage_type__": "0", 
        "__wd_mult__": "1.0"
      }, 
      "inputs": []
    }, 
    {
      "op": "BatchNorm", 
      "name": "cifar10_mobilenet56_0.5/stg0/blk2/body/batchnorm3_fwd", 
      "attrs": {
        "axis": "1", 
        "eps": "1e-05", 
        "fix_gamma": "False", 
        "momentum": "0.9", 
        "use_global_stats": "False"
      }, 
      "inputs": [[91, 0, 0], [92, 0, 0], [93, 0, 0], [94, 0, 1], [95, 0, 1]]
    }, 
    {
      "op": "elemwise_add", 
      "name": "cifar10_mobilenet56_0.5/stg0/blk2/_plus0", 
      "inputs": [[96, 0, 0], [67, 0, 0]]
    }, 
    {
      "op": "null", 
      "name": "cifar10_mobilenet56_0.5/stg0/blk3/body/batchnorm0_gamma", 
      "attrs": {
        "__dtype__": "0", 
        "__init__": "ones", 
        "__lr_mult__": "1.0", 
        "__shape__": "(0,)", 
        "__storage_type__": "0", 
        "__wd_mult__": "1.0"
      }, 
      "inputs": []
    }, 
    {
      "op": "null", 
      "name": "cifar10_mobilenet56_0.5/stg0/blk3/body/batchnorm0_beta", 
      "attrs": {
        "__dtype__": "0", 
        "__init__": "zeros", 
        "__lr_mult__": "1.0", 
        "__shape__": "(0,)", 
        "__storage_type__": "0", 
        "__wd_mult__": "1.0"
      }, 
      "inputs": []
    }, 
    {
      "op": "null", 
      "name": "cifar10_mobilenet56_0.5/stg0/blk3/body/batchnorm0_running_mean", 
      "attrs": {
        "__dtype__": "0", 
        "__init__": "zeros", 
        "__lr_mult__": "1.0", 
        "__shape__": "(0,)", 
        "__storage_type__": "0", 
        "__wd_mult__": "1.0"
      }, 
      "inputs": []
    }, 
    {
      "op": "null", 
      "name": "cifar10_mobilenet56_0.5/stg0/blk3/body/batchnorm0_running_var", 
      "attrs": {
        "__dtype__": "0", 
        "__init__": "ones", 
        "__lr_mult__": "1.0", 
        "__shape__": "(0,)", 
        "__storage_type__": "0", 
        "__wd_mult__": "1.0"
      }, 
      "inputs": []
    }, 
    {
      "op": "BatchNorm", 
      "name": "cifar10_mobilenet56_0.5/stg0/blk3/body/batchnorm0_fwd", 
      "attrs": {
        "axis": "1", 
        "eps": "1e-05", 
        "fix_gamma": "False", 
        "momentum": "0.9", 
        "use_global_stats": "False"
      }, 
      "inputs": [[97, 0, 0], [98, 0, 0], [99, 0, 0], [100, 0, 1], [101, 0, 1]]
    }, 
    {
      "op": "Activation", 
      "name": "cifar10_mobilenet56_0.5/stg0/blk3/body/relu0_fwd", 
      "attrs": {"act_type": "relu"}, 
      "inputs": [[102, 0, 0]]
    }, 
    {
      "op": "null", 
      "name": "cifar10_mobilenet56_0.5/stg0/blk3/body/conv0_weight", 
      "attrs": {
        "__dtype__": "0", 
        "__lr_mult__": "1.0", 
        "__shape__": "(16, 0, 1, 1)", 
        "__storage_type__": "0", 
        "__wd_mult__": "1.0"
      }, 
      "inputs": []
    }, 
    {
      "op": "Convolution", 
      "name": "cifar10_mobilenet56_0.5/stg0/blk3/body/conv0_fwd", 
      "attrs": {
        "dilate": "(1, 1)", 
        "kernel": "(1, 1)", 
        "layout": "NCHW", 
        "no_bias": "True", 
        "num_filter": "16", 
        "num_group": "1", 
        "pad": "(0, 0)", 
        "stride": "(1, 1)"
      }, 
      "inputs": [[103, 0, 0], [104, 0, 0]]
    }, 
    {
      "op": "null", 
      "name": "cifar10_mobilenet56_0.5/stg0/blk3/body/batchnorm1_gamma", 
      "attrs": {
        "__dtype__": "0", 
        "__init__": "ones", 
        "__lr_mult__": "1.0", 
        "__shape__": "(0,)", 
        "__storage_type__": "0", 
        "__wd_mult__": "1.0"
      }, 
      "inputs": []
    }, 
    {
      "op": "null", 
      "name": "cifar10_mobilenet56_0.5/stg0/blk3/body/batchnorm1_beta", 
      "attrs": {
        "__dtype__": "0", 
        "__init__": "zeros", 
        "__lr_mult__": "1.0", 
        "__shape__": "(0,)", 
        "__storage_type__": "0", 
        "__wd_mult__": "1.0"
      }, 
      "inputs": []
    }, 
    {
      "op": "null", 
      "name": "cifar10_mobilenet56_0.5/stg0/blk3/body/batchnorm1_running_mean", 
      "attrs": {
        "__dtype__": "0", 
        "__init__": "zeros", 
        "__lr_mult__": "1.0", 
        "__shape__": "(0,)", 
        "__storage_type__": "0", 
        "__wd_mult__": "1.0"
      }, 
      "inputs": []
    }, 
    {
      "op": "null", 
      "name": "cifar10_mobilenet56_0.5/stg0/blk3/body/batchnorm1_running_var", 
      "attrs": {
        "__dtype__": "0", 
        "__init__": "ones", 
        "__lr_mult__": "1.0", 
        "__shape__": "(0,)", 
        "__storage_type__": "0", 
        "__wd_mult__": "1.0"
      }, 
      "inputs": []
    }, 
    {
      "op": "BatchNorm", 
      "name": "cifar10_mobilenet56_0.5/stg0/blk3/body/batchnorm1_fwd", 
      "attrs": {
        "axis": "1", 
        "eps": "1e-05", 
        "fix_gamma": "False", 
        "momentum": "0.9", 
        "use_global_stats": "False"
      }, 
      "inputs": [[105, 0, 0], [106, 0, 0], [107, 0, 0], [108, 0, 1], [109, 0, 1]]
    }, 
    {
      "op": "Activation", 
      "name": "cifar10_mobilenet56_0.5/stg0/blk3/body/relu1_fwd", 
      "attrs": {"act_type": "relu"}, 
      "inputs": [[110, 0, 0]]
    }, 
    {
      "op": "null", 
      "name": "cifar10_mobilenet56_0.5/stg0/blk3/body/conv1_weight", 
      "attrs": {
        "__dtype__": "0", 
        "__lr_mult__": "1.0", 
        "__shape__": "(16, 0, 3, 3)", 
        "__storage_type__": "0", 
        "__wd_mult__": "1.0"
      }, 
      "inputs": []
    }, 
    {
      "op": "Convolution", 
      "name": "cifar10_mobilenet56_0.5/stg0/blk3/body/conv1_fwd", 
      "attrs": {
        "dilate": "(1, 1)", 
        "kernel": "(3, 3)", 
        "layout": "NCHW", 
        "no_bias": "True", 
        "num_filter": "16", 
        "num_group": "16", 
        "pad": "(1, 1)", 
        "stride": "(1, 1)"
      }, 
      "inputs": [[111, 0, 0], [112, 0, 0]]
    }, 
    {
      "op": "null", 
      "name": "cifar10_mobilenet56_0.5/stg0/blk3/body/batchnorm2_gamma", 
      "attrs": {
        "__dtype__": "0", 
        "__init__": "ones", 
        "__lr_mult__": "1.0", 
        "__shape__": "(0,)", 
        "__storage_type__": "0", 
        "__wd_mult__": "1.0"
      }, 
      "inputs": []
    }, 
    {
      "op": "null", 
      "name": "cifar10_mobilenet56_0.5/stg0/blk3/body/batchnorm2_beta", 
      "attrs": {
        "__dtype__": "0", 
        "__init__": "zeros", 
        "__lr_mult__": "1.0", 
        "__shape__": "(0,)", 
        "__storage_type__": "0", 
        "__wd_mult__": "1.0"
      }, 
      "inputs": []
    }, 
    {
      "op": "null", 
      "name": "cifar10_mobilenet56_0.5/stg0/blk3/body/batchnorm2_running_mean", 
      "attrs": {
        "__dtype__": "0", 
        "__init__": "zeros", 
        "__lr_mult__": "1.0", 
        "__shape__": "(0,)", 
        "__storage_type__": "0", 
        "__wd_mult__": "1.0"
      }, 
      "inputs": []
    }, 
    {
      "op": "null", 
      "name": "cifar10_mobilenet56_0.5/stg0/blk3/body/batchnorm2_running_var", 
      "attrs": {
        "__dtype__": "0", 
        "__init__": "ones", 
        "__lr_mult__": "1.0", 
        "__shape__": "(0,)", 
        "__storage_type__": "0", 
        "__wd_mult__": "1.0"
      }, 
      "inputs": []
    }, 
    {
      "op": "BatchNorm", 
      "name": "cifar10_mobilenet56_0.5/stg0/blk3/body/batchnorm2_fwd", 
      "attrs": {
        "axis": "1", 
        "eps": "1e-05", 
        "fix_gamma": "False", 
        "momentum": "0.9", 
        "use_global_stats": "False"
      }, 
      "inputs": [[113, 0, 0], [114, 0, 0], [115, 0, 0], [116, 0, 1], [117, 0, 1]]
    }, 
    {
      "op": "Activation", 
      "name": "cifar10_mobilenet56_0.5/stg0/blk3/body/relu2_fwd", 
      "attrs": {"act_type": "relu"}, 
      "inputs": [[118, 0, 0]]
    }, 
    {
      "op": "null", 
      "name": "cifar10_mobilenet56_0.5/stg0/blk3/body/conv2_weight", 
      "attrs": {
        "__dtype__": "0", 
        "__lr_mult__": "1.0", 
        "__shape__": "(32, 0, 1, 1)", 
        "__storage_type__": "0", 
        "__wd_mult__": "1.0"
      }, 
      "inputs": []
    }, 
    {
      "op": "Convolution", 
      "name": "cifar10_mobilenet56_0.5/stg0/blk3/body/conv2_fwd", 
      "attrs": {
        "dilate": "(1, 1)", 
        "kernel": "(1, 1)", 
        "layout": "NCHW", 
        "no_bias": "True", 
        "num_filter": "32", 
        "num_group": "1", 
        "pad": "(0, 0)", 
        "stride": "(1, 1)"
      }, 
      "inputs": [[119, 0, 0], [120, 0, 0]]
    }, 
    {
      "op": "null", 
      "name": "cifar10_mobilenet56_0.5/stg0/blk3/body/batchnorm3_gamma", 
      "attrs": {
        "__dtype__": "0", 
        "__init__": "ones", 
        "__lr_mult__": "1.0", 
        "__shape__": "(0,)", 
        "__storage_type__": "0", 
        "__wd_mult__": "1.0"
      }, 
      "inputs": []
    }, 
    {
      "op": "null", 
      "name": "cifar10_mobilenet56_0.5/stg0/blk3/body/batchnorm3_beta", 
      "attrs": {
        "__dtype__": "0", 
        "__init__": "zeros", 
        "__lr_mult__": "1.0", 
        "__shape__": "(0,)", 
        "__storage_type__": "0", 
        "__wd_mult__": "1.0"
      }, 
      "inputs": []
    }, 
    {
      "op": "null", 
      "name": "cifar10_mobilenet56_0.5/stg0/blk3/body/batchnorm3_running_mean", 
      "attrs": {
        "__dtype__": "0", 
        "__init__": "zeros", 
        "__lr_mult__": "1.0", 
        "__shape__": "(0,)", 
        "__storage_type__": "0", 
        "__wd_mult__": "1.0"
      }, 
      "inputs": []
    }, 
    {
      "op": "null", 
      "name": "cifar10_mobilenet56_0.5/stg0/blk3/body/batchnorm3_running_var", 
      "attrs": {
        "__dtype__": "0", 
        "__init__": "ones", 
        "__lr_mult__": "1.0", 
        "__shape__": "(0,)", 
        "__storage_type__": "0", 
        "__wd_mult__": "1.0"
      }, 
      "inputs": []
    }, 
    {
      "op": "BatchNorm", 
      "name": "cifar10_mobilenet56_0.5/stg0/blk3/body/batchnorm3_fwd", 
      "attrs": {
        "axis": "1", 
        "eps": "1e-05", 
        "fix_gamma": "False", 
        "momentum": "0.9", 
        "use_global_stats": "False"
      }, 
      "inputs": [[121, 0, 0], [122, 0, 0], [123, 0, 0], [124, 0, 1], [125, 0, 1]]
    }, 
    {
      "op": "elemwise_add", 
      "name": "cifar10_mobilenet56_0.5/stg0/blk3/_plus0", 
      "inputs": [[126, 0, 0], [97, 0, 0]]
    }, 
    {
      "op": "null", 
      "name": "cifar10_mobilenet56_0.5/stg0/blk4/body/batchnorm0_gamma", 
      "attrs": {
        "__dtype__": "0", 
        "__init__": "ones", 
        "__lr_mult__": "1.0", 
        "__shape__": "(0,)", 
        "__storage_type__": "0", 
        "__wd_mult__": "1.0"
      }, 
      "inputs": []
    }, 
    {
      "op": "null", 
      "name": "cifar10_mobilenet56_0.5/stg0/blk4/body/batchnorm0_beta", 
      "attrs": {
        "__dtype__": "0", 
        "__init__": "zeros", 
        "__lr_mult__": "1.0", 
        "__shape__": "(0,)", 
        "__storage_type__": "0", 
        "__wd_mult__": "1.0"
      }, 
      "inputs": []
    }, 
    {
      "op": "null", 
      "name": "cifar10_mobilenet56_0.5/stg0/blk4/body/batchnorm0_running_mean", 
      "attrs": {
        "__dtype__": "0", 
        "__init__": "zeros", 
        "__lr_mult__": "1.0", 
        "__shape__": "(0,)", 
        "__storage_type__": "0", 
        "__wd_mult__": "1.0"
      }, 
      "inputs": []
    }, 
    {
      "op": "null", 
      "name": "cifar10_mobilenet56_0.5/stg0/blk4/body/batchnorm0_running_var", 
      "attrs": {
        "__dtype__": "0", 
        "__init__": "ones", 
        "__lr_mult__": "1.0", 
        "__shape__": "(0,)", 
        "__storage_type__": "0", 
        "__wd_mult__": "1.0"
      }, 
      "inputs": []
    }, 
    {
      "op": "BatchNorm", 
      "name": "cifar10_mobilenet56_0.5/stg0/blk4/body/batchnorm0_fwd", 
      "attrs": {
        "axis": "1", 
        "eps": "1e-05", 
        "fix_gamma": "False", 
        "momentum": "0.9", 
        "use_global_stats": "False"
      }, 
      "inputs": [[127, 0, 0], [128, 0, 0], [129, 0, 0], [130, 0, 1], [131, 0, 1]]
    }, 
    {
      "op": "Activation", 
      "name": "cifar10_mobilenet56_0.5/stg0/blk4/body/relu0_fwd", 
      "attrs": {"act_type": "relu"}, 
      "inputs": [[132, 0, 0]]
    }, 
    {
      "op": "null", 
      "name": "cifar10_mobilenet56_0.5/stg0/blk4/body/conv0_weight", 
      "attrs": {
        "__dtype__": "0", 
        "__lr_mult__": "1.0", 
        "__shape__": "(16, 0, 1, 1)", 
        "__storage_type__": "0", 
        "__wd_mult__": "1.0"
      }, 
      "inputs": []
    }, 
    {
      "op": "Convolution", 
      "name": "cifar10_mobilenet56_0.5/stg0/blk4/body/conv0_fwd", 
      "attrs": {
        "dilate": "(1, 1)", 
        "kernel": "(1, 1)", 
        "layout": "NCHW", 
        "no_bias": "True", 
        "num_filter": "16", 
        "num_group": "1", 
        "pad": "(0, 0)", 
        "stride": "(1, 1)"
      }, 
      "inputs": [[133, 0, 0], [134, 0, 0]]
    }, 
    {
      "op": "null", 
      "name": "cifar10_mobilenet56_0.5/stg0/blk4/body/batchnorm1_gamma", 
      "attrs": {
        "__dtype__": "0", 
        "__init__": "ones", 
        "__lr_mult__": "1.0", 
        "__shape__": "(0,)", 
        "__storage_type__": "0", 
        "__wd_mult__": "1.0"
      }, 
      "inputs": []
    }, 
    {
      "op": "null", 
      "name": "cifar10_mobilenet56_0.5/stg0/blk4/body/batchnorm1_beta", 
      "attrs": {
        "__dtype__": "0", 
        "__init__": "zeros", 
        "__lr_mult__": "1.0", 
        "__shape__": "(0,)", 
        "__storage_type__": "0", 
        "__wd_mult__": "1.0"
      }, 
      "inputs": []
    }, 
    {
      "op": "null", 
      "name": "cifar10_mobilenet56_0.5/stg0/blk4/body/batchnorm1_running_mean", 
      "attrs": {
        "__dtype__": "0", 
        "__init__": "zeros", 
        "__lr_mult__": "1.0", 
        "__shape__": "(0,)", 
        "__storage_type__": "0", 
        "__wd_mult__": "1.0"
      }, 
      "inputs": []
    }, 
    {
      "op": "null", 
      "name": "cifar10_mobilenet56_0.5/stg0/blk4/body/batchnorm1_running_var", 
      "attrs": {
        "__dtype__": "0", 
        "__init__": "ones", 
        "__lr_mult__": "1.0", 
        "__shape__": "(0,)", 
        "__storage_type__": "0", 
        "__wd_mult__": "1.0"
      }, 
      "inputs": []
    }, 
    {
      "op": "BatchNorm", 
      "name": "cifar10_mobilenet56_0.5/stg0/blk4/body/batchnorm1_fwd", 
      "attrs": {
        "axis": "1", 
        "eps": "1e-05", 
        "fix_gamma": "False", 
        "momentum": "0.9", 
        "use_global_stats": "False"
      }, 
      "inputs": [[135, 0, 0], [136, 0, 0], [137, 0, 0], [138, 0, 1], [139, 0, 1]]
    }, 
    {
      "op": "Activation", 
      "name": "cifar10_mobilenet56_0.5/stg0/blk4/body/relu1_fwd", 
      "attrs": {"act_type": "relu"}, 
      "inputs": [[140, 0, 0]]
    }, 
    {
      "op": "null", 
      "name": "cifar10_mobilenet56_0.5/stg0/blk4/body/conv1_weight", 
      "attrs": {
        "__dtype__": "0", 
        "__lr_mult__": "1.0", 
        "__shape__": "(16, 0, 3, 3)", 
        "__storage_type__": "0", 
        "__wd_mult__": "1.0"
      }, 
      "inputs": []
    }, 
    {
      "op": "Convolution", 
      "name": "cifar10_mobilenet56_0.5/stg0/blk4/body/conv1_fwd", 
      "attrs": {
        "dilate": "(1, 1)", 
        "kernel": "(3, 3)", 
        "layout": "NCHW", 
        "no_bias": "True", 
        "num_filter": "16", 
        "num_group": "16", 
        "pad": "(1, 1)", 
        "stride": "(1, 1)"
      }, 
      "inputs": [[141, 0, 0], [142, 0, 0]]
    }, 
    {
      "op": "null", 
      "name": "cifar10_mobilenet56_0.5/stg0/blk4/body/batchnorm2_gamma", 
      "attrs": {
        "__dtype__": "0", 
        "__init__": "ones", 
        "__lr_mult__": "1.0", 
        "__shape__": "(0,)", 
        "__storage_type__": "0", 
        "__wd_mult__": "1.0"
      }, 
      "inputs": []
    }, 
    {
      "op": "null", 
      "name": "cifar10_mobilenet56_0.5/stg0/blk4/body/batchnorm2_beta", 
      "attrs": {
        "__dtype__": "0", 
        "__init__": "zeros", 
        "__lr_mult__": "1.0", 
        "__shape__": "(0,)", 
        "__storage_type__": "0", 
        "__wd_mult__": "1.0"
      }, 
      "inputs": []
    }, 
    {
      "op": "null", 
      "name": "cifar10_mobilenet56_0.5/stg0/blk4/body/batchnorm2_running_mean", 
      "attrs": {
        "__dtype__": "0", 
        "__init__": "zeros", 
        "__lr_mult__": "1.0", 
        "__shape__": "(0,)", 
        "__storage_type__": "0", 
        "__wd_mult__": "1.0"
      }, 
      "inputs": []
    }, 
    {
      "op": "null", 
      "name": "cifar10_mobilenet56_0.5/stg0/blk4/body/batchnorm2_running_var", 
      "attrs": {
        "__dtype__": "0", 
        "__init__": "ones", 
        "__lr_mult__": "1.0", 
        "__shape__": "(0,)", 
        "__storage_type__": "0", 
        "__wd_mult__": "1.0"
      }, 
      "inputs": []
    }, 
    {
      "op": "BatchNorm", 
      "name": "cifar10_mobilenet56_0.5/stg0/blk4/body/batchnorm2_fwd", 
      "attrs": {
        "axis": "1", 
        "eps": "1e-05", 
        "fix_gamma": "False", 
        "momentum": "0.9", 
        "use_global_stats": "False"
      }, 
      "inputs": [[143, 0, 0], [144, 0, 0], [145, 0, 0], [146, 0, 1], [147, 0, 1]]
    }, 
    {
      "op": "Activation", 
      "name": "cifar10_mobilenet56_0.5/stg0/blk4/body/relu2_fwd", 
      "attrs": {"act_type": "relu"}, 
      "inputs": [[148, 0, 0]]
    }, 
    {
      "op": "null", 
      "name": "cifar10_mobilenet56_0.5/stg0/blk4/body/conv2_weight", 
      "attrs": {
        "__dtype__": "0", 
        "__lr_mult__": "1.0", 
        "__shape__": "(32, 0, 1, 1)", 
        "__storage_type__": "0", 
        "__wd_mult__": "1.0"
      }, 
      "inputs": []
    }, 
    {
      "op": "Convolution", 
      "name": "cifar10_mobilenet56_0.5/stg0/blk4/body/conv2_fwd", 
      "attrs": {
        "dilate": "(1, 1)", 
        "kernel": "(1, 1)", 
        "layout": "NCHW", 
        "no_bias": "True", 
        "num_filter": "32", 
        "num_group": "1", 
        "pad": "(0, 0)", 
        "stride": "(1, 1)"
      }, 
      "inputs": [[149, 0, 0], [150, 0, 0]]
    }, 
    {
      "op": "null", 
      "name": "cifar10_mobilenet56_0.5/stg0/blk4/body/batchnorm3_gamma", 
      "attrs": {
        "__dtype__": "0", 
        "__init__": "ones", 
        "__lr_mult__": "1.0", 
        "__shape__": "(0,)", 
        "__storage_type__": "0", 
        "__wd_mult__": "1.0"
      }, 
      "inputs": []
    }, 
    {
      "op": "null", 
      "name": "cifar10_mobilenet56_0.5/stg0/blk4/body/batchnorm3_beta", 
      "attrs": {
        "__dtype__": "0", 
        "__init__": "zeros", 
        "__lr_mult__": "1.0", 
        "__shape__": "(0,)", 
        "__storage_type__": "0", 
        "__wd_mult__": "1.0"
      }, 
      "inputs": []
    }, 
    {
      "op": "null", 
      "name": "cifar10_mobilenet56_0.5/stg0/blk4/body/batchnorm3_running_mean", 
      "attrs": {
        "__dtype__": "0", 
        "__init__": "zeros", 
        "__lr_mult__": "1.0", 
        "__shape__": "(0,)", 
        "__storage_type__": "0", 
        "__wd_mult__": "1.0"
      }, 
      "inputs": []
    }, 
    {
      "op": "null", 
      "name": "cifar10_mobilenet56_0.5/stg0/blk4/body/batchnorm3_running_var", 
      "attrs": {
        "__dtype__": "0", 
        "__init__": "ones", 
        "__lr_mult__": "1.0", 
        "__shape__": "(0,)", 
        "__storage_type__": "0", 
        "__wd_mult__": "1.0"
      }, 
      "inputs": []
    }, 
    {
      "op": "BatchNorm", 
      "name": "cifar10_mobilenet56_0.5/stg0/blk4/body/batchnorm3_fwd", 
      "attrs": {
        "axis": "1", 
        "eps": "1e-05", 
        "fix_gamma": "False", 
        "momentum": "0.9", 
        "use_global_stats": "False"
      }, 
      "inputs": [[151, 0, 0], [152, 0, 0], [153, 0, 0], [154, 0, 1], [155, 0, 1]]
    }, 
    {
      "op": "elemwise_add", 
      "name": "cifar10_mobilenet56_0.5/stg0/blk4/_plus0", 
      "inputs": [[156, 0, 0], [127, 0, 0]]
    }, 
    {
      "op": "null", 
      "name": "cifar10_mobilenet56_0.5/stg0/blk5/body/batchnorm0_gamma", 
      "attrs": {
        "__dtype__": "0", 
        "__init__": "ones", 
        "__lr_mult__": "1.0", 
        "__shape__": "(0,)", 
        "__storage_type__": "0", 
        "__wd_mult__": "1.0"
      }, 
      "inputs": []
    }, 
    {
      "op": "null", 
      "name": "cifar10_mobilenet56_0.5/stg0/blk5/body/batchnorm0_beta", 
      "attrs": {
        "__dtype__": "0", 
        "__init__": "zeros", 
        "__lr_mult__": "1.0", 
        "__shape__": "(0,)", 
        "__storage_type__": "0", 
        "__wd_mult__": "1.0"
      }, 
      "inputs": []
    }, 
    {
      "op": "null", 
      "name": "cifar10_mobilenet56_0.5/stg0/blk5/body/batchnorm0_running_mean", 
      "attrs": {
        "__dtype__": "0", 
        "__init__": "zeros", 
        "__lr_mult__": "1.0", 
        "__shape__": "(0,)", 
        "__storage_type__": "0", 
        "__wd_mult__": "1.0"
      }, 
      "inputs": []
    }, 
    {
      "op": "null", 
      "name": "cifar10_mobilenet56_0.5/stg0/blk5/body/batchnorm0_running_var", 
      "attrs": {
        "__dtype__": "0", 
        "__init__": "ones", 
        "__lr_mult__": "1.0", 
        "__shape__": "(0,)", 
        "__storage_type__": "0", 
        "__wd_mult__": "1.0"
      }, 
      "inputs": []
    }, 
    {
      "op": "BatchNorm", 
      "name": "cifar10_mobilenet56_0.5/stg0/blk5/body/batchnorm0_fwd", 
      "attrs": {
        "axis": "1", 
        "eps": "1e-05", 
        "fix_gamma": "False", 
        "momentum": "0.9", 
        "use_global_stats": "False"
      }, 
      "inputs": [[157, 0, 0], [158, 0, 0], [159, 0, 0], [160, 0, 1], [161, 0, 1]]
    }, 
    {
      "op": "Activation", 
      "name": "cifar10_mobilenet56_0.5/stg0/blk5/body/relu0_fwd", 
      "attrs": {"act_type": "relu"}, 
      "inputs": [[162, 0, 0]]
    }, 
    {
      "op": "null", 
      "name": "cifar10_mobilenet56_0.5/stg0/blk5/body/conv0_weight", 
      "attrs": {
        "__dtype__": "0", 
        "__lr_mult__": "1.0", 
        "__shape__": "(16, 0, 1, 1)", 
        "__storage_type__": "0", 
        "__wd_mult__": "1.0"
      }, 
      "inputs": []
    }, 
    {
      "op": "Convolution", 
      "name": "cifar10_mobilenet56_0.5/stg0/blk5/body/conv0_fwd", 
      "attrs": {
        "dilate": "(1, 1)", 
        "kernel": "(1, 1)", 
        "layout": "NCHW", 
        "no_bias": "True", 
        "num_filter": "16", 
        "num_group": "1", 
        "pad": "(0, 0)", 
        "stride": "(1, 1)"
      }, 
      "inputs": [[163, 0, 0], [164, 0, 0]]
    }, 
    {
      "op": "null", 
      "name": "cifar10_mobilenet56_0.5/stg0/blk5/body/batchnorm1_gamma", 
      "attrs": {
        "__dtype__": "0", 
        "__init__": "ones", 
        "__lr_mult__": "1.0", 
        "__shape__": "(0,)", 
        "__storage_type__": "0", 
        "__wd_mult__": "1.0"
      }, 
      "inputs": []
    }, 
    {
      "op": "null", 
      "name": "cifar10_mobilenet56_0.5/stg0/blk5/body/batchnorm1_beta", 
      "attrs": {
        "__dtype__": "0", 
        "__init__": "zeros", 
        "__lr_mult__": "1.0", 
        "__shape__": "(0,)", 
        "__storage_type__": "0", 
        "__wd_mult__": "1.0"
      }, 
      "inputs": []
    }, 
    {
      "op": "null", 
      "name": "cifar10_mobilenet56_0.5/stg0/blk5/body/batchnorm1_running_mean", 
      "attrs": {
        "__dtype__": "0", 
        "__init__": "zeros", 
        "__lr_mult__": "1.0", 
        "__shape__": "(0,)", 
        "__storage_type__": "0", 
        "__wd_mult__": "1.0"
      }, 
      "inputs": []
    }, 
    {
      "op": "null", 
      "name": "cifar10_mobilenet56_0.5/stg0/blk5/body/batchnorm1_running_var", 
      "attrs": {
        "__dtype__": "0", 
        "__init__": "ones", 
        "__lr_mult__": "1.0", 
        "__shape__": "(0,)", 
        "__storage_type__": "0", 
        "__wd_mult__": "1.0"
      }, 
      "inputs": []
    }, 
    {
      "op": "BatchNorm", 
      "name": "cifar10_mobilenet56_0.5/stg0/blk5/body/batchnorm1_fwd", 
      "attrs": {
        "axis": "1", 
        "eps": "1e-05", 
        "fix_gamma": "False", 
        "momentum": "0.9", 
        "use_global_stats": "False"
      }, 
      "inputs": [[165, 0, 0], [166, 0, 0], [167, 0, 0], [168, 0, 1], [169, 0, 1]]
    }, 
    {
      "op": "Activation", 
      "name": "cifar10_mobilenet56_0.5/stg0/blk5/body/relu1_fwd", 
      "attrs": {"act_type": "relu"}, 
      "inputs": [[170, 0, 0]]
    }, 
    {
      "op": "null", 
      "name": "cifar10_mobilenet56_0.5/stg0/blk5/body/conv1_weight", 
      "attrs": {
        "__dtype__": "0", 
        "__lr_mult__": "1.0", 
        "__shape__": "(16, 0, 3, 3)", 
        "__storage_type__": "0", 
        "__wd_mult__": "1.0"
      }, 
      "inputs": []
    }, 
    {
      "op": "Convolution", 
      "name": "cifar10_mobilenet56_0.5/stg0/blk5/body/conv1_fwd", 
      "attrs": {
        "dilate": "(1, 1)", 
        "kernel": "(3, 3)", 
        "layout": "NCHW", 
        "no_bias": "True", 
        "num_filter": "16", 
        "num_group": "16", 
        "pad": "(1, 1)", 
        "stride": "(1, 1)"
      }, 
      "inputs": [[171, 0, 0], [172, 0, 0]]
    }, 
    {
      "op": "null", 
      "name": "cifar10_mobilenet56_0.5/stg0/blk5/body/batchnorm2_gamma", 
      "attrs": {
        "__dtype__": "0", 
        "__init__": "ones", 
        "__lr_mult__": "1.0", 
        "__shape__": "(0,)", 
        "__storage_type__": "0", 
        "__wd_mult__": "1.0"
      }, 
      "inputs": []
    }, 
    {
      "op": "null", 
      "name": "cifar10_mobilenet56_0.5/stg0/blk5/body/batchnorm2_beta", 
      "attrs": {
        "__dtype__": "0", 
        "__init__": "zeros", 
        "__lr_mult__": "1.0", 
        "__shape__": "(0,)", 
        "__storage_type__": "0", 
        "__wd_mult__": "1.0"
      }, 
      "inputs": []
    }, 
    {
      "op": "null", 
      "name": "cifar10_mobilenet56_0.5/stg0/blk5/body/batchnorm2_running_mean", 
      "attrs": {
        "__dtype__": "0", 
        "__init__": "zeros", 
        "__lr_mult__": "1.0", 
        "__shape__": "(0,)", 
        "__storage_type__": "0", 
        "__wd_mult__": "1.0"
      }, 
      "inputs": []
    }, 
    {
      "op": "null", 
      "name": "cifar10_mobilenet56_0.5/stg0/blk5/body/batchnorm2_running_var", 
      "attrs": {
        "__dtype__": "0", 
        "__init__": "ones", 
        "__lr_mult__": "1.0", 
        "__shape__": "(0,)", 
        "__storage_type__": "0", 
        "__wd_mult__": "1.0"
      }, 
      "inputs": []
    }, 
    {
      "op": "BatchNorm", 
      "name": "cifar10_mobilenet56_0.5/stg0/blk5/body/batchnorm2_fwd", 
      "attrs": {
        "axis": "1", 
        "eps": "1e-05", 
        "fix_gamma": "False", 
        "momentum": "0.9", 
        "use_global_stats": "False"
      }, 
      "inputs": [[173, 0, 0], [174, 0, 0], [175, 0, 0], [176, 0, 1], [177, 0, 1]]
    }, 
    {
      "op": "Activation", 
      "name": "cifar10_mobilenet56_0.5/stg0/blk5/body/relu2_fwd", 
      "attrs": {"act_type": "relu"}, 
      "inputs": [[178, 0, 0]]
    }, 
    {
      "op": "null", 
      "name": "cifar10_mobilenet56_0.5/stg0/blk5/body/conv2_weight", 
      "attrs": {
        "__dtype__": "0", 
        "__lr_mult__": "1.0", 
        "__shape__": "(32, 0, 1, 1)", 
        "__storage_type__": "0", 
        "__wd_mult__": "1.0"
      }, 
      "inputs": []
    }, 
    {
      "op": "Convolution", 
      "name": "cifar10_mobilenet56_0.5/stg0/blk5/body/conv2_fwd", 
      "attrs": {
        "dilate": "(1, 1)", 
        "kernel": "(1, 1)", 
        "layout": "NCHW", 
        "no_bias": "True", 
        "num_filter": "32", 
        "num_group": "1", 
        "pad": "(0, 0)", 
        "stride": "(1, 1)"
      }, 
      "inputs": [[179, 0, 0], [180, 0, 0]]
    }, 
    {
      "op": "null", 
      "name": "cifar10_mobilenet56_0.5/stg0/blk5/body/batchnorm3_gamma", 
      "attrs": {
        "__dtype__": "0", 
        "__init__": "ones", 
        "__lr_mult__": "1.0", 
        "__shape__": "(0,)", 
        "__storage_type__": "0", 
        "__wd_mult__": "1.0"
      }, 
      "inputs": []
    }, 
    {
      "op": "null", 
      "name": "cifar10_mobilenet56_0.5/stg0/blk5/body/batchnorm3_beta", 
      "attrs": {
        "__dtype__": "0", 
        "__init__": "zeros", 
        "__lr_mult__": "1.0", 
        "__shape__": "(0,)", 
        "__storage_type__": "0", 
        "__wd_mult__": "1.0"
      }, 
      "inputs": []
    }, 
    {
      "op": "null", 
      "name": "cifar10_mobilenet56_0.5/stg0/blk5/body/batchnorm3_running_mean", 
      "attrs": {
        "__dtype__": "0", 
        "__init__": "zeros", 
        "__lr_mult__": "1.0", 
        "__shape__": "(0,)", 
        "__storage_type__": "0", 
        "__wd_mult__": "1.0"
      }, 
      "inputs": []
    }, 
    {
      "op": "null", 
      "name": "cifar10_mobilenet56_0.5/stg0/blk5/body/batchnorm3_running_var", 
      "attrs": {
        "__dtype__": "0", 
        "__init__": "ones", 
        "__lr_mult__": "1.0", 
        "__shape__": "(0,)", 
        "__storage_type__": "0", 
        "__wd_mult__": "1.0"
      }, 
      "inputs": []
    }, 
    {
      "op": "BatchNorm", 
      "name": "cifar10_mobilenet56_0.5/stg0/blk5/body/batchnorm3_fwd", 
      "attrs": {
        "axis": "1", 
        "eps": "1e-05", 
        "fix_gamma": "False", 
        "momentum": "0.9", 
        "use_global_stats": "False"
      }, 
      "inputs": [[181, 0, 0], [182, 0, 0], [183, 0, 0], [184, 0, 1], [185, 0, 1]]
    }, 
    {
      "op": "elemwise_add", 
      "name": "cifar10_mobilenet56_0.5/stg0/blk5/_plus0", 
      "inputs": [[186, 0, 0], [157, 0, 0]]
    }, 
    {
      "op": "null", 
      "name": "cifar10_mobilenet56_0.5/stg1/blk0/body/batchnorm0_gamma", 
      "attrs": {
        "__dtype__": "0", 
        "__init__": "ones", 
        "__lr_mult__": "1.0", 
        "__shape__": "(0,)", 
        "__storage_type__": "0", 
        "__wd_mult__": "1.0"
      }, 
      "inputs": []
    }, 
    {
      "op": "null", 
      "name": "cifar10_mobilenet56_0.5/stg1/blk0/body/batchnorm0_beta", 
      "attrs": {
        "__dtype__": "0", 
        "__init__": "zeros", 
        "__lr_mult__": "1.0", 
        "__shape__": "(0,)", 
        "__storage_type__": "0", 
        "__wd_mult__": "1.0"
      }, 
      "inputs": []
    }, 
    {
      "op": "null", 
      "name": "cifar10_mobilenet56_0.5/stg1/blk0/body/batchnorm0_running_mean", 
      "attrs": {
        "__dtype__": "0", 
        "__init__": "zeros", 
        "__lr_mult__": "1.0", 
        "__shape__": "(0,)", 
        "__storage_type__": "0", 
        "__wd_mult__": "1.0"
      }, 
      "inputs": []
    }, 
    {
      "op": "null", 
      "name": "cifar10_mobilenet56_0.5/stg1/blk0/body/batchnorm0_running_var", 
      "attrs": {
        "__dtype__": "0", 
        "__init__": "ones", 
        "__lr_mult__": "1.0", 
        "__shape__": "(0,)", 
        "__storage_type__": "0", 
        "__wd_mult__": "1.0"
      }, 
      "inputs": []
    }, 
    {
      "op": "BatchNorm", 
      "name": "cifar10_mobilenet56_0.5/stg1/blk0/body/batchnorm0_fwd", 
      "attrs": {
        "axis": "1", 
        "eps": "1e-05", 
        "fix_gamma": "False", 
        "momentum": "0.9", 
        "use_global_stats": "False"
      }, 
      "inputs": [[187, 0, 0], [188, 0, 0], [189, 0, 0], [190, 0, 1], [191, 0, 1]]
    }, 
    {
      "op": "Activation", 
      "name": "cifar10_mobilenet56_0.5/stg1/blk0/body/relu0_fwd", 
      "attrs": {"act_type": "relu"}, 
      "inputs": [[192, 0, 0]]
    }, 
    {
      "op": "null", 
      "name": "cifar10_mobilenet56_0.5/stg1/blk0/body/conv0_weight", 
      "attrs": {
        "__dtype__": "0", 
        "__lr_mult__": "1.0", 
        "__shape__": "(32, 0, 1, 1)", 
        "__storage_type__": "0", 
        "__wd_mult__": "1.0"
      }, 
      "inputs": []
    }, 
    {
      "op": "Convolution", 
      "name": "cifar10_mobilenet56_0.5/stg1/blk0/body/conv0_fwd", 
      "attrs": {
        "dilate": "(1, 1)", 
        "kernel": "(1, 1)", 
        "layout": "NCHW", 
        "no_bias": "True", 
        "num_filter": "32", 
        "num_group": "1", 
        "pad": "(0, 0)", 
        "stride": "(1, 1)"
      }, 
      "inputs": [[193, 0, 0], [194, 0, 0]]
    }, 
    {
      "op": "null", 
      "name": "cifar10_mobilenet56_0.5/stg1/blk0/body/batchnorm1_gamma", 
      "attrs": {
        "__dtype__": "0", 
        "__init__": "ones", 
        "__lr_mult__": "1.0", 
        "__shape__": "(0,)", 
        "__storage_type__": "0", 
        "__wd_mult__": "1.0"
      }, 
      "inputs": []
    }, 
    {
      "op": "null", 
      "name": "cifar10_mobilenet56_0.5/stg1/blk0/body/batchnorm1_beta", 
      "attrs": {
        "__dtype__": "0", 
        "__init__": "zeros", 
        "__lr_mult__": "1.0", 
        "__shape__": "(0,)", 
        "__storage_type__": "0", 
        "__wd_mult__": "1.0"
      }, 
      "inputs": []
    }, 
    {
      "op": "null", 
      "name": "cifar10_mobilenet56_0.5/stg1/blk0/body/batchnorm1_running_mean", 
      "attrs": {
        "__dtype__": "0", 
        "__init__": "zeros", 
        "__lr_mult__": "1.0", 
        "__shape__": "(0,)", 
        "__storage_type__": "0", 
        "__wd_mult__": "1.0"
      }, 
      "inputs": []
    }, 
    {
      "op": "null", 
      "name": "cifar10_mobilenet56_0.5/stg1/blk0/body/batchnorm1_running_var", 
      "attrs": {
        "__dtype__": "0", 
        "__init__": "ones", 
        "__lr_mult__": "1.0", 
        "__shape__": "(0,)", 
        "__storage_type__": "0", 
        "__wd_mult__": "1.0"
      }, 
      "inputs": []
    }, 
    {
      "op": "BatchNorm", 
      "name": "cifar10_mobilenet56_0.5/stg1/blk0/body/batchnorm1_fwd", 
      "attrs": {
        "axis": "1", 
        "eps": "1e-05", 
        "fix_gamma": "False", 
        "momentum": "0.9", 
        "use_global_stats": "False"
      }, 
      "inputs": [[195, 0, 0], [196, 0, 0], [197, 0, 0], [198, 0, 1], [199, 0, 1]]
    }, 
    {
      "op": "Activation", 
      "name": "cifar10_mobilenet56_0.5/stg1/blk0/body/relu1_fwd", 
      "attrs": {"act_type": "relu"}, 
      "inputs": [[200, 0, 0]]
    }, 
    {
      "op": "null", 
      "name": "cifar10_mobilenet56_0.5/stg1/blk0/body/conv1_weight", 
      "attrs": {
        "__dtype__": "0", 
        "__lr_mult__": "1.0", 
        "__shape__": "(32, 0, 3, 3)", 
        "__storage_type__": "0", 
        "__wd_mult__": "1.0"
      }, 
      "inputs": []
    }, 
    {
      "op": "Convolution", 
      "name": "cifar10_mobilenet56_0.5/stg1/blk0/body/conv1_fwd", 
      "attrs": {
        "dilate": "(1, 1)", 
        "kernel": "(3, 3)", 
        "layout": "NCHW", 
        "no_bias": "True", 
        "num_filter": "32", 
        "num_group": "32", 
        "pad": "(1, 1)", 
        "stride": "(2, 2)"
      }, 
      "inputs": [[201, 0, 0], [202, 0, 0]]
    }, 
    {
      "op": "null", 
      "name": "cifar10_mobilenet56_0.5/stg1/blk0/body/batchnorm2_gamma", 
      "attrs": {
        "__dtype__": "0", 
        "__init__": "ones", 
        "__lr_mult__": "1.0", 
        "__shape__": "(0,)", 
        "__storage_type__": "0", 
        "__wd_mult__": "1.0"
      }, 
      "inputs": []
    }, 
    {
      "op": "null", 
      "name": "cifar10_mobilenet56_0.5/stg1/blk0/body/batchnorm2_beta", 
      "attrs": {
        "__dtype__": "0", 
        "__init__": "zeros", 
        "__lr_mult__": "1.0", 
        "__shape__": "(0,)", 
        "__storage_type__": "0", 
        "__wd_mult__": "1.0"
      }, 
      "inputs": []
    }, 
    {
      "op": "null", 
      "name": "cifar10_mobilenet56_0.5/stg1/blk0/body/batchnorm2_running_mean", 
      "attrs": {
        "__dtype__": "0", 
        "__init__": "zeros", 
        "__lr_mult__": "1.0", 
        "__shape__": "(0,)", 
        "__storage_type__": "0", 
        "__wd_mult__": "1.0"
      }, 
      "inputs": []
    }, 
    {
      "op": "null", 
      "name": "cifar10_mobilenet56_0.5/stg1/blk0/body/batchnorm2_running_var", 
      "attrs": {
        "__dtype__": "0", 
        "__init__": "ones", 
        "__lr_mult__": "1.0", 
        "__shape__": "(0,)", 
        "__storage_type__": "0", 
        "__wd_mult__": "1.0"
      }, 
      "inputs": []
    }, 
    {
      "op": "BatchNorm", 
      "name": "cifar10_mobilenet56_0.5/stg1/blk0/body/batchnorm2_fwd", 
      "attrs": {
        "axis": "1", 
        "eps": "1e-05", 
        "fix_gamma": "False", 
        "momentum": "0.9", 
        "use_global_stats": "False"
      }, 
      "inputs": [[203, 0, 0], [204, 0, 0], [205, 0, 0], [206, 0, 1], [207, 0, 1]]
    }, 
    {
      "op": "Activation", 
      "name": "cifar10_mobilenet56_0.5/stg1/blk0/body/relu2_fwd", 
      "attrs": {"act_type": "relu"}, 
      "inputs": [[208, 0, 0]]
    }, 
    {
      "op": "null", 
      "name": "cifar10_mobilenet56_0.5/stg1/blk0/body/conv2_weight", 
      "attrs": {
        "__dtype__": "0", 
        "__lr_mult__": "1.0", 
        "__shape__": "(64, 0, 1, 1)", 
        "__storage_type__": "0", 
        "__wd_mult__": "1.0"
      }, 
      "inputs": []
    }, 
    {
      "op": "Convolution", 
      "name": "cifar10_mobilenet56_0.5/stg1/blk0/body/conv2_fwd", 
      "attrs": {
        "dilate": "(1, 1)", 
        "kernel": "(1, 1)", 
        "layout": "NCHW", 
        "no_bias": "True", 
        "num_filter": "64", 
        "num_group": "1", 
        "pad": "(0, 0)", 
        "stride": "(1, 1)"
      }, 
      "inputs": [[209, 0, 0], [210, 0, 0]]
    }, 
    {
      "op": "null", 
      "name": "cifar10_mobilenet56_0.5/stg1/blk0/body/batchnorm3_gamma", 
      "attrs": {
        "__dtype__": "0", 
        "__init__": "ones", 
        "__lr_mult__": "1.0", 
        "__shape__": "(0,)", 
        "__storage_type__": "0", 
        "__wd_mult__": "1.0"
      }, 
      "inputs": []
    }, 
    {
      "op": "null", 
      "name": "cifar10_mobilenet56_0.5/stg1/blk0/body/batchnorm3_beta", 
      "attrs": {
        "__dtype__": "0", 
        "__init__": "zeros", 
        "__lr_mult__": "1.0", 
        "__shape__": "(0,)", 
        "__storage_type__": "0", 
        "__wd_mult__": "1.0"
      }, 
      "inputs": []
    }, 
    {
      "op": "null", 
      "name": "cifar10_mobilenet56_0.5/stg1/blk0/body/batchnorm3_running_mean", 
      "attrs": {
        "__dtype__": "0", 
        "__init__": "zeros", 
        "__lr_mult__": "1.0", 
        "__shape__": "(0,)", 
        "__storage_type__": "0", 
        "__wd_mult__": "1.0"
      }, 
      "inputs": []
    }, 
    {
      "op": "null", 
      "name": "cifar10_mobilenet56_0.5/stg1/blk0/body/batchnorm3_running_var", 
      "attrs": {
        "__dtype__": "0", 
        "__init__": "ones", 
        "__lr_mult__": "1.0", 
        "__shape__": "(0,)", 
        "__storage_type__": "0", 
        "__wd_mult__": "1.0"
      }, 
      "inputs": []
    }, 
    {
      "op": "BatchNorm", 
      "name": "cifar10_mobilenet56_0.5/stg1/blk0/body/batchnorm3_fwd", 
      "attrs": {
        "axis": "1", 
        "eps": "1e-05", 
        "fix_gamma": "False", 
        "momentum": "0.9", 
        "use_global_stats": "False"
      }, 
      "inputs": [[211, 0, 0], [212, 0, 0], [213, 0, 0], [214, 0, 1], [215, 0, 1]]
    }, 
    {
      "op": "null", 
      "name": "cifar10_mobilenet56_0.5/stg1/blk0/conv0_weight", 
      "attrs": {
        "__dtype__": "0", 
        "__lr_mult__": "1.0", 
        "__shape__": "(64, 0, 1, 1)", 
        "__storage_type__": "0", 
        "__wd_mult__": "1.0"
      }, 
      "inputs": []
    }, 
    {
      "op": "Convolution", 
      "name": "cifar10_mobilenet56_0.5/stg1/blk0/conv0_fwd", 
      "attrs": {
        "dilate": "(1, 1)", 
        "kernel": "(1, 1)", 
        "layout": "NCHW", 
        "no_bias": "True", 
        "num_filter": "64", 
        "num_group": "1", 
        "pad": "(0, 0)", 
        "stride": "(2, 2)"
      }, 
      "inputs": [[187, 0, 0], [217, 0, 0]]
    }, 
    {
      "op": "null", 
      "name": "cifar10_mobilenet56_0.5/stg1/blk0/batchnorm0_gamma", 
      "attrs": {
        "__dtype__": "0", 
        "__init__": "ones", 
        "__lr_mult__": "1.0", 
        "__shape__": "(0,)", 
        "__storage_type__": "0", 
        "__wd_mult__": "1.0"
      }, 
      "inputs": []
    }, 
    {
      "op": "null", 
      "name": "cifar10_mobilenet56_0.5/stg1/blk0/batchnorm0_beta", 
      "attrs": {
        "__dtype__": "0", 
        "__init__": "zeros", 
        "__lr_mult__": "1.0", 
        "__shape__": "(0,)", 
        "__storage_type__": "0", 
        "__wd_mult__": "1.0"
      }, 
      "inputs": []
    }, 
    {
      "op": "null", 
      "name": "cifar10_mobilenet56_0.5/stg1/blk0/batchnorm0_running_mean", 
      "attrs": {
        "__dtype__": "0", 
        "__init__": "zeros", 
        "__lr_mult__": "1.0", 
        "__shape__": "(0,)", 
        "__storage_type__": "0", 
        "__wd_mult__": "1.0"
      }, 
      "inputs": []
    }, 
    {
      "op": "null", 
      "name": "cifar10_mobilenet56_0.5/stg1/blk0/batchnorm0_running_var", 
      "attrs": {
        "__dtype__": "0", 
        "__init__": "ones", 
        "__lr_mult__": "1.0", 
        "__shape__": "(0,)", 
        "__storage_type__": "0", 
        "__wd_mult__": "1.0"
      }, 
      "inputs": []
    }, 
    {
      "op": "BatchNorm", 
      "name": "cifar10_mobilenet56_0.5/stg1/blk0/batchnorm0_fwd", 
      "attrs": {
        "axis": "1", 
        "eps": "1e-05", 
        "fix_gamma": "False", 
        "momentum": "0.9", 
        "use_global_stats": "False"
      }, 
      "inputs": [[218, 0, 0], [219, 0, 0], [220, 0, 0], [221, 0, 1], [222, 0, 1]]
    }, 
    {
      "op": "elemwise_add", 
      "name": "cifar10_mobilenet56_0.5/stg1/blk0/_plus0", 
      "inputs": [[216, 0, 0], [223, 0, 0]]
    }, 
    {
      "op": "null", 
      "name": "cifar10_mobilenet56_0.5/stg1/blk1/body/batchnorm0_gamma", 
      "attrs": {
        "__dtype__": "0", 
        "__init__": "ones", 
        "__lr_mult__": "1.0", 
        "__shape__": "(0,)", 
        "__storage_type__": "0", 
        "__wd_mult__": "1.0"
      }, 
      "inputs": []
    }, 
    {
      "op": "null", 
      "name": "cifar10_mobilenet56_0.5/stg1/blk1/body/batchnorm0_beta", 
      "attrs": {
        "__dtype__": "0", 
        "__init__": "zeros", 
        "__lr_mult__": "1.0", 
        "__shape__": "(0,)", 
        "__storage_type__": "0", 
        "__wd_mult__": "1.0"
      }, 
      "inputs": []
    }, 
    {
      "op": "null", 
      "name": "cifar10_mobilenet56_0.5/stg1/blk1/body/batchnorm0_running_mean", 
      "attrs": {
        "__dtype__": "0", 
        "__init__": "zeros", 
        "__lr_mult__": "1.0", 
        "__shape__": "(0,)", 
        "__storage_type__": "0", 
        "__wd_mult__": "1.0"
      }, 
      "inputs": []
    }, 
    {
      "op": "null", 
      "name": "cifar10_mobilenet56_0.5/stg1/blk1/body/batchnorm0_running_var", 
      "attrs": {
        "__dtype__": "0", 
        "__init__": "ones", 
        "__lr_mult__": "1.0", 
        "__shape__": "(0,)", 
        "__storage_type__": "0", 
        "__wd_mult__": "1.0"
      }, 
      "inputs": []
    }, 
    {
      "op": "BatchNorm", 
      "name": "cifar10_mobilenet56_0.5/stg1/blk1/body/batchnorm0_fwd", 
      "attrs": {
        "axis": "1", 
        "eps": "1e-05", 
        "fix_gamma": "False", 
        "momentum": "0.9", 
        "use_global_stats": "False"
      }, 
      "inputs": [[224, 0, 0], [225, 0, 0], [226, 0, 0], [227, 0, 1], [228, 0, 1]]
    }, 
    {
      "op": "Activation", 
      "name": "cifar10_mobilenet56_0.5/stg1/blk1/body/relu0_fwd", 
      "attrs": {"act_type": "relu"}, 
      "inputs": [[229, 0, 0]]
    }, 
    {
      "op": "null", 
      "name": "cifar10_mobilenet56_0.5/stg1/blk1/body/conv0_weight", 
      "attrs": {
        "__dtype__": "0", 
        "__lr_mult__": "1.0", 
        "__shape__": "(32, 0, 1, 1)", 
        "__storage_type__": "0", 
        "__wd_mult__": "1.0"
      }, 
      "inputs": []
    }, 
    {
      "op": "Convolution", 
      "name": "cifar10_mobilenet56_0.5/stg1/blk1/body/conv0_fwd", 
      "attrs": {
        "dilate": "(1, 1)", 
        "kernel": "(1, 1)", 
        "layout": "NCHW", 
        "no_bias": "True", 
        "num_filter": "32", 
        "num_group": "1", 
        "pad": "(0, 0)", 
        "stride": "(1, 1)"
      }, 
      "inputs": [[230, 0, 0], [231, 0, 0]]
    }, 
    {
      "op": "null", 
      "name": "cifar10_mobilenet56_0.5/stg1/blk1/body/batchnorm1_gamma", 
      "attrs": {
        "__dtype__": "0", 
        "__init__": "ones", 
        "__lr_mult__": "1.0", 
        "__shape__": "(0,)", 
        "__storage_type__": "0", 
        "__wd_mult__": "1.0"
      }, 
      "inputs": []
    }, 
    {
      "op": "null", 
      "name": "cifar10_mobilenet56_0.5/stg1/blk1/body/batchnorm1_beta", 
      "attrs": {
        "__dtype__": "0", 
        "__init__": "zeros", 
        "__lr_mult__": "1.0", 
        "__shape__": "(0,)", 
        "__storage_type__": "0", 
        "__wd_mult__": "1.0"
      }, 
      "inputs": []
    }, 
    {
      "op": "null", 
      "name": "cifar10_mobilenet56_0.5/stg1/blk1/body/batchnorm1_running_mean", 
      "attrs": {
        "__dtype__": "0", 
        "__init__": "zeros", 
        "__lr_mult__": "1.0", 
        "__shape__": "(0,)", 
        "__storage_type__": "0", 
        "__wd_mult__": "1.0"
      }, 
      "inputs": []
    }, 
    {
      "op": "null", 
      "name": "cifar10_mobilenet56_0.5/stg1/blk1/body/batchnorm1_running_var", 
      "attrs": {
        "__dtype__": "0", 
        "__init__": "ones", 
        "__lr_mult__": "1.0", 
        "__shape__": "(0,)", 
        "__storage_type__": "0", 
        "__wd_mult__": "1.0"
      }, 
      "inputs": []
    }, 
    {
      "op": "BatchNorm", 
      "name": "cifar10_mobilenet56_0.5/stg1/blk1/body/batchnorm1_fwd", 
      "attrs": {
        "axis": "1", 
        "eps": "1e-05", 
        "fix_gamma": "False", 
        "momentum": "0.9", 
        "use_global_stats": "False"
      }, 
      "inputs": [[232, 0, 0], [233, 0, 0], [234, 0, 0], [235, 0, 1], [236, 0, 1]]
    }, 
    {
      "op": "Activation", 
      "name": "cifar10_mobilenet56_0.5/stg1/blk1/body/relu1_fwd", 
      "attrs": {"act_type": "relu"}, 
      "inputs": [[237, 0, 0]]
    }, 
    {
      "op": "null", 
      "name": "cifar10_mobilenet56_0.5/stg1/blk1/body/conv1_weight", 
      "attrs": {
        "__dtype__": "0", 
        "__lr_mult__": "1.0", 
        "__shape__": "(32, 0, 3, 3)", 
        "__storage_type__": "0", 
        "__wd_mult__": "1.0"
      }, 
      "inputs": []
    }, 
    {
      "op": "Convolution", 
      "name": "cifar10_mobilenet56_0.5/stg1/blk1/body/conv1_fwd", 
      "attrs": {
        "dilate": "(1, 1)", 
        "kernel": "(3, 3)", 
        "layout": "NCHW", 
        "no_bias": "True", 
        "num_filter": "32", 
        "num_group": "32", 
        "pad": "(1, 1)", 
        "stride": "(1, 1)"
      }, 
      "inputs": [[238, 0, 0], [239, 0, 0]]
    }, 
    {
      "op": "null", 
      "name": "cifar10_mobilenet56_0.5/stg1/blk1/body/batchnorm2_gamma", 
      "attrs": {
        "__dtype__": "0", 
        "__init__": "ones", 
        "__lr_mult__": "1.0", 
        "__shape__": "(0,)", 
        "__storage_type__": "0", 
        "__wd_mult__": "1.0"
      }, 
      "inputs": []
    }, 
    {
      "op": "null", 
      "name": "cifar10_mobilenet56_0.5/stg1/blk1/body/batchnorm2_beta", 
      "attrs": {
        "__dtype__": "0", 
        "__init__": "zeros", 
        "__lr_mult__": "1.0", 
        "__shape__": "(0,)", 
        "__storage_type__": "0", 
        "__wd_mult__": "1.0"
      }, 
      "inputs": []
    }, 
    {
      "op": "null", 
      "name": "cifar10_mobilenet56_0.5/stg1/blk1/body/batchnorm2_running_mean", 
      "attrs": {
        "__dtype__": "0", 
        "__init__": "zeros", 
        "__lr_mult__": "1.0", 
        "__shape__": "(0,)", 
        "__storage_type__": "0", 
        "__wd_mult__": "1.0"
      }, 
      "inputs": []
    }, 
    {
      "op": "null", 
      "name": "cifar10_mobilenet56_0.5/stg1/blk1/body/batchnorm2_running_var", 
      "attrs": {
        "__dtype__": "0", 
        "__init__": "ones", 
        "__lr_mult__": "1.0", 
        "__shape__": "(0,)", 
        "__storage_type__": "0", 
        "__wd_mult__": "1.0"
      }, 
      "inputs": []
    }, 
    {
      "op": "BatchNorm", 
      "name": "cifar10_mobilenet56_0.5/stg1/blk1/body/batchnorm2_fwd", 
      "attrs": {
        "axis": "1", 
        "eps": "1e-05", 
        "fix_gamma": "False", 
        "momentum": "0.9", 
        "use_global_stats": "False"
      }, 
      "inputs": [[240, 0, 0], [241, 0, 0], [242, 0, 0], [243, 0, 1], [244, 0, 1]]
    }, 
    {
      "op": "Activation", 
      "name": "cifar10_mobilenet56_0.5/stg1/blk1/body/relu2_fwd", 
      "attrs": {"act_type": "relu"}, 
      "inputs": [[245, 0, 0]]
    }, 
    {
      "op": "null", 
      "name": "cifar10_mobilenet56_0.5/stg1/blk1/body/conv2_weight", 
      "attrs": {
        "__dtype__": "0", 
        "__lr_mult__": "1.0", 
        "__shape__": "(64, 0, 1, 1)", 
        "__storage_type__": "0", 
        "__wd_mult__": "1.0"
      }, 
      "inputs": []
    }, 
    {
      "op": "Convolution", 
      "name": "cifar10_mobilenet56_0.5/stg1/blk1/body/conv2_fwd", 
      "attrs": {
        "dilate": "(1, 1)", 
        "kernel": "(1, 1)", 
        "layout": "NCHW", 
        "no_bias": "True", 
        "num_filter": "64", 
        "num_group": "1", 
        "pad": "(0, 0)", 
        "stride": "(1, 1)"
      }, 
      "inputs": [[246, 0, 0], [247, 0, 0]]
    }, 
    {
      "op": "null", 
      "name": "cifar10_mobilenet56_0.5/stg1/blk1/body/batchnorm3_gamma", 
      "attrs": {
        "__dtype__": "0", 
        "__init__": "ones", 
        "__lr_mult__": "1.0", 
        "__shape__": "(0,)", 
        "__storage_type__": "0", 
        "__wd_mult__": "1.0"
      }, 
      "inputs": []
    }, 
    {
      "op": "null", 
      "name": "cifar10_mobilenet56_0.5/stg1/blk1/body/batchnorm3_beta", 
      "attrs": {
        "__dtype__": "0", 
        "__init__": "zeros", 
        "__lr_mult__": "1.0", 
        "__shape__": "(0,)", 
        "__storage_type__": "0", 
        "__wd_mult__": "1.0"
      }, 
      "inputs": []
    }, 
    {
      "op": "null", 
      "name": "cifar10_mobilenet56_0.5/stg1/blk1/body/batchnorm3_running_mean", 
      "attrs": {
        "__dtype__": "0", 
        "__init__": "zeros", 
        "__lr_mult__": "1.0", 
        "__shape__": "(0,)", 
        "__storage_type__": "0", 
        "__wd_mult__": "1.0"
      }, 
      "inputs": []
    }, 
    {
      "op": "null", 
      "name": "cifar10_mobilenet56_0.5/stg1/blk1/body/batchnorm3_running_var", 
      "attrs": {
        "__dtype__": "0", 
        "__init__": "ones", 
        "__lr_mult__": "1.0", 
        "__shape__": "(0,)", 
        "__storage_type__": "0", 
        "__wd_mult__": "1.0"
      }, 
      "inputs": []
    }, 
    {
      "op": "BatchNorm", 
      "name": "cifar10_mobilenet56_0.5/stg1/blk1/body/batchnorm3_fwd", 
      "attrs": {
        "axis": "1", 
        "eps": "1e-05", 
        "fix_gamma": "False", 
        "momentum": "0.9", 
        "use_global_stats": "False"
      }, 
      "inputs": [[248, 0, 0], [249, 0, 0], [250, 0, 0], [251, 0, 1], [252, 0, 1]]
    }, 
    {
      "op": "elemwise_add", 
      "name": "cifar10_mobilenet56_0.5/stg1/blk1/_plus0", 
      "inputs": [[253, 0, 0], [224, 0, 0]]
    }, 
    {
      "op": "null", 
      "name": "cifar10_mobilenet56_0.5/stg1/blk2/body/batchnorm0_gamma", 
      "attrs": {
        "__dtype__": "0", 
        "__init__": "ones", 
        "__lr_mult__": "1.0", 
        "__shape__": "(0,)", 
        "__storage_type__": "0", 
        "__wd_mult__": "1.0"
      }, 
      "inputs": []
    }, 
    {
      "op": "null", 
      "name": "cifar10_mobilenet56_0.5/stg1/blk2/body/batchnorm0_beta", 
      "attrs": {
        "__dtype__": "0", 
        "__init__": "zeros", 
        "__lr_mult__": "1.0", 
        "__shape__": "(0,)", 
        "__storage_type__": "0", 
        "__wd_mult__": "1.0"
      }, 
      "inputs": []
    }, 
    {
      "op": "null", 
      "name": "cifar10_mobilenet56_0.5/stg1/blk2/body/batchnorm0_running_mean", 
      "attrs": {
        "__dtype__": "0", 
        "__init__": "zeros", 
        "__lr_mult__": "1.0", 
        "__shape__": "(0,)", 
        "__storage_type__": "0", 
        "__wd_mult__": "1.0"
      }, 
      "inputs": []
    }, 
    {
      "op": "null", 
      "name": "cifar10_mobilenet56_0.5/stg1/blk2/body/batchnorm0_running_var", 
      "attrs": {
        "__dtype__": "0", 
        "__init__": "ones", 
        "__lr_mult__": "1.0", 
        "__shape__": "(0,)", 
        "__storage_type__": "0", 
        "__wd_mult__": "1.0"
      }, 
      "inputs": []
    }, 
    {
      "op": "BatchNorm", 
      "name": "cifar10_mobilenet56_0.5/stg1/blk2/body/batchnorm0_fwd", 
      "attrs": {
        "axis": "1", 
        "eps": "1e-05", 
        "fix_gamma": "False", 
        "momentum": "0.9", 
        "use_global_stats": "False"
      }, 
      "inputs": [[254, 0, 0], [255, 0, 0], [256, 0, 0], [257, 0, 1], [258, 0, 1]]
    }, 
    {
      "op": "Activation", 
      "name": "cifar10_mobilenet56_0.5/stg1/blk2/body/relu0_fwd", 
      "attrs": {"act_type": "relu"}, 
      "inputs": [[259, 0, 0]]
    }, 
    {
      "op": "null", 
      "name": "cifar10_mobilenet56_0.5/stg1/blk2/body/conv0_weight", 
      "attrs": {
        "__dtype__": "0", 
        "__lr_mult__": "1.0", 
        "__shape__": "(32, 0, 1, 1)", 
        "__storage_type__": "0", 
        "__wd_mult__": "1.0"
      }, 
      "inputs": []
    }, 
    {
      "op": "Convolution", 
      "name": "cifar10_mobilenet56_0.5/stg1/blk2/body/conv0_fwd", 
      "attrs": {
        "dilate": "(1, 1)", 
        "kernel": "(1, 1)", 
        "layout": "NCHW", 
        "no_bias": "True", 
        "num_filter": "32", 
        "num_group": "1", 
        "pad": "(0, 0)", 
        "stride": "(1, 1)"
      }, 
      "inputs": [[260, 0, 0], [261, 0, 0]]
    }, 
    {
      "op": "null", 
      "name": "cifar10_mobilenet56_0.5/stg1/blk2/body/batchnorm1_gamma", 
      "attrs": {
        "__dtype__": "0", 
        "__init__": "ones", 
        "__lr_mult__": "1.0", 
        "__shape__": "(0,)", 
        "__storage_type__": "0", 
        "__wd_mult__": "1.0"
      }, 
      "inputs": []
    }, 
    {
      "op": "null", 
      "name": "cifar10_mobilenet56_0.5/stg1/blk2/body/batchnorm1_beta", 
      "attrs": {
        "__dtype__": "0", 
        "__init__": "zeros", 
        "__lr_mult__": "1.0", 
        "__shape__": "(0,)", 
        "__storage_type__": "0", 
        "__wd_mult__": "1.0"
      }, 
      "inputs": []
    }, 
    {
      "op": "null", 
      "name": "cifar10_mobilenet56_0.5/stg1/blk2/body/batchnorm1_running_mean", 
      "attrs": {
        "__dtype__": "0", 
        "__init__": "zeros", 
        "__lr_mult__": "1.0", 
        "__shape__": "(0,)", 
        "__storage_type__": "0", 
        "__wd_mult__": "1.0"
      }, 
      "inputs": []
    }, 
    {
      "op": "null", 
      "name": "cifar10_mobilenet56_0.5/stg1/blk2/body/batchnorm1_running_var", 
      "attrs": {
        "__dtype__": "0", 
        "__init__": "ones", 
        "__lr_mult__": "1.0", 
        "__shape__": "(0,)", 
        "__storage_type__": "0", 
        "__wd_mult__": "1.0"
      }, 
      "inputs": []
    }, 
    {
      "op": "BatchNorm", 
      "name": "cifar10_mobilenet56_0.5/stg1/blk2/body/batchnorm1_fwd", 
      "attrs": {
        "axis": "1", 
        "eps": "1e-05", 
        "fix_gamma": "False", 
        "momentum": "0.9", 
        "use_global_stats": "False"
      }, 
      "inputs": [[262, 0, 0], [263, 0, 0], [264, 0, 0], [265, 0, 1], [266, 0, 1]]
    }, 
    {
      "op": "Activation", 
      "name": "cifar10_mobilenet56_0.5/stg1/blk2/body/relu1_fwd", 
      "attrs": {"act_type": "relu"}, 
      "inputs": [[267, 0, 0]]
    }, 
    {
      "op": "null", 
      "name": "cifar10_mobilenet56_0.5/stg1/blk2/body/conv1_weight", 
      "attrs": {
        "__dtype__": "0", 
        "__lr_mult__": "1.0", 
        "__shape__": "(32, 0, 3, 3)", 
        "__storage_type__": "0", 
        "__wd_mult__": "1.0"
      }, 
      "inputs": []
    }, 
    {
      "op": "Convolution", 
      "name": "cifar10_mobilenet56_0.5/stg1/blk2/body/conv1_fwd", 
      "attrs": {
        "dilate": "(1, 1)", 
        "kernel": "(3, 3)", 
        "layout": "NCHW", 
        "no_bias": "True", 
        "num_filter": "32", 
        "num_group": "32", 
        "pad": "(1, 1)", 
        "stride": "(1, 1)"
      }, 
      "inputs": [[268, 0, 0], [269, 0, 0]]
    }, 
    {
      "op": "null", 
      "name": "cifar10_mobilenet56_0.5/stg1/blk2/body/batchnorm2_gamma", 
      "attrs": {
        "__dtype__": "0", 
        "__init__": "ones", 
        "__lr_mult__": "1.0", 
        "__shape__": "(0,)", 
        "__storage_type__": "0", 
        "__wd_mult__": "1.0"
      }, 
      "inputs": []
    }, 
    {
      "op": "null", 
      "name": "cifar10_mobilenet56_0.5/stg1/blk2/body/batchnorm2_beta", 
      "attrs": {
        "__dtype__": "0", 
        "__init__": "zeros", 
        "__lr_mult__": "1.0", 
        "__shape__": "(0,)", 
        "__storage_type__": "0", 
        "__wd_mult__": "1.0"
      }, 
      "inputs": []
    }, 
    {
      "op": "null", 
      "name": "cifar10_mobilenet56_0.5/stg1/blk2/body/batchnorm2_running_mean", 
      "attrs": {
        "__dtype__": "0", 
        "__init__": "zeros", 
        "__lr_mult__": "1.0", 
        "__shape__": "(0,)", 
        "__storage_type__": "0", 
        "__wd_mult__": "1.0"
      }, 
      "inputs": []
    }, 
    {
      "op": "null", 
      "name": "cifar10_mobilenet56_0.5/stg1/blk2/body/batchnorm2_running_var", 
      "attrs": {
        "__dtype__": "0", 
        "__init__": "ones", 
        "__lr_mult__": "1.0", 
        "__shape__": "(0,)", 
        "__storage_type__": "0", 
        "__wd_mult__": "1.0"
      }, 
      "inputs": []
    }, 
    {
      "op": "BatchNorm", 
      "name": "cifar10_mobilenet56_0.5/stg1/blk2/body/batchnorm2_fwd", 
      "attrs": {
        "axis": "1", 
        "eps": "1e-05", 
        "fix_gamma": "False", 
        "momentum": "0.9", 
        "use_global_stats": "False"
      }, 
      "inputs": [[270, 0, 0], [271, 0, 0], [272, 0, 0], [273, 0, 1], [274, 0, 1]]
    }, 
    {
      "op": "Activation", 
      "name": "cifar10_mobilenet56_0.5/stg1/blk2/body/relu2_fwd", 
      "attrs": {"act_type": "relu"}, 
      "inputs": [[275, 0, 0]]
    }, 
    {
      "op": "null", 
      "name": "cifar10_mobilenet56_0.5/stg1/blk2/body/conv2_weight", 
      "attrs": {
        "__dtype__": "0", 
        "__lr_mult__": "1.0", 
        "__shape__": "(64, 0, 1, 1)", 
        "__storage_type__": "0", 
        "__wd_mult__": "1.0"
      }, 
      "inputs": []
    }, 
    {
      "op": "Convolution", 
      "name": "cifar10_mobilenet56_0.5/stg1/blk2/body/conv2_fwd", 
      "attrs": {
        "dilate": "(1, 1)", 
        "kernel": "(1, 1)", 
        "layout": "NCHW", 
        "no_bias": "True", 
        "num_filter": "64", 
        "num_group": "1", 
        "pad": "(0, 0)", 
        "stride": "(1, 1)"
      }, 
      "inputs": [[276, 0, 0], [277, 0, 0]]
    }, 
    {
      "op": "null", 
      "name": "cifar10_mobilenet56_0.5/stg1/blk2/body/batchnorm3_gamma", 
      "attrs": {
        "__dtype__": "0", 
        "__init__": "ones", 
        "__lr_mult__": "1.0", 
        "__shape__": "(0,)", 
        "__storage_type__": "0", 
        "__wd_mult__": "1.0"
      }, 
      "inputs": []
    }, 
    {
      "op": "null", 
      "name": "cifar10_mobilenet56_0.5/stg1/blk2/body/batchnorm3_beta", 
      "attrs": {
        "__dtype__": "0", 
        "__init__": "zeros", 
        "__lr_mult__": "1.0", 
        "__shape__": "(0,)", 
        "__storage_type__": "0", 
        "__wd_mult__": "1.0"
      }, 
      "inputs": []
    }, 
    {
      "op": "null", 
      "name": "cifar10_mobilenet56_0.5/stg1/blk2/body/batchnorm3_running_mean", 
      "attrs": {
        "__dtype__": "0", 
        "__init__": "zeros", 
        "__lr_mult__": "1.0", 
        "__shape__": "(0,)", 
        "__storage_type__": "0", 
        "__wd_mult__": "1.0"
      }, 
      "inputs": []
    }, 
    {
      "op": "null", 
      "name": "cifar10_mobilenet56_0.5/stg1/blk2/body/batchnorm3_running_var", 
      "attrs": {
        "__dtype__": "0", 
        "__init__": "ones", 
        "__lr_mult__": "1.0", 
        "__shape__": "(0,)", 
        "__storage_type__": "0", 
        "__wd_mult__": "1.0"
      }, 
      "inputs": []
    }, 
    {
      "op": "BatchNorm", 
      "name": "cifar10_mobilenet56_0.5/stg1/blk2/body/batchnorm3_fwd", 
      "attrs": {
        "axis": "1", 
        "eps": "1e-05", 
        "fix_gamma": "False", 
        "momentum": "0.9", 
        "use_global_stats": "False"
      }, 
      "inputs": [[278, 0, 0], [279, 0, 0], [280, 0, 0], [281, 0, 1], [282, 0, 1]]
    }, 
    {
      "op": "elemwise_add", 
      "name": "cifar10_mobilenet56_0.5/stg1/blk2/_plus0", 
      "inputs": [[283, 0, 0], [254, 0, 0]]
    }, 
    {
      "op": "null", 
      "name": "cifar10_mobilenet56_0.5/stg1/blk3/body/batchnorm0_gamma", 
      "attrs": {
        "__dtype__": "0", 
        "__init__": "ones", 
        "__lr_mult__": "1.0", 
        "__shape__": "(0,)", 
        "__storage_type__": "0", 
        "__wd_mult__": "1.0"
      }, 
      "inputs": []
    }, 
    {
      "op": "null", 
      "name": "cifar10_mobilenet56_0.5/stg1/blk3/body/batchnorm0_beta", 
      "attrs": {
        "__dtype__": "0", 
        "__init__": "zeros", 
        "__lr_mult__": "1.0", 
        "__shape__": "(0,)", 
        "__storage_type__": "0", 
        "__wd_mult__": "1.0"
      }, 
      "inputs": []
    }, 
    {
      "op": "null", 
      "name": "cifar10_mobilenet56_0.5/stg1/blk3/body/batchnorm0_running_mean", 
      "attrs": {
        "__dtype__": "0", 
        "__init__": "zeros", 
        "__lr_mult__": "1.0", 
        "__shape__": "(0,)", 
        "__storage_type__": "0", 
        "__wd_mult__": "1.0"
      }, 
      "inputs": []
    }, 
    {
      "op": "null", 
      "name": "cifar10_mobilenet56_0.5/stg1/blk3/body/batchnorm0_running_var", 
      "attrs": {
        "__dtype__": "0", 
        "__init__": "ones", 
        "__lr_mult__": "1.0", 
        "__shape__": "(0,)", 
        "__storage_type__": "0", 
        "__wd_mult__": "1.0"
      }, 
      "inputs": []
    }, 
    {
      "op": "BatchNorm", 
      "name": "cifar10_mobilenet56_0.5/stg1/blk3/body/batchnorm0_fwd", 
      "attrs": {
        "axis": "1", 
        "eps": "1e-05", 
        "fix_gamma": "False", 
        "momentum": "0.9", 
        "use_global_stats": "False"
      }, 
      "inputs": [[284, 0, 0], [285, 0, 0], [286, 0, 0], [287, 0, 1], [288, 0, 1]]
    }, 
    {
      "op": "Activation", 
      "name": "cifar10_mobilenet56_0.5/stg1/blk3/body/relu0_fwd", 
      "attrs": {"act_type": "relu"}, 
      "inputs": [[289, 0, 0]]
    }, 
    {
      "op": "null", 
      "name": "cifar10_mobilenet56_0.5/stg1/blk3/body/conv0_weight", 
      "attrs": {
        "__dtype__": "0", 
        "__lr_mult__": "1.0", 
        "__shape__": "(32, 0, 1, 1)", 
        "__storage_type__": "0", 
        "__wd_mult__": "1.0"
      }, 
      "inputs": []
    }, 
    {
      "op": "Convolution", 
      "name": "cifar10_mobilenet56_0.5/stg1/blk3/body/conv0_fwd", 
      "attrs": {
        "dilate": "(1, 1)", 
        "kernel": "(1, 1)", 
        "layout": "NCHW", 
        "no_bias": "True", 
        "num_filter": "32", 
        "num_group": "1", 
        "pad": "(0, 0)", 
        "stride": "(1, 1)"
      }, 
      "inputs": [[290, 0, 0], [291, 0, 0]]
    }, 
    {
      "op": "null", 
      "name": "cifar10_mobilenet56_0.5/stg1/blk3/body/batchnorm1_gamma", 
      "attrs": {
        "__dtype__": "0", 
        "__init__": "ones", 
        "__lr_mult__": "1.0", 
        "__shape__": "(0,)", 
        "__storage_type__": "0", 
        "__wd_mult__": "1.0"
      }, 
      "inputs": []
    }, 
    {
      "op": "null", 
      "name": "cifar10_mobilenet56_0.5/stg1/blk3/body/batchnorm1_beta", 
      "attrs": {
        "__dtype__": "0", 
        "__init__": "zeros", 
        "__lr_mult__": "1.0", 
        "__shape__": "(0,)", 
        "__storage_type__": "0", 
        "__wd_mult__": "1.0"
      }, 
      "inputs": []
    }, 
    {
      "op": "null", 
      "name": "cifar10_mobilenet56_0.5/stg1/blk3/body/batchnorm1_running_mean", 
      "attrs": {
        "__dtype__": "0", 
        "__init__": "zeros", 
        "__lr_mult__": "1.0", 
        "__shape__": "(0,)", 
        "__storage_type__": "0", 
        "__wd_mult__": "1.0"
      }, 
      "inputs": []
    }, 
    {
      "op": "null", 
      "name": "cifar10_mobilenet56_0.5/stg1/blk3/body/batchnorm1_running_var", 
      "attrs": {
        "__dtype__": "0", 
        "__init__": "ones", 
        "__lr_mult__": "1.0", 
        "__shape__": "(0,)", 
        "__storage_type__": "0", 
        "__wd_mult__": "1.0"
      }, 
      "inputs": []
    }, 
    {
      "op": "BatchNorm", 
      "name": "cifar10_mobilenet56_0.5/stg1/blk3/body/batchnorm1_fwd", 
      "attrs": {
        "axis": "1", 
        "eps": "1e-05", 
        "fix_gamma": "False", 
        "momentum": "0.9", 
        "use_global_stats": "False"
      }, 
      "inputs": [[292, 0, 0], [293, 0, 0], [294, 0, 0], [295, 0, 1], [296, 0, 1]]
    }, 
    {
      "op": "Activation", 
      "name": "cifar10_mobilenet56_0.5/stg1/blk3/body/relu1_fwd", 
      "attrs": {"act_type": "relu"}, 
      "inputs": [[297, 0, 0]]
    }, 
    {
      "op": "null", 
      "name": "cifar10_mobilenet56_0.5/stg1/blk3/body/conv1_weight", 
      "attrs": {
        "__dtype__": "0", 
        "__lr_mult__": "1.0", 
        "__shape__": "(32, 0, 3, 3)", 
        "__storage_type__": "0", 
        "__wd_mult__": "1.0"
      }, 
      "inputs": []
    }, 
    {
      "op": "Convolution", 
      "name": "cifar10_mobilenet56_0.5/stg1/blk3/body/conv1_fwd", 
      "attrs": {
        "dilate": "(1, 1)", 
        "kernel": "(3, 3)", 
        "layout": "NCHW", 
        "no_bias": "True", 
        "num_filter": "32", 
        "num_group": "32", 
        "pad": "(1, 1)", 
        "stride": "(1, 1)"
      }, 
      "inputs": [[298, 0, 0], [299, 0, 0]]
    }, 
    {
      "op": "null", 
      "name": "cifar10_mobilenet56_0.5/stg1/blk3/body/batchnorm2_gamma", 
      "attrs": {
        "__dtype__": "0", 
        "__init__": "ones", 
        "__lr_mult__": "1.0", 
        "__shape__": "(0,)", 
        "__storage_type__": "0", 
        "__wd_mult__": "1.0"
      }, 
      "inputs": []
    }, 
    {
      "op": "null", 
      "name": "cifar10_mobilenet56_0.5/stg1/blk3/body/batchnorm2_beta", 
      "attrs": {
        "__dtype__": "0", 
        "__init__": "zeros", 
        "__lr_mult__": "1.0", 
        "__shape__": "(0,)", 
        "__storage_type__": "0", 
        "__wd_mult__": "1.0"
      }, 
      "inputs": []
    }, 
    {
      "op": "null", 
      "name": "cifar10_mobilenet56_0.5/stg1/blk3/body/batchnorm2_running_mean", 
      "attrs": {
        "__dtype__": "0", 
        "__init__": "zeros", 
        "__lr_mult__": "1.0", 
        "__shape__": "(0,)", 
        "__storage_type__": "0", 
        "__wd_mult__": "1.0"
      }, 
      "inputs": []
    }, 
    {
      "op": "null", 
      "name": "cifar10_mobilenet56_0.5/stg1/blk3/body/batchnorm2_running_var", 
      "attrs": {
        "__dtype__": "0", 
        "__init__": "ones", 
        "__lr_mult__": "1.0", 
        "__shape__": "(0,)", 
        "__storage_type__": "0", 
        "__wd_mult__": "1.0"
      }, 
      "inputs": []
    }, 
    {
      "op": "BatchNorm", 
      "name": "cifar10_mobilenet56_0.5/stg1/blk3/body/batchnorm2_fwd", 
      "attrs": {
        "axis": "1", 
        "eps": "1e-05", 
        "fix_gamma": "False", 
        "momentum": "0.9", 
        "use_global_stats": "False"
      }, 
      "inputs": [[300, 0, 0], [301, 0, 0], [302, 0, 0], [303, 0, 1], [304, 0, 1]]
    }, 
    {
      "op": "Activation", 
      "name": "cifar10_mobilenet56_0.5/stg1/blk3/body/relu2_fwd", 
      "attrs": {"act_type": "relu"}, 
      "inputs": [[305, 0, 0]]
    }, 
    {
      "op": "null", 
      "name": "cifar10_mobilenet56_0.5/stg1/blk3/body/conv2_weight", 
      "attrs": {
        "__dtype__": "0", 
        "__lr_mult__": "1.0", 
        "__shape__": "(64, 0, 1, 1)", 
        "__storage_type__": "0", 
        "__wd_mult__": "1.0"
      }, 
      "inputs": []
    }, 
    {
      "op": "Convolution", 
      "name": "cifar10_mobilenet56_0.5/stg1/blk3/body/conv2_fwd", 
      "attrs": {
        "dilate": "(1, 1)", 
        "kernel": "(1, 1)", 
        "layout": "NCHW", 
        "no_bias": "True", 
        "num_filter": "64", 
        "num_group": "1", 
        "pad": "(0, 0)", 
        "stride": "(1, 1)"
      }, 
      "inputs": [[306, 0, 0], [307, 0, 0]]
    }, 
    {
      "op": "null", 
      "name": "cifar10_mobilenet56_0.5/stg1/blk3/body/batchnorm3_gamma", 
      "attrs": {
        "__dtype__": "0", 
        "__init__": "ones", 
        "__lr_mult__": "1.0", 
        "__shape__": "(0,)", 
        "__storage_type__": "0", 
        "__wd_mult__": "1.0"
      }, 
      "inputs": []
    }, 
    {
      "op": "null", 
      "name": "cifar10_mobilenet56_0.5/stg1/blk3/body/batchnorm3_beta", 
      "attrs": {
        "__dtype__": "0", 
        "__init__": "zeros", 
        "__lr_mult__": "1.0", 
        "__shape__": "(0,)", 
        "__storage_type__": "0", 
        "__wd_mult__": "1.0"
      }, 
      "inputs": []
    }, 
    {
      "op": "null", 
      "name": "cifar10_mobilenet56_0.5/stg1/blk3/body/batchnorm3_running_mean", 
      "attrs": {
        "__dtype__": "0", 
        "__init__": "zeros", 
        "__lr_mult__": "1.0", 
        "__shape__": "(0,)", 
        "__storage_type__": "0", 
        "__wd_mult__": "1.0"
      }, 
      "inputs": []
    }, 
    {
      "op": "null", 
      "name": "cifar10_mobilenet56_0.5/stg1/blk3/body/batchnorm3_running_var", 
      "attrs": {
        "__dtype__": "0", 
        "__init__": "ones", 
        "__lr_mult__": "1.0", 
        "__shape__": "(0,)", 
        "__storage_type__": "0", 
        "__wd_mult__": "1.0"
      }, 
      "inputs": []
    }, 
    {
      "op": "BatchNorm", 
      "name": "cifar10_mobilenet56_0.5/stg1/blk3/body/batchnorm3_fwd", 
      "attrs": {
        "axis": "1", 
        "eps": "1e-05", 
        "fix_gamma": "False", 
        "momentum": "0.9", 
        "use_global_stats": "False"
      }, 
      "inputs": [[308, 0, 0], [309, 0, 0], [310, 0, 0], [311, 0, 1], [312, 0, 1]]
    }, 
    {
      "op": "elemwise_add", 
      "name": "cifar10_mobilenet56_0.5/stg1/blk3/_plus0", 
      "inputs": [[313, 0, 0], [284, 0, 0]]
    }, 
    {
      "op": "null", 
      "name": "cifar10_mobilenet56_0.5/stg1/blk4/body/batchnorm0_gamma", 
      "attrs": {
        "__dtype__": "0", 
        "__init__": "ones", 
        "__lr_mult__": "1.0", 
        "__shape__": "(0,)", 
        "__storage_type__": "0", 
        "__wd_mult__": "1.0"
      }, 
      "inputs": []
    }, 
    {
      "op": "null", 
      "name": "cifar10_mobilenet56_0.5/stg1/blk4/body/batchnorm0_beta", 
      "attrs": {
        "__dtype__": "0", 
        "__init__": "zeros", 
        "__lr_mult__": "1.0", 
        "__shape__": "(0,)", 
        "__storage_type__": "0", 
        "__wd_mult__": "1.0"
      }, 
      "inputs": []
    }, 
    {
      "op": "null", 
      "name": "cifar10_mobilenet56_0.5/stg1/blk4/body/batchnorm0_running_mean", 
      "attrs": {
        "__dtype__": "0", 
        "__init__": "zeros", 
        "__lr_mult__": "1.0", 
        "__shape__": "(0,)", 
        "__storage_type__": "0", 
        "__wd_mult__": "1.0"
      }, 
      "inputs": []
    }, 
    {
      "op": "null", 
      "name": "cifar10_mobilenet56_0.5/stg1/blk4/body/batchnorm0_running_var", 
      "attrs": {
        "__dtype__": "0", 
        "__init__": "ones", 
        "__lr_mult__": "1.0", 
        "__shape__": "(0,)", 
        "__storage_type__": "0", 
        "__wd_mult__": "1.0"
      }, 
      "inputs": []
    }, 
    {
      "op": "BatchNorm", 
      "name": "cifar10_mobilenet56_0.5/stg1/blk4/body/batchnorm0_fwd", 
      "attrs": {
        "axis": "1", 
        "eps": "1e-05", 
        "fix_gamma": "False", 
        "momentum": "0.9", 
        "use_global_stats": "False"
      }, 
      "inputs": [[314, 0, 0], [315, 0, 0], [316, 0, 0], [317, 0, 1], [318, 0, 1]]
    }, 
    {
      "op": "Activation", 
      "name": "cifar10_mobilenet56_0.5/stg1/blk4/body/relu0_fwd", 
      "attrs": {"act_type": "relu"}, 
      "inputs": [[319, 0, 0]]
    }, 
    {
      "op": "null", 
      "name": "cifar10_mobilenet56_0.5/stg1/blk4/body/conv0_weight", 
      "attrs": {
        "__dtype__": "0", 
        "__lr_mult__": "1.0", 
        "__shape__": "(32, 0, 1, 1)", 
        "__storage_type__": "0", 
        "__wd_mult__": "1.0"
      }, 
      "inputs": []
    }, 
    {
      "op": "Convolution", 
      "name": "cifar10_mobilenet56_0.5/stg1/blk4/body/conv0_fwd", 
      "attrs": {
        "dilate": "(1, 1)", 
        "kernel": "(1, 1)", 
        "layout": "NCHW", 
        "no_bias": "True", 
        "num_filter": "32", 
        "num_group": "1", 
        "pad": "(0, 0)", 
        "stride": "(1, 1)"
      }, 
      "inputs": [[320, 0, 0], [321, 0, 0]]
    }, 
    {
      "op": "null", 
      "name": "cifar10_mobilenet56_0.5/stg1/blk4/body/batchnorm1_gamma", 
      "attrs": {
        "__dtype__": "0", 
        "__init__": "ones", 
        "__lr_mult__": "1.0", 
        "__shape__": "(0,)", 
        "__storage_type__": "0", 
        "__wd_mult__": "1.0"
      }, 
      "inputs": []
    }, 
    {
      "op": "null", 
      "name": "cifar10_mobilenet56_0.5/stg1/blk4/body/batchnorm1_beta", 
      "attrs": {
        "__dtype__": "0", 
        "__init__": "zeros", 
        "__lr_mult__": "1.0", 
        "__shape__": "(0,)", 
        "__storage_type__": "0", 
        "__wd_mult__": "1.0"
      }, 
      "inputs": []
    }, 
    {
      "op": "null", 
      "name": "cifar10_mobilenet56_0.5/stg1/blk4/body/batchnorm1_running_mean", 
      "attrs": {
        "__dtype__": "0", 
        "__init__": "zeros", 
        "__lr_mult__": "1.0", 
        "__shape__": "(0,)", 
        "__storage_type__": "0", 
        "__wd_mult__": "1.0"
      }, 
      "inputs": []
    }, 
    {
      "op": "null", 
      "name": "cifar10_mobilenet56_0.5/stg1/blk4/body/batchnorm1_running_var", 
      "attrs": {
        "__dtype__": "0", 
        "__init__": "ones", 
        "__lr_mult__": "1.0", 
        "__shape__": "(0,)", 
        "__storage_type__": "0", 
        "__wd_mult__": "1.0"
      }, 
      "inputs": []
    }, 
    {
      "op": "BatchNorm", 
      "name": "cifar10_mobilenet56_0.5/stg1/blk4/body/batchnorm1_fwd", 
      "attrs": {
        "axis": "1", 
        "eps": "1e-05", 
        "fix_gamma": "False", 
        "momentum": "0.9", 
        "use_global_stats": "False"
      }, 
      "inputs": [[322, 0, 0], [323, 0, 0], [324, 0, 0], [325, 0, 1], [326, 0, 1]]
    }, 
    {
      "op": "Activation", 
      "name": "cifar10_mobilenet56_0.5/stg1/blk4/body/relu1_fwd", 
      "attrs": {"act_type": "relu"}, 
      "inputs": [[327, 0, 0]]
    }, 
    {
      "op": "null", 
      "name": "cifar10_mobilenet56_0.5/stg1/blk4/body/conv1_weight", 
      "attrs": {
        "__dtype__": "0", 
        "__lr_mult__": "1.0", 
        "__shape__": "(32, 0, 3, 3)", 
        "__storage_type__": "0", 
        "__wd_mult__": "1.0"
      }, 
      "inputs": []
    }, 
    {
      "op": "Convolution", 
      "name": "cifar10_mobilenet56_0.5/stg1/blk4/body/conv1_fwd", 
      "attrs": {
        "dilate": "(1, 1)", 
        "kernel": "(3, 3)", 
        "layout": "NCHW", 
        "no_bias": "True", 
        "num_filter": "32", 
        "num_group": "32", 
        "pad": "(1, 1)", 
        "stride": "(1, 1)"
      }, 
      "inputs": [[328, 0, 0], [329, 0, 0]]
    }, 
    {
      "op": "null", 
      "name": "cifar10_mobilenet56_0.5/stg1/blk4/body/batchnorm2_gamma", 
      "attrs": {
        "__dtype__": "0", 
        "__init__": "ones", 
        "__lr_mult__": "1.0", 
        "__shape__": "(0,)", 
        "__storage_type__": "0", 
        "__wd_mult__": "1.0"
      }, 
      "inputs": []
    }, 
    {
      "op": "null", 
      "name": "cifar10_mobilenet56_0.5/stg1/blk4/body/batchnorm2_beta", 
      "attrs": {
        "__dtype__": "0", 
        "__init__": "zeros", 
        "__lr_mult__": "1.0", 
        "__shape__": "(0,)", 
        "__storage_type__": "0", 
        "__wd_mult__": "1.0"
      }, 
      "inputs": []
    }, 
    {
      "op": "null", 
      "name": "cifar10_mobilenet56_0.5/stg1/blk4/body/batchnorm2_running_mean", 
      "attrs": {
        "__dtype__": "0", 
        "__init__": "zeros", 
        "__lr_mult__": "1.0", 
        "__shape__": "(0,)", 
        "__storage_type__": "0", 
        "__wd_mult__": "1.0"
      }, 
      "inputs": []
    }, 
    {
      "op": "null", 
      "name": "cifar10_mobilenet56_0.5/stg1/blk4/body/batchnorm2_running_var", 
      "attrs": {
        "__dtype__": "0", 
        "__init__": "ones", 
        "__lr_mult__": "1.0", 
        "__shape__": "(0,)", 
        "__storage_type__": "0", 
        "__wd_mult__": "1.0"
      }, 
      "inputs": []
    }, 
    {
      "op": "BatchNorm", 
      "name": "cifar10_mobilenet56_0.5/stg1/blk4/body/batchnorm2_fwd", 
      "attrs": {
        "axis": "1", 
        "eps": "1e-05", 
        "fix_gamma": "False", 
        "momentum": "0.9", 
        "use_global_stats": "False"
      }, 
      "inputs": [[330, 0, 0], [331, 0, 0], [332, 0, 0], [333, 0, 1], [334, 0, 1]]
    }, 
    {
      "op": "Activation", 
      "name": "cifar10_mobilenet56_0.5/stg1/blk4/body/relu2_fwd", 
      "attrs": {"act_type": "relu"}, 
      "inputs": [[335, 0, 0]]
    }, 
    {
      "op": "null", 
      "name": "cifar10_mobilenet56_0.5/stg1/blk4/body/conv2_weight", 
      "attrs": {
        "__dtype__": "0", 
        "__lr_mult__": "1.0", 
        "__shape__": "(64, 0, 1, 1)", 
        "__storage_type__": "0", 
        "__wd_mult__": "1.0"
      }, 
      "inputs": []
    }, 
    {
      "op": "Convolution", 
      "name": "cifar10_mobilenet56_0.5/stg1/blk4/body/conv2_fwd", 
      "attrs": {
        "dilate": "(1, 1)", 
        "kernel": "(1, 1)", 
        "layout": "NCHW", 
        "no_bias": "True", 
        "num_filter": "64", 
        "num_group": "1", 
        "pad": "(0, 0)", 
        "stride": "(1, 1)"
      }, 
      "inputs": [[336, 0, 0], [337, 0, 0]]
    }, 
    {
      "op": "null", 
      "name": "cifar10_mobilenet56_0.5/stg1/blk4/body/batchnorm3_gamma", 
      "attrs": {
        "__dtype__": "0", 
        "__init__": "ones", 
        "__lr_mult__": "1.0", 
        "__shape__": "(0,)", 
        "__storage_type__": "0", 
        "__wd_mult__": "1.0"
      }, 
      "inputs": []
    }, 
    {
      "op": "null", 
      "name": "cifar10_mobilenet56_0.5/stg1/blk4/body/batchnorm3_beta", 
      "attrs": {
        "__dtype__": "0", 
        "__init__": "zeros", 
        "__lr_mult__": "1.0", 
        "__shape__": "(0,)", 
        "__storage_type__": "0", 
        "__wd_mult__": "1.0"
      }, 
      "inputs": []
    }, 
    {
      "op": "null", 
      "name": "cifar10_mobilenet56_0.5/stg1/blk4/body/batchnorm3_running_mean", 
      "attrs": {
        "__dtype__": "0", 
        "__init__": "zeros", 
        "__lr_mult__": "1.0", 
        "__shape__": "(0,)", 
        "__storage_type__": "0", 
        "__wd_mult__": "1.0"
      }, 
      "inputs": []
    }, 
    {
      "op": "null", 
      "name": "cifar10_mobilenet56_0.5/stg1/blk4/body/batchnorm3_running_var", 
      "attrs": {
        "__dtype__": "0", 
        "__init__": "ones", 
        "__lr_mult__": "1.0", 
        "__shape__": "(0,)", 
        "__storage_type__": "0", 
        "__wd_mult__": "1.0"
      }, 
      "inputs": []
    }, 
    {
      "op": "BatchNorm", 
      "name": "cifar10_mobilenet56_0.5/stg1/blk4/body/batchnorm3_fwd", 
      "attrs": {
        "axis": "1", 
        "eps": "1e-05", 
        "fix_gamma": "False", 
        "momentum": "0.9", 
        "use_global_stats": "False"
      }, 
      "inputs": [[338, 0, 0], [339, 0, 0], [340, 0, 0], [341, 0, 1], [342, 0, 1]]
    }, 
    {
      "op": "elemwise_add", 
      "name": "cifar10_mobilenet56_0.5/stg1/blk4/_plus0", 
      "inputs": [[343, 0, 0], [314, 0, 0]]
    }, 
    {
      "op": "null", 
      "name": "cifar10_mobilenet56_0.5/stg1/blk5/body/batchnorm0_gamma", 
      "attrs": {
        "__dtype__": "0", 
        "__init__": "ones", 
        "__lr_mult__": "1.0", 
        "__shape__": "(0,)", 
        "__storage_type__": "0", 
        "__wd_mult__": "1.0"
      }, 
      "inputs": []
    }, 
    {
      "op": "null", 
      "name": "cifar10_mobilenet56_0.5/stg1/blk5/body/batchnorm0_beta", 
      "attrs": {
        "__dtype__": "0", 
        "__init__": "zeros", 
        "__lr_mult__": "1.0", 
        "__shape__": "(0,)", 
        "__storage_type__": "0", 
        "__wd_mult__": "1.0"
      }, 
      "inputs": []
    }, 
    {
      "op": "null", 
      "name": "cifar10_mobilenet56_0.5/stg1/blk5/body/batchnorm0_running_mean", 
      "attrs": {
        "__dtype__": "0", 
        "__init__": "zeros", 
        "__lr_mult__": "1.0", 
        "__shape__": "(0,)", 
        "__storage_type__": "0", 
        "__wd_mult__": "1.0"
      }, 
      "inputs": []
    }, 
    {
      "op": "null", 
      "name": "cifar10_mobilenet56_0.5/stg1/blk5/body/batchnorm0_running_var", 
      "attrs": {
        "__dtype__": "0", 
        "__init__": "ones", 
        "__lr_mult__": "1.0", 
        "__shape__": "(0,)", 
        "__storage_type__": "0", 
        "__wd_mult__": "1.0"
      }, 
      "inputs": []
    }, 
    {
      "op": "BatchNorm", 
      "name": "cifar10_mobilenet56_0.5/stg1/blk5/body/batchnorm0_fwd", 
      "attrs": {
        "axis": "1", 
        "eps": "1e-05", 
        "fix_gamma": "False", 
        "momentum": "0.9", 
        "use_global_stats": "False"
      }, 
      "inputs": [[344, 0, 0], [345, 0, 0], [346, 0, 0], [347, 0, 1], [348, 0, 1]]
    }, 
    {
      "op": "Activation", 
      "name": "cifar10_mobilenet56_0.5/stg1/blk5/body/relu0_fwd", 
      "attrs": {"act_type": "relu"}, 
      "inputs": [[349, 0, 0]]
    }, 
    {
      "op": "null", 
      "name": "cifar10_mobilenet56_0.5/stg1/blk5/body/conv0_weight", 
      "attrs": {
        "__dtype__": "0", 
        "__lr_mult__": "1.0", 
        "__shape__": "(32, 0, 1, 1)", 
        "__storage_type__": "0", 
        "__wd_mult__": "1.0"
      }, 
      "inputs": []
    }, 
    {
      "op": "Convolution", 
      "name": "cifar10_mobilenet56_0.5/stg1/blk5/body/conv0_fwd", 
      "attrs": {
        "dilate": "(1, 1)", 
        "kernel": "(1, 1)", 
        "layout": "NCHW", 
        "no_bias": "True", 
        "num_filter": "32", 
        "num_group": "1", 
        "pad": "(0, 0)", 
        "stride": "(1, 1)"
      }, 
      "inputs": [[350, 0, 0], [351, 0, 0]]
    }, 
    {
      "op": "null", 
      "name": "cifar10_mobilenet56_0.5/stg1/blk5/body/batchnorm1_gamma", 
      "attrs": {
        "__dtype__": "0", 
        "__init__": "ones", 
        "__lr_mult__": "1.0", 
        "__shape__": "(0,)", 
        "__storage_type__": "0", 
        "__wd_mult__": "1.0"
      }, 
      "inputs": []
    }, 
    {
      "op": "null", 
      "name": "cifar10_mobilenet56_0.5/stg1/blk5/body/batchnorm1_beta", 
      "attrs": {
        "__dtype__": "0", 
        "__init__": "zeros", 
        "__lr_mult__": "1.0", 
        "__shape__": "(0,)", 
        "__storage_type__": "0", 
        "__wd_mult__": "1.0"
      }, 
      "inputs": []
    }, 
    {
      "op": "null", 
      "name": "cifar10_mobilenet56_0.5/stg1/blk5/body/batchnorm1_running_mean", 
      "attrs": {
        "__dtype__": "0", 
        "__init__": "zeros", 
        "__lr_mult__": "1.0", 
        "__shape__": "(0,)", 
        "__storage_type__": "0", 
        "__wd_mult__": "1.0"
      }, 
      "inputs": []
    }, 
    {
      "op": "null", 
      "name": "cifar10_mobilenet56_0.5/stg1/blk5/body/batchnorm1_running_var", 
      "attrs": {
        "__dtype__": "0", 
        "__init__": "ones", 
        "__lr_mult__": "1.0", 
        "__shape__": "(0,)", 
        "__storage_type__": "0", 
        "__wd_mult__": "1.0"
      }, 
      "inputs": []
    }, 
    {
      "op": "BatchNorm", 
      "name": "cifar10_mobilenet56_0.5/stg1/blk5/body/batchnorm1_fwd", 
      "attrs": {
        "axis": "1", 
        "eps": "1e-05", 
        "fix_gamma": "False", 
        "momentum": "0.9", 
        "use_global_stats": "False"
      }, 
      "inputs": [[352, 0, 0], [353, 0, 0], [354, 0, 0], [355, 0, 1], [356, 0, 1]]
    }, 
    {
      "op": "Activation", 
      "name": "cifar10_mobilenet56_0.5/stg1/blk5/body/relu1_fwd", 
      "attrs": {"act_type": "relu"}, 
      "inputs": [[357, 0, 0]]
    }, 
    {
      "op": "null", 
      "name": "cifar10_mobilenet56_0.5/stg1/blk5/body/conv1_weight", 
      "attrs": {
        "__dtype__": "0", 
        "__lr_mult__": "1.0", 
        "__shape__": "(32, 0, 3, 3)", 
        "__storage_type__": "0", 
        "__wd_mult__": "1.0"
      }, 
      "inputs": []
    }, 
    {
      "op": "Convolution", 
      "name": "cifar10_mobilenet56_0.5/stg1/blk5/body/conv1_fwd", 
      "attrs": {
        "dilate": "(1, 1)", 
        "kernel": "(3, 3)", 
        "layout": "NCHW", 
        "no_bias": "True", 
        "num_filter": "32", 
        "num_group": "32", 
        "pad": "(1, 1)", 
        "stride": "(1, 1)"
      }, 
      "inputs": [[358, 0, 0], [359, 0, 0]]
    }, 
    {
      "op": "null", 
      "name": "cifar10_mobilenet56_0.5/stg1/blk5/body/batchnorm2_gamma", 
      "attrs": {
        "__dtype__": "0", 
        "__init__": "ones", 
        "__lr_mult__": "1.0", 
        "__shape__": "(0,)", 
        "__storage_type__": "0", 
        "__wd_mult__": "1.0"
      }, 
      "inputs": []
    }, 
    {
      "op": "null", 
      "name": "cifar10_mobilenet56_0.5/stg1/blk5/body/batchnorm2_beta", 
      "attrs": {
        "__dtype__": "0", 
        "__init__": "zeros", 
        "__lr_mult__": "1.0", 
        "__shape__": "(0,)", 
        "__storage_type__": "0", 
        "__wd_mult__": "1.0"
      }, 
      "inputs": []
    }, 
    {
      "op": "null", 
      "name": "cifar10_mobilenet56_0.5/stg1/blk5/body/batchnorm2_running_mean", 
      "attrs": {
        "__dtype__": "0", 
        "__init__": "zeros", 
        "__lr_mult__": "1.0", 
        "__shape__": "(0,)", 
        "__storage_type__": "0", 
        "__wd_mult__": "1.0"
      }, 
      "inputs": []
    }, 
    {
      "op": "null", 
      "name": "cifar10_mobilenet56_0.5/stg1/blk5/body/batchnorm2_running_var", 
      "attrs": {
        "__dtype__": "0", 
        "__init__": "ones", 
        "__lr_mult__": "1.0", 
        "__shape__": "(0,)", 
        "__storage_type__": "0", 
        "__wd_mult__": "1.0"
      }, 
      "inputs": []
    }, 
    {
      "op": "BatchNorm", 
      "name": "cifar10_mobilenet56_0.5/stg1/blk5/body/batchnorm2_fwd", 
      "attrs": {
        "axis": "1", 
        "eps": "1e-05", 
        "fix_gamma": "False", 
        "momentum": "0.9", 
        "use_global_stats": "False"
      }, 
      "inputs": [[360, 0, 0], [361, 0, 0], [362, 0, 0], [363, 0, 1], [364, 0, 1]]
    }, 
    {
      "op": "Activation", 
      "name": "cifar10_mobilenet56_0.5/stg1/blk5/body/relu2_fwd", 
      "attrs": {"act_type": "relu"}, 
      "inputs": [[365, 0, 0]]
    }, 
    {
      "op": "null", 
      "name": "cifar10_mobilenet56_0.5/stg1/blk5/body/conv2_weight", 
      "attrs": {
        "__dtype__": "0", 
        "__lr_mult__": "1.0", 
        "__shape__": "(64, 0, 1, 1)", 
        "__storage_type__": "0", 
        "__wd_mult__": "1.0"
      }, 
      "inputs": []
    }, 
    {
      "op": "Convolution", 
      "name": "cifar10_mobilenet56_0.5/stg1/blk5/body/conv2_fwd", 
      "attrs": {
        "dilate": "(1, 1)", 
        "kernel": "(1, 1)", 
        "layout": "NCHW", 
        "no_bias": "True", 
        "num_filter": "64", 
        "num_group": "1", 
        "pad": "(0, 0)", 
        "stride": "(1, 1)"
      }, 
      "inputs": [[366, 0, 0], [367, 0, 0]]
    }, 
    {
      "op": "null", 
      "name": "cifar10_mobilenet56_0.5/stg1/blk5/body/batchnorm3_gamma", 
      "attrs": {
        "__dtype__": "0", 
        "__init__": "ones", 
        "__lr_mult__": "1.0", 
        "__shape__": "(0,)", 
        "__storage_type__": "0", 
        "__wd_mult__": "1.0"
      }, 
      "inputs": []
    }, 
    {
      "op": "null", 
      "name": "cifar10_mobilenet56_0.5/stg1/blk5/body/batchnorm3_beta", 
      "attrs": {
        "__dtype__": "0", 
        "__init__": "zeros", 
        "__lr_mult__": "1.0", 
        "__shape__": "(0,)", 
        "__storage_type__": "0", 
        "__wd_mult__": "1.0"
      }, 
      "inputs": []
    }, 
    {
      "op": "null", 
      "name": "cifar10_mobilenet56_0.5/stg1/blk5/body/batchnorm3_running_mean", 
      "attrs": {
        "__dtype__": "0", 
        "__init__": "zeros", 
        "__lr_mult__": "1.0", 
        "__shape__": "(0,)", 
        "__storage_type__": "0", 
        "__wd_mult__": "1.0"
      }, 
      "inputs": []
    }, 
    {
      "op": "null", 
      "name": "cifar10_mobilenet56_0.5/stg1/blk5/body/batchnorm3_running_var", 
      "attrs": {
        "__dtype__": "0", 
        "__init__": "ones", 
        "__lr_mult__": "1.0", 
        "__shape__": "(0,)", 
        "__storage_type__": "0", 
        "__wd_mult__": "1.0"
      }, 
      "inputs": []
    }, 
    {
      "op": "BatchNorm", 
      "name": "cifar10_mobilenet56_0.5/stg1/blk5/body/batchnorm3_fwd", 
      "attrs": {
        "axis": "1", 
        "eps": "1e-05", 
        "fix_gamma": "False", 
        "momentum": "0.9", 
        "use_global_stats": "False"
      }, 
      "inputs": [[368, 0, 0], [369, 0, 0], [370, 0, 0], [371, 0, 1], [372, 0, 1]]
    }, 
    {
      "op": "elemwise_add", 
      "name": "cifar10_mobilenet56_0.5/stg1/blk5/_plus0", 
      "inputs": [[373, 0, 0], [344, 0, 0]]
    }, 
    {
      "op": "null", 
      "name": "cifar10_mobilenet56_0.5/stg2/blk0/body/batchnorm0_gamma", 
      "attrs": {
        "__dtype__": "0", 
        "__init__": "ones", 
        "__lr_mult__": "1.0", 
        "__shape__": "(0,)", 
        "__storage_type__": "0", 
        "__wd_mult__": "1.0"
      }, 
      "inputs": []
    }, 
    {
      "op": "null", 
      "name": "cifar10_mobilenet56_0.5/stg2/blk0/body/batchnorm0_beta", 
      "attrs": {
        "__dtype__": "0", 
        "__init__": "zeros", 
        "__lr_mult__": "1.0", 
        "__shape__": "(0,)", 
        "__storage_type__": "0", 
        "__wd_mult__": "1.0"
      }, 
      "inputs": []
    }, 
    {
      "op": "null", 
      "name": "cifar10_mobilenet56_0.5/stg2/blk0/body/batchnorm0_running_mean", 
      "attrs": {
        "__dtype__": "0", 
        "__init__": "zeros", 
        "__lr_mult__": "1.0", 
        "__shape__": "(0,)", 
        "__storage_type__": "0", 
        "__wd_mult__": "1.0"
      }, 
      "inputs": []
    }, 
    {
      "op": "null", 
      "name": "cifar10_mobilenet56_0.5/stg2/blk0/body/batchnorm0_running_var", 
      "attrs": {
        "__dtype__": "0", 
        "__init__": "ones", 
        "__lr_mult__": "1.0", 
        "__shape__": "(0,)", 
        "__storage_type__": "0", 
        "__wd_mult__": "1.0"
      }, 
      "inputs": []
    }, 
    {
      "op": "BatchNorm", 
      "name": "cifar10_mobilenet56_0.5/stg2/blk0/body/batchnorm0_fwd", 
      "attrs": {
        "axis": "1", 
        "eps": "1e-05", 
        "fix_gamma": "False", 
        "momentum": "0.9", 
        "use_global_stats": "False"
      }, 
      "inputs": [[374, 0, 0], [375, 0, 0], [376, 0, 0], [377, 0, 1], [378, 0, 1]]
    }, 
    {
      "op": "Activation", 
      "name": "cifar10_mobilenet56_0.5/stg2/blk0/body/relu0_fwd", 
      "attrs": {"act_type": "relu"}, 
      "inputs": [[379, 0, 0]]
    }, 
    {
      "op": "null", 
      "name": "cifar10_mobilenet56_0.5/stg2/blk0/body/conv0_weight", 
      "attrs": {
        "__dtype__": "0", 
        "__lr_mult__": "1.0", 
        "__shape__": "(64, 0, 1, 1)", 
        "__storage_type__": "0", 
        "__wd_mult__": "1.0"
      }, 
      "inputs": []
    }, 
    {
      "op": "Convolution", 
      "name": "cifar10_mobilenet56_0.5/stg2/blk0/body/conv0_fwd", 
      "attrs": {
        "dilate": "(1, 1)", 
        "kernel": "(1, 1)", 
        "layout": "NCHW", 
        "no_bias": "True", 
        "num_filter": "64", 
        "num_group": "1", 
        "pad": "(0, 0)", 
        "stride": "(1, 1)"
      }, 
      "inputs": [[380, 0, 0], [381, 0, 0]]
    }, 
    {
      "op": "null", 
      "name": "cifar10_mobilenet56_0.5/stg2/blk0/body/batchnorm1_gamma", 
      "attrs": {
        "__dtype__": "0", 
        "__init__": "ones", 
        "__lr_mult__": "1.0", 
        "__shape__": "(0,)", 
        "__storage_type__": "0", 
        "__wd_mult__": "1.0"
      }, 
      "inputs": []
    }, 
    {
      "op": "null", 
      "name": "cifar10_mobilenet56_0.5/stg2/blk0/body/batchnorm1_beta", 
      "attrs": {
        "__dtype__": "0", 
        "__init__": "zeros", 
        "__lr_mult__": "1.0", 
        "__shape__": "(0,)", 
        "__storage_type__": "0", 
        "__wd_mult__": "1.0"
      }, 
      "inputs": []
    }, 
    {
      "op": "null", 
      "name": "cifar10_mobilenet56_0.5/stg2/blk0/body/batchnorm1_running_mean", 
      "attrs": {
        "__dtype__": "0", 
        "__init__": "zeros", 
        "__lr_mult__": "1.0", 
        "__shape__": "(0,)", 
        "__storage_type__": "0", 
        "__wd_mult__": "1.0"
      }, 
      "inputs": []
    }, 
    {
      "op": "null", 
      "name": "cifar10_mobilenet56_0.5/stg2/blk0/body/batchnorm1_running_var", 
      "attrs": {
        "__dtype__": "0", 
        "__init__": "ones", 
        "__lr_mult__": "1.0", 
        "__shape__": "(0,)", 
        "__storage_type__": "0", 
        "__wd_mult__": "1.0"
      }, 
      "inputs": []
    }, 
    {
      "op": "BatchNorm", 
      "name": "cifar10_mobilenet56_0.5/stg2/blk0/body/batchnorm1_fwd", 
      "attrs": {
        "axis": "1", 
        "eps": "1e-05", 
        "fix_gamma": "False", 
        "momentum": "0.9", 
        "use_global_stats": "False"
      }, 
      "inputs": [[382, 0, 0], [383, 0, 0], [384, 0, 0], [385, 0, 1], [386, 0, 1]]
    }, 
    {
      "op": "Activation", 
      "name": "cifar10_mobilenet56_0.5/stg2/blk0/body/relu1_fwd", 
      "attrs": {"act_type": "relu"}, 
      "inputs": [[387, 0, 0]]
    }, 
    {
      "op": "null", 
      "name": "cifar10_mobilenet56_0.5/stg2/blk0/body/conv1_weight", 
      "attrs": {
        "__dtype__": "0", 
        "__lr_mult__": "1.0", 
        "__shape__": "(64, 0, 3, 3)", 
        "__storage_type__": "0", 
        "__wd_mult__": "1.0"
      }, 
      "inputs": []
    }, 
    {
      "op": "Convolution", 
      "name": "cifar10_mobilenet56_0.5/stg2/blk0/body/conv1_fwd", 
      "attrs": {
        "dilate": "(1, 1)", 
        "kernel": "(3, 3)", 
        "layout": "NCHW", 
        "no_bias": "True", 
        "num_filter": "64", 
        "num_group": "64", 
        "pad": "(1, 1)", 
        "stride": "(2, 2)"
      }, 
      "inputs": [[388, 0, 0], [389, 0, 0]]
    }, 
    {
      "op": "null", 
      "name": "cifar10_mobilenet56_0.5/stg2/blk0/body/batchnorm2_gamma", 
      "attrs": {
        "__dtype__": "0", 
        "__init__": "ones", 
        "__lr_mult__": "1.0", 
        "__shape__": "(0,)", 
        "__storage_type__": "0", 
        "__wd_mult__": "1.0"
      }, 
      "inputs": []
    }, 
    {
      "op": "null", 
      "name": "cifar10_mobilenet56_0.5/stg2/blk0/body/batchnorm2_beta", 
      "attrs": {
        "__dtype__": "0", 
        "__init__": "zeros", 
        "__lr_mult__": "1.0", 
        "__shape__": "(0,)", 
        "__storage_type__": "0", 
        "__wd_mult__": "1.0"
      }, 
      "inputs": []
    }, 
    {
      "op": "null", 
      "name": "cifar10_mobilenet56_0.5/stg2/blk0/body/batchnorm2_running_mean", 
      "attrs": {
        "__dtype__": "0", 
        "__init__": "zeros", 
        "__lr_mult__": "1.0", 
        "__shape__": "(0,)", 
        "__storage_type__": "0", 
        "__wd_mult__": "1.0"
      }, 
      "inputs": []
    }, 
    {
      "op": "null", 
      "name": "cifar10_mobilenet56_0.5/stg2/blk0/body/batchnorm2_running_var", 
      "attrs": {
        "__dtype__": "0", 
        "__init__": "ones", 
        "__lr_mult__": "1.0", 
        "__shape__": "(0,)", 
        "__storage_type__": "0", 
        "__wd_mult__": "1.0"
      }, 
      "inputs": []
    }, 
    {
      "op": "BatchNorm", 
      "name": "cifar10_mobilenet56_0.5/stg2/blk0/body/batchnorm2_fwd", 
      "attrs": {
        "axis": "1", 
        "eps": "1e-05", 
        "fix_gamma": "False", 
        "momentum": "0.9", 
        "use_global_stats": "False"
      }, 
      "inputs": [[390, 0, 0], [391, 0, 0], [392, 0, 0], [393, 0, 1], [394, 0, 1]]
    }, 
    {
      "op": "Activation", 
      "name": "cifar10_mobilenet56_0.5/stg2/blk0/body/relu2_fwd", 
      "attrs": {"act_type": "relu"}, 
      "inputs": [[395, 0, 0]]
    }, 
    {
      "op": "null", 
      "name": "cifar10_mobilenet56_0.5/stg2/blk0/body/conv2_weight", 
      "attrs": {
        "__dtype__": "0", 
        "__lr_mult__": "1.0", 
        "__shape__": "(128, 0, 1, 1)", 
        "__storage_type__": "0", 
        "__wd_mult__": "1.0"
      }, 
      "inputs": []
    }, 
    {
      "op": "Convolution", 
      "name": "cifar10_mobilenet56_0.5/stg2/blk0/body/conv2_fwd", 
      "attrs": {
        "dilate": "(1, 1)", 
        "kernel": "(1, 1)", 
        "layout": "NCHW", 
        "no_bias": "True", 
        "num_filter": "128", 
        "num_group": "1", 
        "pad": "(0, 0)", 
        "stride": "(1, 1)"
      }, 
      "inputs": [[396, 0, 0], [397, 0, 0]]
    }, 
    {
      "op": "null", 
      "name": "cifar10_mobilenet56_0.5/stg2/blk0/body/batchnorm3_gamma", 
      "attrs": {
        "__dtype__": "0", 
        "__init__": "ones", 
        "__lr_mult__": "1.0", 
        "__shape__": "(0,)", 
        "__storage_type__": "0", 
        "__wd_mult__": "1.0"
      }, 
      "inputs": []
    }, 
    {
      "op": "null", 
      "name": "cifar10_mobilenet56_0.5/stg2/blk0/body/batchnorm3_beta", 
      "attrs": {
        "__dtype__": "0", 
        "__init__": "zeros", 
        "__lr_mult__": "1.0", 
        "__shape__": "(0,)", 
        "__storage_type__": "0", 
        "__wd_mult__": "1.0"
      }, 
      "inputs": []
    }, 
    {
      "op": "null", 
      "name": "cifar10_mobilenet56_0.5/stg2/blk0/body/batchnorm3_running_mean", 
      "attrs": {
        "__dtype__": "0", 
        "__init__": "zeros", 
        "__lr_mult__": "1.0", 
        "__shape__": "(0,)", 
        "__storage_type__": "0", 
        "__wd_mult__": "1.0"
      }, 
      "inputs": []
    }, 
    {
      "op": "null", 
      "name": "cifar10_mobilenet56_0.5/stg2/blk0/body/batchnorm3_running_var", 
      "attrs": {
        "__dtype__": "0", 
        "__init__": "ones", 
        "__lr_mult__": "1.0", 
        "__shape__": "(0,)", 
        "__storage_type__": "0", 
        "__wd_mult__": "1.0"
      }, 
      "inputs": []
    }, 
    {
      "op": "BatchNorm", 
      "name": "cifar10_mobilenet56_0.5/stg2/blk0/body/batchnorm3_fwd", 
      "attrs": {
        "axis": "1", 
        "eps": "1e-05", 
        "fix_gamma": "False", 
        "momentum": "0.9", 
        "use_global_stats": "False"
      }, 
      "inputs": [[398, 0, 0], [399, 0, 0], [400, 0, 0], [401, 0, 1], [402, 0, 1]]
    }, 
    {
      "op": "null", 
      "name": "cifar10_mobilenet56_0.5/stg2/blk0/conv0_weight", 
      "attrs": {
        "__dtype__": "0", 
        "__lr_mult__": "1.0", 
        "__shape__": "(128, 0, 1, 1)", 
        "__storage_type__": "0", 
        "__wd_mult__": "1.0"
      }, 
      "inputs": []
    }, 
    {
      "op": "Convolution", 
      "name": "cifar10_mobilenet56_0.5/stg2/blk0/conv0_fwd", 
      "attrs": {
        "dilate": "(1, 1)", 
        "kernel": "(1, 1)", 
        "layout": "NCHW", 
        "no_bias": "True", 
        "num_filter": "128", 
        "num_group": "1", 
        "pad": "(0, 0)", 
        "stride": "(2, 2)"
      }, 
      "inputs": [[374, 0, 0], [404, 0, 0]]
    }, 
    {
      "op": "null", 
      "name": "cifar10_mobilenet56_0.5/stg2/blk0/batchnorm0_gamma", 
      "attrs": {
        "__dtype__": "0", 
        "__init__": "ones", 
        "__lr_mult__": "1.0", 
        "__shape__": "(0,)", 
        "__storage_type__": "0", 
        "__wd_mult__": "1.0"
      }, 
      "inputs": []
    }, 
    {
      "op": "null", 
      "name": "cifar10_mobilenet56_0.5/stg2/blk0/batchnorm0_beta", 
      "attrs": {
        "__dtype__": "0", 
        "__init__": "zeros", 
        "__lr_mult__": "1.0", 
        "__shape__": "(0,)", 
        "__storage_type__": "0", 
        "__wd_mult__": "1.0"
      }, 
      "inputs": []
    }, 
    {
      "op": "null", 
      "name": "cifar10_mobilenet56_0.5/stg2/blk0/batchnorm0_running_mean", 
      "attrs": {
        "__dtype__": "0", 
        "__init__": "zeros", 
        "__lr_mult__": "1.0", 
        "__shape__": "(0,)", 
        "__storage_type__": "0", 
        "__wd_mult__": "1.0"
      }, 
      "inputs": []
    }, 
    {
      "op": "null", 
      "name": "cifar10_mobilenet56_0.5/stg2/blk0/batchnorm0_running_var", 
      "attrs": {
        "__dtype__": "0", 
        "__init__": "ones", 
        "__lr_mult__": "1.0", 
        "__shape__": "(0,)", 
        "__storage_type__": "0", 
        "__wd_mult__": "1.0"
      }, 
      "inputs": []
    }, 
    {
      "op": "BatchNorm", 
      "name": "cifar10_mobilenet56_0.5/stg2/blk0/batchnorm0_fwd", 
      "attrs": {
        "axis": "1", 
        "eps": "1e-05", 
        "fix_gamma": "False", 
        "momentum": "0.9", 
        "use_global_stats": "False"
      }, 
      "inputs": [[405, 0, 0], [406, 0, 0], [407, 0, 0], [408, 0, 1], [409, 0, 1]]
    }, 
    {
      "op": "elemwise_add", 
      "name": "cifar10_mobilenet56_0.5/stg2/blk0/_plus0", 
      "inputs": [[403, 0, 0], [410, 0, 0]]
    }, 
    {
      "op": "null", 
      "name": "cifar10_mobilenet56_0.5/stg2/blk1/body/batchnorm0_gamma", 
      "attrs": {
        "__dtype__": "0", 
        "__init__": "ones", 
        "__lr_mult__": "1.0", 
        "__shape__": "(0,)", 
        "__storage_type__": "0", 
        "__wd_mult__": "1.0"
      }, 
      "inputs": []
    }, 
    {
      "op": "null", 
      "name": "cifar10_mobilenet56_0.5/stg2/blk1/body/batchnorm0_beta", 
      "attrs": {
        "__dtype__": "0", 
        "__init__": "zeros", 
        "__lr_mult__": "1.0", 
        "__shape__": "(0,)", 
        "__storage_type__": "0", 
        "__wd_mult__": "1.0"
      }, 
      "inputs": []
    }, 
    {
      "op": "null", 
      "name": "cifar10_mobilenet56_0.5/stg2/blk1/body/batchnorm0_running_mean", 
      "attrs": {
        "__dtype__": "0", 
        "__init__": "zeros", 
        "__lr_mult__": "1.0", 
        "__shape__": "(0,)", 
        "__storage_type__": "0", 
        "__wd_mult__": "1.0"
      }, 
      "inputs": []
    }, 
    {
      "op": "null", 
      "name": "cifar10_mobilenet56_0.5/stg2/blk1/body/batchnorm0_running_var", 
      "attrs": {
        "__dtype__": "0", 
        "__init__": "ones", 
        "__lr_mult__": "1.0", 
        "__shape__": "(0,)", 
        "__storage_type__": "0", 
        "__wd_mult__": "1.0"
      }, 
      "inputs": []
    }, 
    {
      "op": "BatchNorm", 
      "name": "cifar10_mobilenet56_0.5/stg2/blk1/body/batchnorm0_fwd", 
      "attrs": {
        "axis": "1", 
        "eps": "1e-05", 
        "fix_gamma": "False", 
        "momentum": "0.9", 
        "use_global_stats": "False"
      }, 
      "inputs": [[411, 0, 0], [412, 0, 0], [413, 0, 0], [414, 0, 1], [415, 0, 1]]
    }, 
    {
      "op": "Activation", 
      "name": "cifar10_mobilenet56_0.5/stg2/blk1/body/relu0_fwd", 
      "attrs": {"act_type": "relu"}, 
      "inputs": [[416, 0, 0]]
    }, 
    {
      "op": "null", 
      "name": "cifar10_mobilenet56_0.5/stg2/blk1/body/conv0_weight", 
      "attrs": {
        "__dtype__": "0", 
        "__lr_mult__": "1.0", 
        "__shape__": "(64, 0, 1, 1)", 
        "__storage_type__": "0", 
        "__wd_mult__": "1.0"
      }, 
      "inputs": []
    }, 
    {
      "op": "Convolution", 
      "name": "cifar10_mobilenet56_0.5/stg2/blk1/body/conv0_fwd", 
      "attrs": {
        "dilate": "(1, 1)", 
        "kernel": "(1, 1)", 
        "layout": "NCHW", 
        "no_bias": "True", 
        "num_filter": "64", 
        "num_group": "1", 
        "pad": "(0, 0)", 
        "stride": "(1, 1)"
      }, 
      "inputs": [[417, 0, 0], [418, 0, 0]]
    }, 
    {
      "op": "null", 
      "name": "cifar10_mobilenet56_0.5/stg2/blk1/body/batchnorm1_gamma", 
      "attrs": {
        "__dtype__": "0", 
        "__init__": "ones", 
        "__lr_mult__": "1.0", 
        "__shape__": "(0,)", 
        "__storage_type__": "0", 
        "__wd_mult__": "1.0"
      }, 
      "inputs": []
    }, 
    {
      "op": "null", 
      "name": "cifar10_mobilenet56_0.5/stg2/blk1/body/batchnorm1_beta", 
      "attrs": {
        "__dtype__": "0", 
        "__init__": "zeros", 
        "__lr_mult__": "1.0", 
        "__shape__": "(0,)", 
        "__storage_type__": "0", 
        "__wd_mult__": "1.0"
      }, 
      "inputs": []
    }, 
    {
      "op": "null", 
      "name": "cifar10_mobilenet56_0.5/stg2/blk1/body/batchnorm1_running_mean", 
      "attrs": {
        "__dtype__": "0", 
        "__init__": "zeros", 
        "__lr_mult__": "1.0", 
        "__shape__": "(0,)", 
        "__storage_type__": "0", 
        "__wd_mult__": "1.0"
      }, 
      "inputs": []
    }, 
    {
      "op": "null", 
      "name": "cifar10_mobilenet56_0.5/stg2/blk1/body/batchnorm1_running_var", 
      "attrs": {
        "__dtype__": "0", 
        "__init__": "ones", 
        "__lr_mult__": "1.0", 
        "__shape__": "(0,)", 
        "__storage_type__": "0", 
        "__wd_mult__": "1.0"
      }, 
      "inputs": []
    }, 
    {
      "op": "BatchNorm", 
      "name": "cifar10_mobilenet56_0.5/stg2/blk1/body/batchnorm1_fwd", 
      "attrs": {
        "axis": "1", 
        "eps": "1e-05", 
        "fix_gamma": "False", 
        "momentum": "0.9", 
        "use_global_stats": "False"
      }, 
      "inputs": [[419, 0, 0], [420, 0, 0], [421, 0, 0], [422, 0, 1], [423, 0, 1]]
    }, 
    {
      "op": "Activation", 
      "name": "cifar10_mobilenet56_0.5/stg2/blk1/body/relu1_fwd", 
      "attrs": {"act_type": "relu"}, 
      "inputs": [[424, 0, 0]]
    }, 
    {
      "op": "null", 
      "name": "cifar10_mobilenet56_0.5/stg2/blk1/body/conv1_weight", 
      "attrs": {
        "__dtype__": "0", 
        "__lr_mult__": "1.0", 
        "__shape__": "(64, 0, 3, 3)", 
        "__storage_type__": "0", 
        "__wd_mult__": "1.0"
      }, 
      "inputs": []
    }, 
    {
      "op": "Convolution", 
      "name": "cifar10_mobilenet56_0.5/stg2/blk1/body/conv1_fwd", 
      "attrs": {
        "dilate": "(1, 1)", 
        "kernel": "(3, 3)", 
        "layout": "NCHW", 
        "no_bias": "True", 
        "num_filter": "64", 
        "num_group": "64", 
        "pad": "(1, 1)", 
        "stride": "(1, 1)"
      }, 
      "inputs": [[425, 0, 0], [426, 0, 0]]
    }, 
    {
      "op": "null", 
      "name": "cifar10_mobilenet56_0.5/stg2/blk1/body/batchnorm2_gamma", 
      "attrs": {
        "__dtype__": "0", 
        "__init__": "ones", 
        "__lr_mult__": "1.0", 
        "__shape__": "(0,)", 
        "__storage_type__": "0", 
        "__wd_mult__": "1.0"
      }, 
      "inputs": []
    }, 
    {
      "op": "null", 
      "name": "cifar10_mobilenet56_0.5/stg2/blk1/body/batchnorm2_beta", 
      "attrs": {
        "__dtype__": "0", 
        "__init__": "zeros", 
        "__lr_mult__": "1.0", 
        "__shape__": "(0,)", 
        "__storage_type__": "0", 
        "__wd_mult__": "1.0"
      }, 
      "inputs": []
    }, 
    {
      "op": "null", 
      "name": "cifar10_mobilenet56_0.5/stg2/blk1/body/batchnorm2_running_mean", 
      "attrs": {
        "__dtype__": "0", 
        "__init__": "zeros", 
        "__lr_mult__": "1.0", 
        "__shape__": "(0,)", 
        "__storage_type__": "0", 
        "__wd_mult__": "1.0"
      }, 
      "inputs": []
    }, 
    {
      "op": "null", 
      "name": "cifar10_mobilenet56_0.5/stg2/blk1/body/batchnorm2_running_var", 
      "attrs": {
        "__dtype__": "0", 
        "__init__": "ones", 
        "__lr_mult__": "1.0", 
        "__shape__": "(0,)", 
        "__storage_type__": "0", 
        "__wd_mult__": "1.0"
      }, 
      "inputs": []
    }, 
    {
      "op": "BatchNorm", 
      "name": "cifar10_mobilenet56_0.5/stg2/blk1/body/batchnorm2_fwd", 
      "attrs": {
        "axis": "1", 
        "eps": "1e-05", 
        "fix_gamma": "False", 
        "momentum": "0.9", 
        "use_global_stats": "False"
      }, 
      "inputs": [[427, 0, 0], [428, 0, 0], [429, 0, 0], [430, 0, 1], [431, 0, 1]]
    }, 
    {
      "op": "Activation", 
      "name": "cifar10_mobilenet56_0.5/stg2/blk1/body/relu2_fwd", 
      "attrs": {"act_type": "relu"}, 
      "inputs": [[432, 0, 0]]
    }, 
    {
      "op": "null", 
      "name": "cifar10_mobilenet56_0.5/stg2/blk1/body/conv2_weight", 
      "attrs": {
        "__dtype__": "0", 
        "__lr_mult__": "1.0", 
        "__shape__": "(128, 0, 1, 1)", 
        "__storage_type__": "0", 
        "__wd_mult__": "1.0"
      }, 
      "inputs": []
    }, 
    {
      "op": "Convolution", 
      "name": "cifar10_mobilenet56_0.5/stg2/blk1/body/conv2_fwd", 
      "attrs": {
        "dilate": "(1, 1)", 
        "kernel": "(1, 1)", 
        "layout": "NCHW", 
        "no_bias": "True", 
        "num_filter": "128", 
        "num_group": "1", 
        "pad": "(0, 0)", 
        "stride": "(1, 1)"
      }, 
      "inputs": [[433, 0, 0], [434, 0, 0]]
    }, 
    {
      "op": "null", 
      "name": "cifar10_mobilenet56_0.5/stg2/blk1/body/batchnorm3_gamma", 
      "attrs": {
        "__dtype__": "0", 
        "__init__": "ones", 
        "__lr_mult__": "1.0", 
        "__shape__": "(0,)", 
        "__storage_type__": "0", 
        "__wd_mult__": "1.0"
      }, 
      "inputs": []
    }, 
    {
      "op": "null", 
      "name": "cifar10_mobilenet56_0.5/stg2/blk1/body/batchnorm3_beta", 
      "attrs": {
        "__dtype__": "0", 
        "__init__": "zeros", 
        "__lr_mult__": "1.0", 
        "__shape__": "(0,)", 
        "__storage_type__": "0", 
        "__wd_mult__": "1.0"
      }, 
      "inputs": []
    }, 
    {
      "op": "null", 
      "name": "cifar10_mobilenet56_0.5/stg2/blk1/body/batchnorm3_running_mean", 
      "attrs": {
        "__dtype__": "0", 
        "__init__": "zeros", 
        "__lr_mult__": "1.0", 
        "__shape__": "(0,)", 
        "__storage_type__": "0", 
        "__wd_mult__": "1.0"
      }, 
      "inputs": []
    }, 
    {
      "op": "null", 
      "name": "cifar10_mobilenet56_0.5/stg2/blk1/body/batchnorm3_running_var", 
      "attrs": {
        "__dtype__": "0", 
        "__init__": "ones", 
        "__lr_mult__": "1.0", 
        "__shape__": "(0,)", 
        "__storage_type__": "0", 
        "__wd_mult__": "1.0"
      }, 
      "inputs": []
    }, 
    {
      "op": "BatchNorm", 
      "name": "cifar10_mobilenet56_0.5/stg2/blk1/body/batchnorm3_fwd", 
      "attrs": {
        "axis": "1", 
        "eps": "1e-05", 
        "fix_gamma": "False", 
        "momentum": "0.9", 
        "use_global_stats": "False"
      }, 
      "inputs": [[435, 0, 0], [436, 0, 0], [437, 0, 0], [438, 0, 1], [439, 0, 1]]
    }, 
    {
      "op": "elemwise_add", 
      "name": "cifar10_mobilenet56_0.5/stg2/blk1/_plus0", 
      "inputs": [[440, 0, 0], [411, 0, 0]]
    }, 
    {
      "op": "null", 
      "name": "cifar10_mobilenet56_0.5/stg2/blk2/body/batchnorm0_gamma", 
      "attrs": {
        "__dtype__": "0", 
        "__init__": "ones", 
        "__lr_mult__": "1.0", 
        "__shape__": "(0,)", 
        "__storage_type__": "0", 
        "__wd_mult__": "1.0"
      }, 
      "inputs": []
    }, 
    {
      "op": "null", 
      "name": "cifar10_mobilenet56_0.5/stg2/blk2/body/batchnorm0_beta", 
      "attrs": {
        "__dtype__": "0", 
        "__init__": "zeros", 
        "__lr_mult__": "1.0", 
        "__shape__": "(0,)", 
        "__storage_type__": "0", 
        "__wd_mult__": "1.0"
      }, 
      "inputs": []
    }, 
    {
      "op": "null", 
      "name": "cifar10_mobilenet56_0.5/stg2/blk2/body/batchnorm0_running_mean", 
      "attrs": {
        "__dtype__": "0", 
        "__init__": "zeros", 
        "__lr_mult__": "1.0", 
        "__shape__": "(0,)", 
        "__storage_type__": "0", 
        "__wd_mult__": "1.0"
      }, 
      "inputs": []
    }, 
    {
      "op": "null", 
      "name": "cifar10_mobilenet56_0.5/stg2/blk2/body/batchnorm0_running_var", 
      "attrs": {
        "__dtype__": "0", 
        "__init__": "ones", 
        "__lr_mult__": "1.0", 
        "__shape__": "(0,)", 
        "__storage_type__": "0", 
        "__wd_mult__": "1.0"
      }, 
      "inputs": []
    }, 
    {
      "op": "BatchNorm", 
      "name": "cifar10_mobilenet56_0.5/stg2/blk2/body/batchnorm0_fwd", 
      "attrs": {
        "axis": "1", 
        "eps": "1e-05", 
        "fix_gamma": "False", 
        "momentum": "0.9", 
        "use_global_stats": "False"
      }, 
      "inputs": [[441, 0, 0], [442, 0, 0], [443, 0, 0], [444, 0, 1], [445, 0, 1]]
    }, 
    {
      "op": "Activation", 
      "name": "cifar10_mobilenet56_0.5/stg2/blk2/body/relu0_fwd", 
      "attrs": {"act_type": "relu"}, 
      "inputs": [[446, 0, 0]]
    }, 
    {
      "op": "null", 
      "name": "cifar10_mobilenet56_0.5/stg2/blk2/body/conv0_weight", 
      "attrs": {
        "__dtype__": "0", 
        "__lr_mult__": "1.0", 
        "__shape__": "(64, 0, 1, 1)", 
        "__storage_type__": "0", 
        "__wd_mult__": "1.0"
      }, 
      "inputs": []
    }, 
    {
      "op": "Convolution", 
      "name": "cifar10_mobilenet56_0.5/stg2/blk2/body/conv0_fwd", 
      "attrs": {
        "dilate": "(1, 1)", 
        "kernel": "(1, 1)", 
        "layout": "NCHW", 
        "no_bias": "True", 
        "num_filter": "64", 
        "num_group": "1", 
        "pad": "(0, 0)", 
        "stride": "(1, 1)"
      }, 
      "inputs": [[447, 0, 0], [448, 0, 0]]
    }, 
    {
      "op": "null", 
      "name": "cifar10_mobilenet56_0.5/stg2/blk2/body/batchnorm1_gamma", 
      "attrs": {
        "__dtype__": "0", 
        "__init__": "ones", 
        "__lr_mult__": "1.0", 
        "__shape__": "(0,)", 
        "__storage_type__": "0", 
        "__wd_mult__": "1.0"
      }, 
      "inputs": []
    }, 
    {
      "op": "null", 
      "name": "cifar10_mobilenet56_0.5/stg2/blk2/body/batchnorm1_beta", 
      "attrs": {
        "__dtype__": "0", 
        "__init__": "zeros", 
        "__lr_mult__": "1.0", 
        "__shape__": "(0,)", 
        "__storage_type__": "0", 
        "__wd_mult__": "1.0"
      }, 
      "inputs": []
    }, 
    {
      "op": "null", 
      "name": "cifar10_mobilenet56_0.5/stg2/blk2/body/batchnorm1_running_mean", 
      "attrs": {
        "__dtype__": "0", 
        "__init__": "zeros", 
        "__lr_mult__": "1.0", 
        "__shape__": "(0,)", 
        "__storage_type__": "0", 
        "__wd_mult__": "1.0"
      }, 
      "inputs": []
    }, 
    {
      "op": "null", 
      "name": "cifar10_mobilenet56_0.5/stg2/blk2/body/batchnorm1_running_var", 
      "attrs": {
        "__dtype__": "0", 
        "__init__": "ones", 
        "__lr_mult__": "1.0", 
        "__shape__": "(0,)", 
        "__storage_type__": "0", 
        "__wd_mult__": "1.0"
      }, 
      "inputs": []
    }, 
    {
      "op": "BatchNorm", 
      "name": "cifar10_mobilenet56_0.5/stg2/blk2/body/batchnorm1_fwd", 
      "attrs": {
        "axis": "1", 
        "eps": "1e-05", 
        "fix_gamma": "False", 
        "momentum": "0.9", 
        "use_global_stats": "False"
      }, 
      "inputs": [[449, 0, 0], [450, 0, 0], [451, 0, 0], [452, 0, 1], [453, 0, 1]]
    }, 
    {
      "op": "Activation", 
      "name": "cifar10_mobilenet56_0.5/stg2/blk2/body/relu1_fwd", 
      "attrs": {"act_type": "relu"}, 
      "inputs": [[454, 0, 0]]
    }, 
    {
      "op": "null", 
      "name": "cifar10_mobilenet56_0.5/stg2/blk2/body/conv1_weight", 
      "attrs": {
        "__dtype__": "0", 
        "__lr_mult__": "1.0", 
        "__shape__": "(64, 0, 3, 3)", 
        "__storage_type__": "0", 
        "__wd_mult__": "1.0"
      }, 
      "inputs": []
    }, 
    {
      "op": "Convolution", 
      "name": "cifar10_mobilenet56_0.5/stg2/blk2/body/conv1_fwd", 
      "attrs": {
        "dilate": "(1, 1)", 
        "kernel": "(3, 3)", 
        "layout": "NCHW", 
        "no_bias": "True", 
        "num_filter": "64", 
        "num_group": "64", 
        "pad": "(1, 1)", 
        "stride": "(1, 1)"
      }, 
      "inputs": [[455, 0, 0], [456, 0, 0]]
    }, 
    {
      "op": "null", 
      "name": "cifar10_mobilenet56_0.5/stg2/blk2/body/batchnorm2_gamma", 
      "attrs": {
        "__dtype__": "0", 
        "__init__": "ones", 
        "__lr_mult__": "1.0", 
        "__shape__": "(0,)", 
        "__storage_type__": "0", 
        "__wd_mult__": "1.0"
      }, 
      "inputs": []
    }, 
    {
      "op": "null", 
      "name": "cifar10_mobilenet56_0.5/stg2/blk2/body/batchnorm2_beta", 
      "attrs": {
        "__dtype__": "0", 
        "__init__": "zeros", 
        "__lr_mult__": "1.0", 
        "__shape__": "(0,)", 
        "__storage_type__": "0", 
        "__wd_mult__": "1.0"
      }, 
      "inputs": []
    }, 
    {
      "op": "null", 
      "name": "cifar10_mobilenet56_0.5/stg2/blk2/body/batchnorm2_running_mean", 
      "attrs": {
        "__dtype__": "0", 
        "__init__": "zeros", 
        "__lr_mult__": "1.0", 
        "__shape__": "(0,)", 
        "__storage_type__": "0", 
        "__wd_mult__": "1.0"
      }, 
      "inputs": []
    }, 
    {
      "op": "null", 
      "name": "cifar10_mobilenet56_0.5/stg2/blk2/body/batchnorm2_running_var", 
      "attrs": {
        "__dtype__": "0", 
        "__init__": "ones", 
        "__lr_mult__": "1.0", 
        "__shape__": "(0,)", 
        "__storage_type__": "0", 
        "__wd_mult__": "1.0"
      }, 
      "inputs": []
    }, 
    {
      "op": "BatchNorm", 
      "name": "cifar10_mobilenet56_0.5/stg2/blk2/body/batchnorm2_fwd", 
      "attrs": {
        "axis": "1", 
        "eps": "1e-05", 
        "fix_gamma": "False", 
        "momentum": "0.9", 
        "use_global_stats": "False"
      }, 
      "inputs": [[457, 0, 0], [458, 0, 0], [459, 0, 0], [460, 0, 1], [461, 0, 1]]
    }, 
    {
      "op": "Activation", 
      "name": "cifar10_mobilenet56_0.5/stg2/blk2/body/relu2_fwd", 
      "attrs": {"act_type": "relu"}, 
      "inputs": [[462, 0, 0]]
    }, 
    {
      "op": "null", 
      "name": "cifar10_mobilenet56_0.5/stg2/blk2/body/conv2_weight", 
      "attrs": {
        "__dtype__": "0", 
        "__lr_mult__": "1.0", 
        "__shape__": "(128, 0, 1, 1)", 
        "__storage_type__": "0", 
        "__wd_mult__": "1.0"
      }, 
      "inputs": []
    }, 
    {
      "op": "Convolution", 
      "name": "cifar10_mobilenet56_0.5/stg2/blk2/body/conv2_fwd", 
      "attrs": {
        "dilate": "(1, 1)", 
        "kernel": "(1, 1)", 
        "layout": "NCHW", 
        "no_bias": "True", 
        "num_filter": "128", 
        "num_group": "1", 
        "pad": "(0, 0)", 
        "stride": "(1, 1)"
      }, 
      "inputs": [[463, 0, 0], [464, 0, 0]]
    }, 
    {
      "op": "null", 
      "name": "cifar10_mobilenet56_0.5/stg2/blk2/body/batchnorm3_gamma", 
      "attrs": {
        "__dtype__": "0", 
        "__init__": "ones", 
        "__lr_mult__": "1.0", 
        "__shape__": "(0,)", 
        "__storage_type__": "0", 
        "__wd_mult__": "1.0"
      }, 
      "inputs": []
    }, 
    {
      "op": "null", 
      "name": "cifar10_mobilenet56_0.5/stg2/blk2/body/batchnorm3_beta", 
      "attrs": {
        "__dtype__": "0", 
        "__init__": "zeros", 
        "__lr_mult__": "1.0", 
        "__shape__": "(0,)", 
        "__storage_type__": "0", 
        "__wd_mult__": "1.0"
      }, 
      "inputs": []
    }, 
    {
      "op": "null", 
      "name": "cifar10_mobilenet56_0.5/stg2/blk2/body/batchnorm3_running_mean", 
      "attrs": {
        "__dtype__": "0", 
        "__init__": "zeros", 
        "__lr_mult__": "1.0", 
        "__shape__": "(0,)", 
        "__storage_type__": "0", 
        "__wd_mult__": "1.0"
      }, 
      "inputs": []
    }, 
    {
      "op": "null", 
      "name": "cifar10_mobilenet56_0.5/stg2/blk2/body/batchnorm3_running_var", 
      "attrs": {
        "__dtype__": "0", 
        "__init__": "ones", 
        "__lr_mult__": "1.0", 
        "__shape__": "(0,)", 
        "__storage_type__": "0", 
        "__wd_mult__": "1.0"
      }, 
      "inputs": []
    }, 
    {
      "op": "BatchNorm", 
      "name": "cifar10_mobilenet56_0.5/stg2/blk2/body/batchnorm3_fwd", 
      "attrs": {
        "axis": "1", 
        "eps": "1e-05", 
        "fix_gamma": "False", 
        "momentum": "0.9", 
        "use_global_stats": "False"
      }, 
      "inputs": [[465, 0, 0], [466, 0, 0], [467, 0, 0], [468, 0, 1], [469, 0, 1]]
    }, 
    {
      "op": "elemwise_add", 
      "name": "cifar10_mobilenet56_0.5/stg2/blk2/_plus0", 
      "inputs": [[470, 0, 0], [441, 0, 0]]
    }, 
    {
      "op": "null", 
      "name": "cifar10_mobilenet56_0.5/stg2/blk3/body/batchnorm0_gamma", 
      "attrs": {
        "__dtype__": "0", 
        "__init__": "ones", 
        "__lr_mult__": "1.0", 
        "__shape__": "(0,)", 
        "__storage_type__": "0", 
        "__wd_mult__": "1.0"
      }, 
      "inputs": []
    }, 
    {
      "op": "null", 
      "name": "cifar10_mobilenet56_0.5/stg2/blk3/body/batchnorm0_beta", 
      "attrs": {
        "__dtype__": "0", 
        "__init__": "zeros", 
        "__lr_mult__": "1.0", 
        "__shape__": "(0,)", 
        "__storage_type__": "0", 
        "__wd_mult__": "1.0"
      }, 
      "inputs": []
    }, 
    {
      "op": "null", 
      "name": "cifar10_mobilenet56_0.5/stg2/blk3/body/batchnorm0_running_mean", 
      "attrs": {
        "__dtype__": "0", 
        "__init__": "zeros", 
        "__lr_mult__": "1.0", 
        "__shape__": "(0,)", 
        "__storage_type__": "0", 
        "__wd_mult__": "1.0"
      }, 
      "inputs": []
    }, 
    {
      "op": "null", 
      "name": "cifar10_mobilenet56_0.5/stg2/blk3/body/batchnorm0_running_var", 
      "attrs": {
        "__dtype__": "0", 
        "__init__": "ones", 
        "__lr_mult__": "1.0", 
        "__shape__": "(0,)", 
        "__storage_type__": "0", 
        "__wd_mult__": "1.0"
      }, 
      "inputs": []
    }, 
    {
      "op": "BatchNorm", 
      "name": "cifar10_mobilenet56_0.5/stg2/blk3/body/batchnorm0_fwd", 
      "attrs": {
        "axis": "1", 
        "eps": "1e-05", 
        "fix_gamma": "False", 
        "momentum": "0.9", 
        "use_global_stats": "False"
      }, 
      "inputs": [[471, 0, 0], [472, 0, 0], [473, 0, 0], [474, 0, 1], [475, 0, 1]]
    }, 
    {
      "op": "Activation", 
      "name": "cifar10_mobilenet56_0.5/stg2/blk3/body/relu0_fwd", 
      "attrs": {"act_type": "relu"}, 
      "inputs": [[476, 0, 0]]
    }, 
    {
      "op": "null", 
      "name": "cifar10_mobilenet56_0.5/stg2/blk3/body/conv0_weight", 
      "attrs": {
        "__dtype__": "0", 
        "__lr_mult__": "1.0", 
        "__shape__": "(64, 0, 1, 1)", 
        "__storage_type__": "0", 
        "__wd_mult__": "1.0"
      }, 
      "inputs": []
    }, 
    {
      "op": "Convolution", 
      "name": "cifar10_mobilenet56_0.5/stg2/blk3/body/conv0_fwd", 
      "attrs": {
        "dilate": "(1, 1)", 
        "kernel": "(1, 1)", 
        "layout": "NCHW", 
        "no_bias": "True", 
        "num_filter": "64", 
        "num_group": "1", 
        "pad": "(0, 0)", 
        "stride": "(1, 1)"
      }, 
      "inputs": [[477, 0, 0], [478, 0, 0]]
    }, 
    {
      "op": "null", 
      "name": "cifar10_mobilenet56_0.5/stg2/blk3/body/batchnorm1_gamma", 
      "attrs": {
        "__dtype__": "0", 
        "__init__": "ones", 
        "__lr_mult__": "1.0", 
        "__shape__": "(0,)", 
        "__storage_type__": "0", 
        "__wd_mult__": "1.0"
      }, 
      "inputs": []
    }, 
    {
      "op": "null", 
      "name": "cifar10_mobilenet56_0.5/stg2/blk3/body/batchnorm1_beta", 
      "attrs": {
        "__dtype__": "0", 
        "__init__": "zeros", 
        "__lr_mult__": "1.0", 
        "__shape__": "(0,)", 
        "__storage_type__": "0", 
        "__wd_mult__": "1.0"
      }, 
      "inputs": []
    }, 
    {
      "op": "null", 
      "name": "cifar10_mobilenet56_0.5/stg2/blk3/body/batchnorm1_running_mean", 
      "attrs": {
        "__dtype__": "0", 
        "__init__": "zeros", 
        "__lr_mult__": "1.0", 
        "__shape__": "(0,)", 
        "__storage_type__": "0", 
        "__wd_mult__": "1.0"
      }, 
      "inputs": []
    }, 
    {
      "op": "null", 
      "name": "cifar10_mobilenet56_0.5/stg2/blk3/body/batchnorm1_running_var", 
      "attrs": {
        "__dtype__": "0", 
        "__init__": "ones", 
        "__lr_mult__": "1.0", 
        "__shape__": "(0,)", 
        "__storage_type__": "0", 
        "__wd_mult__": "1.0"
      }, 
      "inputs": []
    }, 
    {
      "op": "BatchNorm", 
      "name": "cifar10_mobilenet56_0.5/stg2/blk3/body/batchnorm1_fwd", 
      "attrs": {
        "axis": "1", 
        "eps": "1e-05", 
        "fix_gamma": "False", 
        "momentum": "0.9", 
        "use_global_stats": "False"
      }, 
      "inputs": [[479, 0, 0], [480, 0, 0], [481, 0, 0], [482, 0, 1], [483, 0, 1]]
    }, 
    {
      "op": "Activation", 
      "name": "cifar10_mobilenet56_0.5/stg2/blk3/body/relu1_fwd", 
      "attrs": {"act_type": "relu"}, 
      "inputs": [[484, 0, 0]]
    }, 
    {
      "op": "null", 
      "name": "cifar10_mobilenet56_0.5/stg2/blk3/body/conv1_weight", 
      "attrs": {
        "__dtype__": "0", 
        "__lr_mult__": "1.0", 
        "__shape__": "(64, 0, 3, 3)", 
        "__storage_type__": "0", 
        "__wd_mult__": "1.0"
      }, 
      "inputs": []
    }, 
    {
      "op": "Convolution", 
      "name": "cifar10_mobilenet56_0.5/stg2/blk3/body/conv1_fwd", 
      "attrs": {
        "dilate": "(1, 1)", 
        "kernel": "(3, 3)", 
        "layout": "NCHW", 
        "no_bias": "True", 
        "num_filter": "64", 
        "num_group": "64", 
        "pad": "(1, 1)", 
        "stride": "(1, 1)"
      }, 
      "inputs": [[485, 0, 0], [486, 0, 0]]
    }, 
    {
      "op": "null", 
      "name": "cifar10_mobilenet56_0.5/stg2/blk3/body/batchnorm2_gamma", 
      "attrs": {
        "__dtype__": "0", 
        "__init__": "ones", 
        "__lr_mult__": "1.0", 
        "__shape__": "(0,)", 
        "__storage_type__": "0", 
        "__wd_mult__": "1.0"
      }, 
      "inputs": []
    }, 
    {
      "op": "null", 
      "name": "cifar10_mobilenet56_0.5/stg2/blk3/body/batchnorm2_beta", 
      "attrs": {
        "__dtype__": "0", 
        "__init__": "zeros", 
        "__lr_mult__": "1.0", 
        "__shape__": "(0,)", 
        "__storage_type__": "0", 
        "__wd_mult__": "1.0"
      }, 
      "inputs": []
    }, 
    {
      "op": "null", 
      "name": "cifar10_mobilenet56_0.5/stg2/blk3/body/batchnorm2_running_mean", 
      "attrs": {
        "__dtype__": "0", 
        "__init__": "zeros", 
        "__lr_mult__": "1.0", 
        "__shape__": "(0,)", 
        "__storage_type__": "0", 
        "__wd_mult__": "1.0"
      }, 
      "inputs": []
    }, 
    {
      "op": "null", 
      "name": "cifar10_mobilenet56_0.5/stg2/blk3/body/batchnorm2_running_var", 
      "attrs": {
        "__dtype__": "0", 
        "__init__": "ones", 
        "__lr_mult__": "1.0", 
        "__shape__": "(0,)", 
        "__storage_type__": "0", 
        "__wd_mult__": "1.0"
      }, 
      "inputs": []
    }, 
    {
      "op": "BatchNorm", 
      "name": "cifar10_mobilenet56_0.5/stg2/blk3/body/batchnorm2_fwd", 
      "attrs": {
        "axis": "1", 
        "eps": "1e-05", 
        "fix_gamma": "False", 
        "momentum": "0.9", 
        "use_global_stats": "False"
      }, 
      "inputs": [[487, 0, 0], [488, 0, 0], [489, 0, 0], [490, 0, 1], [491, 0, 1]]
    }, 
    {
      "op": "Activation", 
      "name": "cifar10_mobilenet56_0.5/stg2/blk3/body/relu2_fwd", 
      "attrs": {"act_type": "relu"}, 
      "inputs": [[492, 0, 0]]
    }, 
    {
      "op": "null", 
      "name": "cifar10_mobilenet56_0.5/stg2/blk3/body/conv2_weight", 
      "attrs": {
        "__dtype__": "0", 
        "__lr_mult__": "1.0", 
        "__shape__": "(128, 0, 1, 1)", 
        "__storage_type__": "0", 
        "__wd_mult__": "1.0"
      }, 
      "inputs": []
    }, 
    {
      "op": "Convolution", 
      "name": "cifar10_mobilenet56_0.5/stg2/blk3/body/conv2_fwd", 
      "attrs": {
        "dilate": "(1, 1)", 
        "kernel": "(1, 1)", 
        "layout": "NCHW", 
        "no_bias": "True", 
        "num_filter": "128", 
        "num_group": "1", 
        "pad": "(0, 0)", 
        "stride": "(1, 1)"
      }, 
      "inputs": [[493, 0, 0], [494, 0, 0]]
    }, 
    {
      "op": "null", 
      "name": "cifar10_mobilenet56_0.5/stg2/blk3/body/batchnorm3_gamma", 
      "attrs": {
        "__dtype__": "0", 
        "__init__": "ones", 
        "__lr_mult__": "1.0", 
        "__shape__": "(0,)", 
        "__storage_type__": "0", 
        "__wd_mult__": "1.0"
      }, 
      "inputs": []
    }, 
    {
      "op": "null", 
      "name": "cifar10_mobilenet56_0.5/stg2/blk3/body/batchnorm3_beta", 
      "attrs": {
        "__dtype__": "0", 
        "__init__": "zeros", 
        "__lr_mult__": "1.0", 
        "__shape__": "(0,)", 
        "__storage_type__": "0", 
        "__wd_mult__": "1.0"
      }, 
      "inputs": []
    }, 
    {
      "op": "null", 
      "name": "cifar10_mobilenet56_0.5/stg2/blk3/body/batchnorm3_running_mean", 
      "attrs": {
        "__dtype__": "0", 
        "__init__": "zeros", 
        "__lr_mult__": "1.0", 
        "__shape__": "(0,)", 
        "__storage_type__": "0", 
        "__wd_mult__": "1.0"
      }, 
      "inputs": []
    }, 
    {
      "op": "null", 
      "name": "cifar10_mobilenet56_0.5/stg2/blk3/body/batchnorm3_running_var", 
      "attrs": {
        "__dtype__": "0", 
        "__init__": "ones", 
        "__lr_mult__": "1.0", 
        "__shape__": "(0,)", 
        "__storage_type__": "0", 
        "__wd_mult__": "1.0"
      }, 
      "inputs": []
    }, 
    {
      "op": "BatchNorm", 
      "name": "cifar10_mobilenet56_0.5/stg2/blk3/body/batchnorm3_fwd", 
      "attrs": {
        "axis": "1", 
        "eps": "1e-05", 
        "fix_gamma": "False", 
        "momentum": "0.9", 
        "use_global_stats": "False"
      }, 
      "inputs": [[495, 0, 0], [496, 0, 0], [497, 0, 0], [498, 0, 1], [499, 0, 1]]
    }, 
    {
      "op": "elemwise_add", 
      "name": "cifar10_mobilenet56_0.5/stg2/blk3/_plus0", 
      "inputs": [[500, 0, 0], [471, 0, 0]]
    }, 
    {
      "op": "null", 
      "name": "cifar10_mobilenet56_0.5/stg2/blk4/body/batchnorm0_gamma", 
      "attrs": {
        "__dtype__": "0", 
        "__init__": "ones", 
        "__lr_mult__": "1.0", 
        "__shape__": "(0,)", 
        "__storage_type__": "0", 
        "__wd_mult__": "1.0"
      }, 
      "inputs": []
    }, 
    {
      "op": "null", 
      "name": "cifar10_mobilenet56_0.5/stg2/blk4/body/batchnorm0_beta", 
      "attrs": {
        "__dtype__": "0", 
        "__init__": "zeros", 
        "__lr_mult__": "1.0", 
        "__shape__": "(0,)", 
        "__storage_type__": "0", 
        "__wd_mult__": "1.0"
      }, 
      "inputs": []
    }, 
    {
      "op": "null", 
      "name": "cifar10_mobilenet56_0.5/stg2/blk4/body/batchnorm0_running_mean", 
      "attrs": {
        "__dtype__": "0", 
        "__init__": "zeros", 
        "__lr_mult__": "1.0", 
        "__shape__": "(0,)", 
        "__storage_type__": "0", 
        "__wd_mult__": "1.0"
      }, 
      "inputs": []
    }, 
    {
      "op": "null", 
      "name": "cifar10_mobilenet56_0.5/stg2/blk4/body/batchnorm0_running_var", 
      "attrs": {
        "__dtype__": "0", 
        "__init__": "ones", 
        "__lr_mult__": "1.0", 
        "__shape__": "(0,)", 
        "__storage_type__": "0", 
        "__wd_mult__": "1.0"
      }, 
      "inputs": []
    }, 
    {
      "op": "BatchNorm", 
      "name": "cifar10_mobilenet56_0.5/stg2/blk4/body/batchnorm0_fwd", 
      "attrs": {
        "axis": "1", 
        "eps": "1e-05", 
        "fix_gamma": "False", 
        "momentum": "0.9", 
        "use_global_stats": "False"
      }, 
      "inputs": [[501, 0, 0], [502, 0, 0], [503, 0, 0], [504, 0, 1], [505, 0, 1]]
    }, 
    {
      "op": "Activation", 
      "name": "cifar10_mobilenet56_0.5/stg2/blk4/body/relu0_fwd", 
      "attrs": {"act_type": "relu"}, 
      "inputs": [[506, 0, 0]]
    }, 
    {
      "op": "null", 
      "name": "cifar10_mobilenet56_0.5/stg2/blk4/body/conv0_weight", 
      "attrs": {
        "__dtype__": "0", 
        "__lr_mult__": "1.0", 
        "__shape__": "(64, 0, 1, 1)", 
        "__storage_type__": "0", 
        "__wd_mult__": "1.0"
      }, 
      "inputs": []
    }, 
    {
      "op": "Convolution", 
      "name": "cifar10_mobilenet56_0.5/stg2/blk4/body/conv0_fwd", 
      "attrs": {
        "dilate": "(1, 1)", 
        "kernel": "(1, 1)", 
        "layout": "NCHW", 
        "no_bias": "True", 
        "num_filter": "64", 
        "num_group": "1", 
        "pad": "(0, 0)", 
        "stride": "(1, 1)"
      }, 
      "inputs": [[507, 0, 0], [508, 0, 0]]
    }, 
    {
      "op": "null", 
      "name": "cifar10_mobilenet56_0.5/stg2/blk4/body/batchnorm1_gamma", 
      "attrs": {
        "__dtype__": "0", 
        "__init__": "ones", 
        "__lr_mult__": "1.0", 
        "__shape__": "(0,)", 
        "__storage_type__": "0", 
        "__wd_mult__": "1.0"
      }, 
      "inputs": []
    }, 
    {
      "op": "null", 
      "name": "cifar10_mobilenet56_0.5/stg2/blk4/body/batchnorm1_beta", 
      "attrs": {
        "__dtype__": "0", 
        "__init__": "zeros", 
        "__lr_mult__": "1.0", 
        "__shape__": "(0,)", 
        "__storage_type__": "0", 
        "__wd_mult__": "1.0"
      }, 
      "inputs": []
    }, 
    {
      "op": "null", 
      "name": "cifar10_mobilenet56_0.5/stg2/blk4/body/batchnorm1_running_mean", 
      "attrs": {
        "__dtype__": "0", 
        "__init__": "zeros", 
        "__lr_mult__": "1.0", 
        "__shape__": "(0,)", 
        "__storage_type__": "0", 
        "__wd_mult__": "1.0"
      }, 
      "inputs": []
    }, 
    {
      "op": "null", 
      "name": "cifar10_mobilenet56_0.5/stg2/blk4/body/batchnorm1_running_var", 
      "attrs": {
        "__dtype__": "0", 
        "__init__": "ones", 
        "__lr_mult__": "1.0", 
        "__shape__": "(0,)", 
        "__storage_type__": "0", 
        "__wd_mult__": "1.0"
      }, 
      "inputs": []
    }, 
    {
      "op": "BatchNorm", 
      "name": "cifar10_mobilenet56_0.5/stg2/blk4/body/batchnorm1_fwd", 
      "attrs": {
        "axis": "1", 
        "eps": "1e-05", 
        "fix_gamma": "False", 
        "momentum": "0.9", 
        "use_global_stats": "False"
      }, 
      "inputs": [[509, 0, 0], [510, 0, 0], [511, 0, 0], [512, 0, 1], [513, 0, 1]]
    }, 
    {
      "op": "Activation", 
      "name": "cifar10_mobilenet56_0.5/stg2/blk4/body/relu1_fwd", 
      "attrs": {"act_type": "relu"}, 
      "inputs": [[514, 0, 0]]
    }, 
    {
      "op": "null", 
      "name": "cifar10_mobilenet56_0.5/stg2/blk4/body/conv1_weight", 
      "attrs": {
        "__dtype__": "0", 
        "__lr_mult__": "1.0", 
        "__shape__": "(64, 0, 3, 3)", 
        "__storage_type__": "0", 
        "__wd_mult__": "1.0"
      }, 
      "inputs": []
    }, 
    {
      "op": "Convolution", 
      "name": "cifar10_mobilenet56_0.5/stg2/blk4/body/conv1_fwd", 
      "attrs": {
        "dilate": "(1, 1)", 
        "kernel": "(3, 3)", 
        "layout": "NCHW", 
        "no_bias": "True", 
        "num_filter": "64", 
        "num_group": "64", 
        "pad": "(1, 1)", 
        "stride": "(1, 1)"
      }, 
      "inputs": [[515, 0, 0], [516, 0, 0]]
    }, 
    {
      "op": "null", 
      "name": "cifar10_mobilenet56_0.5/stg2/blk4/body/batchnorm2_gamma", 
      "attrs": {
        "__dtype__": "0", 
        "__init__": "ones", 
        "__lr_mult__": "1.0", 
        "__shape__": "(0,)", 
        "__storage_type__": "0", 
        "__wd_mult__": "1.0"
      }, 
      "inputs": []
    }, 
    {
      "op": "null", 
      "name": "cifar10_mobilenet56_0.5/stg2/blk4/body/batchnorm2_beta", 
      "attrs": {
        "__dtype__": "0", 
        "__init__": "zeros", 
        "__lr_mult__": "1.0", 
        "__shape__": "(0,)", 
        "__storage_type__": "0", 
        "__wd_mult__": "1.0"
      }, 
      "inputs": []
    }, 
    {
      "op": "null", 
      "name": "cifar10_mobilenet56_0.5/stg2/blk4/body/batchnorm2_running_mean", 
      "attrs": {
        "__dtype__": "0", 
        "__init__": "zeros", 
        "__lr_mult__": "1.0", 
        "__shape__": "(0,)", 
        "__storage_type__": "0", 
        "__wd_mult__": "1.0"
      }, 
      "inputs": []
    }, 
    {
      "op": "null", 
      "name": "cifar10_mobilenet56_0.5/stg2/blk4/body/batchnorm2_running_var", 
      "attrs": {
        "__dtype__": "0", 
        "__init__": "ones", 
        "__lr_mult__": "1.0", 
        "__shape__": "(0,)", 
        "__storage_type__": "0", 
        "__wd_mult__": "1.0"
      }, 
      "inputs": []
    }, 
    {
      "op": "BatchNorm", 
      "name": "cifar10_mobilenet56_0.5/stg2/blk4/body/batchnorm2_fwd", 
      "attrs": {
        "axis": "1", 
        "eps": "1e-05", 
        "fix_gamma": "False", 
        "momentum": "0.9", 
        "use_global_stats": "False"
      }, 
      "inputs": [[517, 0, 0], [518, 0, 0], [519, 0, 0], [520, 0, 1], [521, 0, 1]]
    }, 
    {
      "op": "Activation", 
      "name": "cifar10_mobilenet56_0.5/stg2/blk4/body/relu2_fwd", 
      "attrs": {"act_type": "relu"}, 
      "inputs": [[522, 0, 0]]
    }, 
    {
      "op": "null", 
      "name": "cifar10_mobilenet56_0.5/stg2/blk4/body/conv2_weight", 
      "attrs": {
        "__dtype__": "0", 
        "__lr_mult__": "1.0", 
        "__shape__": "(128, 0, 1, 1)", 
        "__storage_type__": "0", 
        "__wd_mult__": "1.0"
      }, 
      "inputs": []
    }, 
    {
      "op": "Convolution", 
      "name": "cifar10_mobilenet56_0.5/stg2/blk4/body/conv2_fwd", 
      "attrs": {
        "dilate": "(1, 1)", 
        "kernel": "(1, 1)", 
        "layout": "NCHW", 
        "no_bias": "True", 
        "num_filter": "128", 
        "num_group": "1", 
        "pad": "(0, 0)", 
        "stride": "(1, 1)"
      }, 
      "inputs": [[523, 0, 0], [524, 0, 0]]
    }, 
    {
      "op": "null", 
      "name": "cifar10_mobilenet56_0.5/stg2/blk4/body/batchnorm3_gamma", 
      "attrs": {
        "__dtype__": "0", 
        "__init__": "ones", 
        "__lr_mult__": "1.0", 
        "__shape__": "(0,)", 
        "__storage_type__": "0", 
        "__wd_mult__": "1.0"
      }, 
      "inputs": []
    }, 
    {
      "op": "null", 
      "name": "cifar10_mobilenet56_0.5/stg2/blk4/body/batchnorm3_beta", 
      "attrs": {
        "__dtype__": "0", 
        "__init__": "zeros", 
        "__lr_mult__": "1.0", 
        "__shape__": "(0,)", 
        "__storage_type__": "0", 
        "__wd_mult__": "1.0"
      }, 
      "inputs": []
    }, 
    {
      "op": "null", 
      "name": "cifar10_mobilenet56_0.5/stg2/blk4/body/batchnorm3_running_mean", 
      "attrs": {
        "__dtype__": "0", 
        "__init__": "zeros", 
        "__lr_mult__": "1.0", 
        "__shape__": "(0,)", 
        "__storage_type__": "0", 
        "__wd_mult__": "1.0"
      }, 
      "inputs": []
    }, 
    {
      "op": "null", 
      "name": "cifar10_mobilenet56_0.5/stg2/blk4/body/batchnorm3_running_var", 
      "attrs": {
        "__dtype__": "0", 
        "__init__": "ones", 
        "__lr_mult__": "1.0", 
        "__shape__": "(0,)", 
        "__storage_type__": "0", 
        "__wd_mult__": "1.0"
      }, 
      "inputs": []
    }, 
    {
      "op": "BatchNorm", 
      "name": "cifar10_mobilenet56_0.5/stg2/blk4/body/batchnorm3_fwd", 
      "attrs": {
        "axis": "1", 
        "eps": "1e-05", 
        "fix_gamma": "False", 
        "momentum": "0.9", 
        "use_global_stats": "False"
      }, 
      "inputs": [[525, 0, 0], [526, 0, 0], [527, 0, 0], [528, 0, 1], [529, 0, 1]]
    }, 
    {
      "op": "elemwise_add", 
      "name": "cifar10_mobilenet56_0.5/stg2/blk4/_plus0", 
      "inputs": [[530, 0, 0], [501, 0, 0]]
    }, 
    {
      "op": "null", 
      "name": "cifar10_mobilenet56_0.5/stg2/blk5/body/batchnorm0_gamma", 
      "attrs": {
        "__dtype__": "0", 
        "__init__": "ones", 
        "__lr_mult__": "1.0", 
        "__shape__": "(0,)", 
        "__storage_type__": "0", 
        "__wd_mult__": "1.0"
      }, 
      "inputs": []
    }, 
    {
      "op": "null", 
      "name": "cifar10_mobilenet56_0.5/stg2/blk5/body/batchnorm0_beta", 
      "attrs": {
        "__dtype__": "0", 
        "__init__": "zeros", 
        "__lr_mult__": "1.0", 
        "__shape__": "(0,)", 
        "__storage_type__": "0", 
        "__wd_mult__": "1.0"
      }, 
      "inputs": []
    }, 
    {
      "op": "null", 
      "name": "cifar10_mobilenet56_0.5/stg2/blk5/body/batchnorm0_running_mean", 
      "attrs": {
        "__dtype__": "0", 
        "__init__": "zeros", 
        "__lr_mult__": "1.0", 
        "__shape__": "(0,)", 
        "__storage_type__": "0", 
        "__wd_mult__": "1.0"
      }, 
      "inputs": []
    }, 
    {
      "op": "null", 
      "name": "cifar10_mobilenet56_0.5/stg2/blk5/body/batchnorm0_running_var", 
      "attrs": {
        "__dtype__": "0", 
        "__init__": "ones", 
        "__lr_mult__": "1.0", 
        "__shape__": "(0,)", 
        "__storage_type__": "0", 
        "__wd_mult__": "1.0"
      }, 
      "inputs": []
    }, 
    {
      "op": "BatchNorm", 
      "name": "cifar10_mobilenet56_0.5/stg2/blk5/body/batchnorm0_fwd", 
      "attrs": {
        "axis": "1", 
        "eps": "1e-05", 
        "fix_gamma": "False", 
        "momentum": "0.9", 
        "use_global_stats": "False"
      }, 
      "inputs": [[531, 0, 0], [532, 0, 0], [533, 0, 0], [534, 0, 1], [535, 0, 1]]
    }, 
    {
      "op": "Activation", 
      "name": "cifar10_mobilenet56_0.5/stg2/blk5/body/relu0_fwd", 
      "attrs": {"act_type": "relu"}, 
      "inputs": [[536, 0, 0]]
    }, 
    {
      "op": "null", 
      "name": "cifar10_mobilenet56_0.5/stg2/blk5/body/conv0_weight", 
      "attrs": {
        "__dtype__": "0", 
        "__lr_mult__": "1.0", 
        "__shape__": "(64, 0, 1, 1)", 
        "__storage_type__": "0", 
        "__wd_mult__": "1.0"
      }, 
      "inputs": []
    }, 
    {
      "op": "Convolution", 
      "name": "cifar10_mobilenet56_0.5/stg2/blk5/body/conv0_fwd", 
      "attrs": {
        "dilate": "(1, 1)", 
        "kernel": "(1, 1)", 
        "layout": "NCHW", 
        "no_bias": "True", 
        "num_filter": "64", 
        "num_group": "1", 
        "pad": "(0, 0)", 
        "stride": "(1, 1)"
      }, 
      "inputs": [[537, 0, 0], [538, 0, 0]]
    }, 
    {
      "op": "null", 
      "name": "cifar10_mobilenet56_0.5/stg2/blk5/body/batchnorm1_gamma", 
      "attrs": {
        "__dtype__": "0", 
        "__init__": "ones", 
        "__lr_mult__": "1.0", 
        "__shape__": "(0,)", 
        "__storage_type__": "0", 
        "__wd_mult__": "1.0"
      }, 
      "inputs": []
    }, 
    {
      "op": "null", 
      "name": "cifar10_mobilenet56_0.5/stg2/blk5/body/batchnorm1_beta", 
      "attrs": {
        "__dtype__": "0", 
        "__init__": "zeros", 
        "__lr_mult__": "1.0", 
        "__shape__": "(0,)", 
        "__storage_type__": "0", 
        "__wd_mult__": "1.0"
      }, 
      "inputs": []
    }, 
    {
      "op": "null", 
      "name": "cifar10_mobilenet56_0.5/stg2/blk5/body/batchnorm1_running_mean", 
      "attrs": {
        "__dtype__": "0", 
        "__init__": "zeros", 
        "__lr_mult__": "1.0", 
        "__shape__": "(0,)", 
        "__storage_type__": "0", 
        "__wd_mult__": "1.0"
      }, 
      "inputs": []
    }, 
    {
      "op": "null", 
      "name": "cifar10_mobilenet56_0.5/stg2/blk5/body/batchnorm1_running_var", 
      "attrs": {
        "__dtype__": "0", 
        "__init__": "ones", 
        "__lr_mult__": "1.0", 
        "__shape__": "(0,)", 
        "__storage_type__": "0", 
        "__wd_mult__": "1.0"
      }, 
      "inputs": []
    }, 
    {
      "op": "BatchNorm", 
      "name": "cifar10_mobilenet56_0.5/stg2/blk5/body/batchnorm1_fwd", 
      "attrs": {
        "axis": "1", 
        "eps": "1e-05", 
        "fix_gamma": "False", 
        "momentum": "0.9", 
        "use_global_stats": "False"
      }, 
      "inputs": [[539, 0, 0], [540, 0, 0], [541, 0, 0], [542, 0, 1], [543, 0, 1]]
    }, 
    {
      "op": "Activation", 
      "name": "cifar10_mobilenet56_0.5/stg2/blk5/body/relu1_fwd", 
      "attrs": {"act_type": "relu"}, 
      "inputs": [[544, 0, 0]]
    }, 
    {
      "op": "null", 
      "name": "cifar10_mobilenet56_0.5/stg2/blk5/body/conv1_weight", 
      "attrs": {
        "__dtype__": "0", 
        "__lr_mult__": "1.0", 
        "__shape__": "(64, 0, 3, 3)", 
        "__storage_type__": "0", 
        "__wd_mult__": "1.0"
      }, 
      "inputs": []
    }, 
    {
      "op": "Convolution", 
      "name": "cifar10_mobilenet56_0.5/stg2/blk5/body/conv1_fwd", 
      "attrs": {
        "dilate": "(1, 1)", 
        "kernel": "(3, 3)", 
        "layout": "NCHW", 
        "no_bias": "True", 
        "num_filter": "64", 
        "num_group": "64", 
        "pad": "(1, 1)", 
        "stride": "(1, 1)"
      }, 
      "inputs": [[545, 0, 0], [546, 0, 0]]
    }, 
    {
      "op": "null", 
      "name": "cifar10_mobilenet56_0.5/stg2/blk5/body/batchnorm2_gamma", 
      "attrs": {
        "__dtype__": "0", 
        "__init__": "ones", 
        "__lr_mult__": "1.0", 
        "__shape__": "(0,)", 
        "__storage_type__": "0", 
        "__wd_mult__": "1.0"
      }, 
      "inputs": []
    }, 
    {
      "op": "null", 
      "name": "cifar10_mobilenet56_0.5/stg2/blk5/body/batchnorm2_beta", 
      "attrs": {
        "__dtype__": "0", 
        "__init__": "zeros", 
        "__lr_mult__": "1.0", 
        "__shape__": "(0,)", 
        "__storage_type__": "0", 
        "__wd_mult__": "1.0"
      }, 
      "inputs": []
    }, 
    {
      "op": "null", 
      "name": "cifar10_mobilenet56_0.5/stg2/blk5/body/batchnorm2_running_mean", 
      "attrs": {
        "__dtype__": "0", 
        "__init__": "zeros", 
        "__lr_mult__": "1.0", 
        "__shape__": "(0,)", 
        "__storage_type__": "0", 
        "__wd_mult__": "1.0"
      }, 
      "inputs": []
    }, 
    {
      "op": "null", 
      "name": "cifar10_mobilenet56_0.5/stg2/blk5/body/batchnorm2_running_var", 
      "attrs": {
        "__dtype__": "0", 
        "__init__": "ones", 
        "__lr_mult__": "1.0", 
        "__shape__": "(0,)", 
        "__storage_type__": "0", 
        "__wd_mult__": "1.0"
      }, 
      "inputs": []
    }, 
    {
      "op": "BatchNorm", 
      "name": "cifar10_mobilenet56_0.5/stg2/blk5/body/batchnorm2_fwd", 
      "attrs": {
        "axis": "1", 
        "eps": "1e-05", 
        "fix_gamma": "False", 
        "momentum": "0.9", 
        "use_global_stats": "False"
      }, 
      "inputs": [[547, 0, 0], [548, 0, 0], [549, 0, 0], [550, 0, 1], [551, 0, 1]]
    }, 
    {
      "op": "Activation", 
      "name": "cifar10_mobilenet56_0.5/stg2/blk5/body/relu2_fwd", 
      "attrs": {"act_type": "relu"}, 
      "inputs": [[552, 0, 0]]
    }, 
    {
      "op": "null", 
      "name": "cifar10_mobilenet56_0.5/stg2/blk5/body/conv2_weight", 
      "attrs": {
        "__dtype__": "0", 
        "__lr_mult__": "1.0", 
        "__shape__": "(128, 0, 1, 1)", 
        "__storage_type__": "0", 
        "__wd_mult__": "1.0"
      }, 
      "inputs": []
    }, 
    {
      "op": "Convolution", 
      "name": "cifar10_mobilenet56_0.5/stg2/blk5/body/conv2_fwd", 
      "attrs": {
        "dilate": "(1, 1)", 
        "kernel": "(1, 1)", 
        "layout": "NCHW", 
        "no_bias": "True", 
        "num_filter": "128", 
        "num_group": "1", 
        "pad": "(0, 0)", 
        "stride": "(1, 1)"
      }, 
      "inputs": [[553, 0, 0], [554, 0, 0]]
    }, 
    {
      "op": "null", 
      "name": "cifar10_mobilenet56_0.5/stg2/blk5/body/batchnorm3_gamma", 
      "attrs": {
        "__dtype__": "0", 
        "__init__": "ones", 
        "__lr_mult__": "1.0", 
        "__shape__": "(0,)", 
        "__storage_type__": "0", 
        "__wd_mult__": "1.0"
      }, 
      "inputs": []
    }, 
    {
      "op": "null", 
      "name": "cifar10_mobilenet56_0.5/stg2/blk5/body/batchnorm3_beta", 
      "attrs": {
        "__dtype__": "0", 
        "__init__": "zeros", 
        "__lr_mult__": "1.0", 
        "__shape__": "(0,)", 
        "__storage_type__": "0", 
        "__wd_mult__": "1.0"
      }, 
      "inputs": []
    }, 
    {
      "op": "null", 
      "name": "cifar10_mobilenet56_0.5/stg2/blk5/body/batchnorm3_running_mean", 
      "attrs": {
        "__dtype__": "0", 
        "__init__": "zeros", 
        "__lr_mult__": "1.0", 
        "__shape__": "(0,)", 
        "__storage_type__": "0", 
        "__wd_mult__": "1.0"
      }, 
      "inputs": []
    }, 
    {
      "op": "null", 
      "name": "cifar10_mobilenet56_0.5/stg2/blk5/body/batchnorm3_running_var", 
      "attrs": {
        "__dtype__": "0", 
        "__init__": "ones", 
        "__lr_mult__": "1.0", 
        "__shape__": "(0,)", 
        "__storage_type__": "0", 
        "__wd_mult__": "1.0"
      }, 
      "inputs": []
    }, 
    {
      "op": "BatchNorm", 
      "name": "cifar10_mobilenet56_0.5/stg2/blk5/body/batchnorm3_fwd", 
      "attrs": {
        "axis": "1", 
        "eps": "1e-05", 
        "fix_gamma": "False", 
        "momentum": "0.9", 
        "use_global_stats": "False"
      }, 
      "inputs": [[555, 0, 0], [556, 0, 0], [557, 0, 0], [558, 0, 1], [559, 0, 1]]
    }, 
    {
      "op": "elemwise_add", 
      "name": "cifar10_mobilenet56_0.5/stg2/blk5/_plus0", 
      "inputs": [[560, 0, 0], [531, 0, 0]]
    }, 
    {
      "op": "Pooling", 
      "name": "cifar10_mobilenet56_0.5/classifier/pool0_fwd", 
      "attrs": {
        "global_pool": "True", 
        "kernel": "(1, 1)", 
        "pad": "(0, 0)", 
        "pool_type": "avg", 
        "pooling_convention": "full", 
        "stride": "(1, 1)"
      }, 
      "inputs": [[561, 0, 0]]
    }, 
    {
      "op": "null", 
      "name": "cifar10_mobilenet56_0.5/classifier/dense0_weight", 
      "attrs": {
        "__dtype__": "0", 
        "__lr_mult__": "1.0", 
        "__shape__": "(10, 0)", 
        "__storage_type__": "0", 
        "__wd_mult__": "1.0"
      }, 
      "inputs": []
    }, 
    {
      "op": "null", 
      "name": "cifar10_mobilenet56_0.5/classifier/dense0_bias", 
      "attrs": {
        "__dtype__": "0", 
        "__init__": "zeros", 
        "__lr_mult__": "1.0", 
        "__shape__": "(10,)", 
        "__storage_type__": "0", 
        "__wd_mult__": "1.0"
      }, 
      "inputs": []
    }, 
    {
      "op": "FullyConnected", 
      "name": "cifar10_mobilenet56_0.5/classifier/dense0_fwd", 
      "attrs": {
        "flatten": "True", 
        "no_bias": "False", 
        "num_hidden": "10"
      }, 
      "inputs": [[562, 0, 0], [563, 0, 0], [564, 0, 0]]
    }
  ], 
  "arg_nodes": [
    0, 
    1, 
    2, 
    3, 
    4, 
    6, 
    8, 
    9, 
    10, 
    11, 
    14, 
    16, 
    17, 
    18, 
    19, 
    22, 
    24, 
    25, 
    26, 
    27, 
    30, 
    32, 
    33, 
    34, 
    35, 
    38, 
    39, 
    40, 
    41, 
    44, 
    46, 
    47, 
    48, 
    49, 
    52, 
    54, 
    55, 
    56, 
    57, 
    60, 
    62, 
    63, 
    64, 
    65, 
    68, 
    69, 
    70, 
    71, 
    74, 
    76, 
    77, 
    78, 
    79, 
    82, 
    84, 
    85, 
    86, 
    87, 
    90, 
    92, 
    93, 
    94, 
    95, 
    98, 
    99, 
    100, 
    101, 
    104, 
    106, 
    107, 
    108, 
    109, 
    112, 
    114, 
    115, 
    116, 
    117, 
    120, 
    122, 
    123, 
    124, 
    125, 
    128, 
    129, 
    130, 
    131, 
    134, 
    136, 
    137, 
    138, 
    139, 
    142, 
    144, 
    145, 
    146, 
    147, 
    150, 
    152, 
    153, 
    154, 
    155, 
    158, 
    159, 
    160, 
    161, 
    164, 
    166, 
    167, 
    168, 
    169, 
    172, 
    174, 
    175, 
    176, 
    177, 
    180, 
    182, 
    183, 
    184, 
    185, 
    188, 
    189, 
    190, 
    191, 
    194, 
    196, 
    197, 
    198, 
    199, 
    202, 
    204, 
    205, 
    206, 
    207, 
    210, 
    212, 
    213, 
    214, 
    215, 
    217, 
    219, 
    220, 
    221, 
    222, 
    225, 
    226, 
    227, 
    228, 
    231, 
    233, 
    234, 
    235, 
    236, 
    239, 
    241, 
    242, 
    243, 
    244, 
    247, 
    249, 
    250, 
    251, 
    252, 
    255, 
    256, 
    257, 
    258, 
    261, 
    263, 
    264, 
    265, 
    266, 
    269, 
    271, 
    272, 
    273, 
    274, 
    277, 
    279, 
    280, 
    281, 
    282, 
    285, 
    286, 
    287, 
    288, 
    291, 
    293, 
    294, 
    295, 
    296, 
    299, 
    301, 
    302, 
    303, 
    304, 
    307, 
    309, 
    310, 
    311, 
    312, 
    315, 
    316, 
    317, 
    318, 
    321, 
    323, 
    324, 
    325, 
    326, 
    329, 
    331, 
    332, 
    333, 
    334, 
    337, 
    339, 
    340, 
    341, 
    342, 
    345, 
    346, 
    347, 
    348, 
    351, 
    353, 
    354, 
    355, 
    356, 
    359, 
    361, 
    362, 
    363, 
    364, 
    367, 
    369, 
    370, 
    371, 
    372, 
    375, 
    376, 
    377, 
    378, 
    381, 
    383, 
    384, 
    385, 
    386, 
    389, 
    391, 
    392, 
    393, 
    394, 
    397, 
    399, 
    400, 
    401, 
    402, 
    404, 
    406, 
    407, 
    408, 
    409, 
    412, 
    413, 
    414, 
    415, 
    418, 
    420, 
    421, 
    422, 
    423, 
    426, 
    428, 
    429, 
    430, 
    431, 
    434, 
    436, 
    437, 
    438, 
    439, 
    442, 
    443, 
    444, 
    445, 
    448, 
    450, 
    451, 
    452, 
    453, 
    456, 
    458, 
    459, 
    460, 
    461, 
    464, 
    466, 
    467, 
    468, 
    469, 
    472, 
    473, 
    474, 
    475, 
    478, 
    480, 
    481, 
    482, 
    483, 
    486, 
    488, 
    489, 
    490, 
    491, 
    494, 
    496, 
    497, 
    498, 
    499, 
    502, 
    503, 
    504, 
    505, 
    508, 
    510, 
    511, 
    512, 
    513, 
    516, 
    518, 
    519, 
    520, 
    521, 
    524, 
    526, 
    527, 
    528, 
    529, 
    532, 
    533, 
    534, 
    535, 
    538, 
    540, 
    541, 
    542, 
    543, 
    546, 
    548, 
    549, 
    550, 
    551, 
    554, 
    556, 
    557, 
    558, 
    559, 
    563, 
    564
  ], 
  "node_row_ptr": [
    0, 
    1, 
    2, 
    3, 
    4, 
    5, 
    8, 
    9, 
    10, 
    11, 
    12, 
    13, 
    14, 
    17, 
    18, 
    19, 
    20, 
    21, 
    22, 
    23, 
    24, 
    27, 
    28, 
    29, 
    30, 
    31, 
    32, 
    33, 
    34, 
    37, 
    38, 
    39, 
    40, 
    41, 
    42, 
    43, 
    44, 
    47, 
    48, 
    49, 
    50, 
    51, 
    52, 
    55, 
    56, 
    57, 
    58, 
    59, 
    60, 
    61, 
    62, 
    65, 
    66, 
    67, 
    68, 
    69, 
    70, 
    71, 
    72, 
    75, 
    76, 
    77, 
    78, 
    79, 
    80, 
    81, 
    82, 
    85, 
    86, 
    87, 
    88, 
    89, 
    90, 
    93, 
    94, 
    95, 
    96, 
    97, 
    98, 
    99, 
    100, 
    103, 
    104, 
    105, 
    106, 
    107, 
    108, 
    109, 
    110, 
    113, 
    114, 
    115, 
    116, 
    117, 
    118, 
    119, 
    120, 
    123, 
    124, 
    125, 
    126, 
    127, 
    128, 
    131, 
    132, 
    133, 
    134, 
    135, 
    136, 
    137, 
    138, 
    141, 
    142, 
    143, 
    144, 
    145, 
    146, 
    147, 
    148, 
    151, 
    152, 
    153, 
    154, 
    155, 
    156, 
    157, 
    158, 
    161, 
    162, 
    163, 
    164, 
    165, 
    166, 
    169, 
    170, 
    171, 
    172, 
    173, 
    174, 
    175, 
    176, 
    179, 
    180, 
    181, 
    182, 
    183, 
    184, 
    185, 
    186, 
    189, 
    190, 
    191, 
    192, 
    193, 
    194, 
    195, 
    196, 
    199, 
    200, 
    201, 
    202, 
    203, 
    204, 
    207, 
    208, 
    209, 
    210, 
    211, 
    212, 
    213, 
    214, 
    217, 
    218, 
    219, 
    220, 
    221, 
    222, 
    223, 
    224, 
    227, 
    228, 
    229, 
    230, 
    231, 
    232, 
    233, 
    234, 
    237, 
    238, 
    239, 
    240, 
    241, 
    242, 
    245, 
    246, 
    247, 
    248, 
    249, 
    250, 
    251, 
    252, 
    255, 
    256, 
    257, 
    258, 
    259, 
    260, 
    261, 
    262, 
    265, 
    266, 
    267, 
    268, 
    269, 
    270, 
    271, 
    272, 
    275, 
    276, 
    277, 
    278, 
    279, 
    280, 
    281, 
    284, 
    285, 
    286, 
    287, 
    288, 
    289, 
    292, 
    293, 
    294, 
    295, 
    296, 
    297, 
    298, 
    299, 
    302, 
    303, 
    304, 
    305, 
    306, 
    307, 
    308, 
    309, 
    312, 
    313, 
    314, 
    315, 
    316, 
    317, 
    318, 
    319, 
    322, 
    323, 
    324, 
    325, 
    326, 
    327, 
    330, 
    331, 
    332, 
    333, 
    334, 
    335, 
    336, 
    337, 
    340, 
    341, 
    342, 
    343, 
    344, 
    345, 
    346, 
    347, 
    350, 
    351, 
    352, 
    353, 
    354, 
    355, 
    356, 
    357, 
    360, 
    361, 
    362, 
    363, 
    364, 
    365, 
    368, 
    369, 
    370, 
    371, 
    372, 
    373, 
    374, 
    375, 
    378, 
    379, 
    380, 
    381, 
    382, 
    383, 
    384, 
    385, 
    388, 
    389, 
    390, 
    391, 
    392, 
    393, 
    394, 
    395, 
    398, 
    399, 
    400, 
    401, 
    402, 
    403, 
    406, 
    407, 
    408, 
    409, 
    410, 
    411, 
    412, 
    413, 
    416, 
    417, 
    418, 
    419, 
    420, 
    421, 
    422, 
    423, 
    426, 
    427, 
    428, 
    429, 
    430, 
    431, 
    432, 
    433, 
    436, 
    437, 
    438, 
    439, 
    440, 
    441, 
    444, 
    445, 
    446, 
    447, 
    448, 
    449, 
    450, 
    451, 
    454, 
    455, 
    456, 
    457, 
    458, 
    459, 
    460, 
    461, 
    464, 
    465, 
    466, 
    467, 
    468, 
    469, 
    470, 
    471, 
    474, 
    475, 
    476, 
    477, 
    478, 
    479, 
    482, 
    483, 
    484, 
    485, 
    486, 
    487, 
    488, 
    489, 
    492, 
    493, 
    494, 
    495, 
    496, 
    497, 
    498, 
    499, 
    502, 
    503, 
    504, 
    505, 
    506, 
    507, 
    508, 
    509, 
    512, 
    513, 
    514, 
    515, 
    516, 
    517, 
    518, 
    521, 
    522, 
    523, 
    524, 
    525, 
    526, 
    529, 
    530, 
    531, 
    532, 
    533, 
    534, 
    535, 
    536, 
    539, 
    540, 
    541, 
    542, 
    543, 
    544, 
    545, 
    546, 
    549, 
    550, 
    551, 
    552, 
    553, 
    554, 
    555, 
    556, 
    559, 
    560, 
    561, 
    562, 
    563, 
    564, 
    567, 
    568, 
    569, 
    570, 
    571, 
    572, 
    573, 
    574, 
    577, 
    578, 
    579, 
    580, 
    581, 
    582, 
    583, 
    584, 
    587, 
    588, 
    589, 
    590, 
    591, 
    592, 
    593, 
    594, 
    597, 
    598, 
    599, 
    600, 
    601, 
    602, 
    605, 
    606, 
    607, 
    608, 
    609, 
    610, 
    611, 
    612, 
    615, 
    616, 
    617, 
    618, 
    619, 
    620, 
    621, 
    622, 
    625, 
    626, 
    627, 
    628, 
    629, 
    630, 
    631, 
    632, 
    635, 
    636, 
    637, 
    638, 
    639, 
    640, 
    643, 
    644, 
    645, 
    646, 
    647, 
    648, 
    649, 
    650, 
    653, 
    654, 
    655, 
    656, 
    657, 
    658, 
    659, 
    660, 
    663, 
    664, 
    665, 
    666, 
    667, 
    668, 
    669, 
    670, 
    673, 
    674, 
    675, 
    676, 
    677, 
    678, 
    681, 
    682, 
    683, 
    684, 
    685, 
    686, 
    687, 
    688, 
    691, 
    692, 
    693, 
    694, 
    695, 
    696, 
    697, 
    698, 
    701, 
    702, 
    703, 
    704, 
    705, 
    706, 
    707, 
    708, 
    711, 
    712, 
    713, 
    714, 
    715, 
    716
  ], 
  "heads": [[565, 0, 0]], 
  "attrs": {"mxnet_version": ["int", 10300]}
}